ros_ws/src/primitive_library/src/neural_jsdf/JSDF/hand/NN_model/models/single_001_left.pt (torch, 491546 bytes, 24 tensors)

l1.weight f4 [250, 3]
-0.23990154 -0.1477262 -0.35304266 0.56411105 -0.3552177 0.061063964 -0.5157801 -0.7394507
-0.64571387 -0.44958058 -0.2494444 -0.41661838 0.41190723 0.7194417 0.41266257 -0.18466285
-0.07601537 0.25325784 0.33054256 0.116253585 0.3407189 0.0068404144 -0.16754647 -0.39050707
0.09505139 -0.38171393 0.629284 0.38614646 -0.042948574 -0.62846255 -0.24287368 0.6128507
-0.046133846 0.42849347 -0.055578284 0.447485 0.25811833 0.42930803 -0.60648054 -0.2006337
-0.73173463 -0.3112574 -0.73029083 -0.5382868 0.00079310435 -0.36754996 0.55332357 -0.32135716
-0.50188786 0.3305925 -0.441812 0.041323926 0.49597487 0.33542278 -0.48546654 0.28230292
-0.21450917 0.061668 -0.5639675 0.2678854 -0.7881347 -0.12892993 -0.3049238 -0.45286456
-0.9287923 0.117221214 -0.009122708 0.24825317 -0.203774 -0.5678342 0.11602167 -0.6152087
0.5056192 0.05751035 -0.15087008 -0.5563629 -0.024841018 0.17946942 -0.039391648 -0.41500053
0.124190435 -0.29538816 -0.4534227 -0.56668764 0.07391977 -0.45954075 -0.76090324 0.4342858
-0.008273079 -0.6482855 0.49373096 0.19673893 -0.24417983 0.002053211 0.023527969 -0.56396455
-0.13093099 -0.16234837 0.07979218 0.45492294 -0.09844206 0.5590452 0.29245788 -0.6625607
0.5213243 -0.56242335 -0.5637998 -0.41763207 0.035817023 0.5232634 -0.23010816 -0.360592
-0.32362756 -0.42386484 -0.16475303 0.49711055 -0.6280422 0.69950825 0.7094011 -0.63400275
-0.2592936 0.63119674 0.02019323 0.59176517 -0.08932979 -0.058901615 -0.28586465 0.4843873
-0.05288292 0.317249 -0.33628196 -0.29885614 -0.24229151 -0.23739901 -0.3861417 0.47727165
0.24480712 -0.53595334 0.25095668 -0.28369963 0.18738063 -0.48611245 -0.33441097 -0.51212436
-0.40541333 0.49622697 0.29423422 -0.12400147 0.050816808 0.7197663 -0.06934168 -0.45762652
0.48246333 -0.5288341 0.4576867 -0.09321511 0.45998475 0.54189056 -0.53364426 0.2306908
-0.6116804 -0.62086505 -0.5958469 0.55147773 0.26825327 -0.44369125 -0.6024077 0.081161514
-0.08786453 0.38914165 0.5124612 0.43409905 0.31806454 0.40460223 -0.1892899 -0.6263959
0.5088676 0.42996925 0.2879089 -0.5468291 -0.3576312 0.17297515 0.057394974 -0.45670563
-0.4096541 0.43717423 0.0028972249 -0.6115478 0.37404817 -0.066924304 -0.48654073 -0.5043425
-0.6531257 0.18353535 -0.1193728 0.34253964 -0.20008138 0.30760348 0.47711065 -0.2299136
-0.3627013 -0.72744524 -0.40227875 0.3738733 -0.13192356 -0.5252432 -0.21714395 -0.10517426
0.3523948 0.061042894 -0.50449485 0.5353209 -0.2965667 -0.6111327 0.32408875 -0.53648263
0.09462636 -0.60603535 -0.25312915 -0.631514 -0.49401355 -0.25950375 -0.2555021 -0.025543
0.4496075 0.40420777 -0.4902221 -0.19472967 0.56205356 0.28157765 0.001234352 -0.7564098
-0.08709069 0.38323015 0.5249559 -0.48003525 0.22842544 -0.42492756 -0.07504478 -0.58339345
-0.41404256 -0.5943608 -0.3987357 -0.25935307 0.057022877 0.2690695 -0.45903873 0.07617769
0.26319787 0.04738792 0.13064346 0.06779156 -0.9042223 0.08842733 0.50849205 0.42938462
00000000: c0a8 75be 8945 17be 02c2 b4be 9569 103f
00000010: 18df b5be 351e 7a3d 2a0a 04bf a44c 3dbf
00000020: 814d 25bf 6d2f e6be 5a6e 7fbe 014f d5be
00000030: 81e5 d23e 552d 383f 8248 d33e 4218 3dbe
00000040: f2ad 9bbd 03ab 813e e03c a93e 5c16 ee3d
00000050: b572 ae3e 8e25 e03b 4d91 2bbe 8bf0 c7be
00000060: 4eaa c23d 0270 c3be c218 213f fdb4 c53e
00000070: d8ea 2fbd ece2 20bf e1b3 78be c9e3 1c3f
00000080: d8f6 3cbd 7f63 db3e 0ea6 63bd c11c e53e
00000090: 1628 843e 43ce db3e 4f42 1bbf ec72 4dbe
000000a0: f652 3bbf 215d 9fbe 57f4 3abf 2acd 09bf
000000b0: 55e8 4f3a 822f bcbe 9da6 0d3f ed88 a4be
000000c0: b97b 00bf 6c43 a93e 2f35 e2be 4743 293d
000000d0: 6bf0 fd3e 89bc ab3e 128f f8be 028a 903e
000000e0: 4ba8 5bbe 9697 7c3d 2d60 10bf 4628 893e
000000f0: 32c3 49bf 3506 04be f91e 9cbe dddd e7be
00000100: 55c5 6dbf ad11 f03d 6977 15bc 1436 7e3e
00000110: 22aa 50be 955d 11bf c59c ed3d 517e 1dbf
00000120: 4370 013f f98f 6b3d b07d 1abe cd6d 0ebf
00000130: 647f cbbc d5c6 373e 2359 21bd f37a d4be
00000140: 8e57 fe3d 1e3d 97be 0527 e8be 7112 11bf
00000150: 4063 973d ed48 ebbe 8eca 42bf b55a de3e
00000160: cf8b 07bc 0af6 25bf 4eca fc3e ee75 493e
00000170: 470a 7abe 2a8f 063b babd c03c fb5f 10bf
00000180: c612 06be a73e 26be 156a a33d a9eb e83e
00000190: fe9b c9bd 961d 0f3f 0abd 953e 949d 29bf
000001a0: 8275 053f fafa 0fbf 2f55 10bf dfd3 d5be
000001b0: dfb4 123d 97f4 053f 79a1 6bbe 849f b8be
000001c0: 83b2 a5be d004 d9be 05b5 28be 4685 fe3e
000001d0: 60c7 20bf f912 333f 4f9b 353f 014e 22bf
000001e0: 21c2 84be 1c96 213f 466c a53c ec7d 173f
000001f0: 89f2 b6bd d242 71bd da5c 92be 9d01 f83e
00000200: c39b 58bd 766e a23e 262d acbe ac03 99be
00000210: 441b 78be ba18 73be 5db4 c5be f35c f43e
00000220: b8ae 7a3e 3d34 09bf 657d 803e 1441 91be
00000230: b5e0 3f3e bbe3 f8be ea37 abbe 951a 03bf
00000240: 5692 cfbe 7611 fe3e dea5 963e 7cf4 fdbd
00000250: 4925 503d 9b42 383f 0303 8ebd 064e eabe
00000260: 6f05 f73e ac61 07bf e955 ea3e 90e7 bebd
00000270: 1f83 eb3e 57b9 0a3f e99c 08bf 363a 6c3e
00000280: 1697 1cbf 03f1 1ebf 6c89 18bf a52d 0d3f
00000290: 7e58 893e 802b e3be 6437 1abf 0238 a63d
000002a0: 52f2 b3bd 933d c73e a830 033f 3b42 de3e
000002b0: 5bd9 a23e 0628 cf3e 36d5 41be 7b5b 20bf
000002c0: 2645 023f ee24 dc3e cc68 933e fefc 0bbf
000002d0: 701b b7be 6620 313e fe16 6b3d 52d5 e9be
000002e0: 2fbe d1be 4dd5 df3e 5edf 3d3b 668e 1cbf
000002f0: 3e83 bf3e 9c0f 89bd de1b f9be 971c 01bf
00000300: 3f33 27bf b1f0 3b3e ba79 f4bd 5b61 af3e
00000310: 22e2 4cbe 347e 9d3e d947 f43e 796e 6bbe
00000320: fcb3 b9be da39 3abf 7bf7 cdbe 526c bf3e
00000330: f816 07be 5776 06bf fc5a 5ebe 9a65 d7bd
00000340: 176d b43e 1d08 7a3d 9326 01bf ca0a 093f
00000350: 97d7 97be 3173 1cbf f6ee a53e ed56 09bf
00000360: 77cb c13d 2225 1bbf 259a 81be e7aa 21bf
00000370: 58ef fcbe addd 84be 2cd1 82be 8e3f d1bc
00000380: f432 e63e 52f4 ce3e 64fe fabe 3767 47be
00000390: bee2 0f3f f22a 903e fbc9 a13a 13a4 41bf
000003a0: 9b5c b2bd be36 c43e 8363 063f 2ec7 f5be
000003b0: 5ce8 693e 1b90 d9be 14b1 99bd 4659 15bf
000003c0: 63fd d3be 0828 18bf 1627 ccbe edc9 84be
000003d0: d290 693d 7ac3 893e 2007 ebbe 0c03 9c3d
000003e0: dfc1 863e d619 423d 66c7 053e 4dd6 8a3d
000003f0: 1d7b 67bf 6319 b53d 892c 023f 4dd8 db3e

l1.bias f4 [250]
-0.38562974 -0.26736107 0.48121858 0.21533804 -0.013567047 0.2474936 -0.56192386 -0.15391497
-0.21621247 -0.10893479 0.38044563 0.3279234 -0.16390875 0.011362973 0.0578041 0.11213465
-0.012448771 -0.459324 0.5412315 0.21800585 0.20278642 0.1517533 0.25807598 0.084612854
0.15921159 -0.013203989 -0.17743728 0.43941575 -0.23998596 0.23778458 0.10274695 -0.20163006
0.56236434 0.19669423 0.07503877 0.029755568 -0.010477826 -0.05308699 -0.18992163 0.40582156
0.24290074 0.5335083 -0.17989635 0.25430548 0.1920658 -0.36343503 -0.5300527 -0.050761856
0.57428366 -0.32091114 0.29460943 -0.28644708 0.530181 0.46790528 -0.12335179 0.2338706
0.28250095 -0.30805925 -0.33961454 0.40917465 0.25636035 0.40594518 0.2797242 0.24591932
0.22460453 0.2567828 0.1704547 -0.110372655 0.009180002 -0.05856896 0.40047663 0.3365064
0.5346765 0.16266125 -0.42081535 0.11508571 -0.38533998 0.17313135 0.42075473 0.4142172
-0.399017 -0.40834934 0.5079937 0.33156487 -0.10723339 -0.36208916 0.55446106 0.5262211
-0.004983567 -0.36089545 0.034877684 -0.325644 -0.3313158 -0.18965457 -0.28234634 0.66917807
0.04553792 -0.3656937 0.25398088 0.3052563 -0.0045433254 -0.13469632 -0.05092687 0.20645173
0.48346612 0.0046733012 0.06135349 -0.34611663 -0.44401252 -0.41333887 -0.21003866 0.20807363
-0.11617988 0.58428246 0.13648815 0.08481176 -0.15059382 -0.4588372 -0.14337878 0.3029964
-0.44576094 -0.25914022 0.25174263 -0.018241871 0.42566204 -0.48114422 0.24703594 -0.33806166
-0.022958608 -0.30917633 -0.33835164 -0.35373235 0.15269336 0.36714002 -0.1186383 -0.17686279
0.29172826 -0.044046838 0.32232666 0.024354229 0.028033886 0.48725572 -0.08509057 0.57363045
-0.2851651 0.37766024 0.12359975 0.42576945 0.26180497 0.29911307 -0.12665951 0.41809526
0.43929356 -0.048121396 -0.0569305 0.05622082 -0.21040234 0.17642097 0.06761475 0.38949504
-0.2493139 -0.1749236 -0.2064253 -0.12588003 0.25821742 -0.36360088 0.5651637 0.0030660604
-0.4040181 0.17099634 0.5397612 0.055597935 -0.19308713 -0.31249544 -0.07452069 -0.40918845
0.097046725 -0.22155961 -0.054405555 -0.43250442 -0.38395396 -0.243977 0.58936405 -0.15739998
-0.1216814 -0.0086697955 0.24752697 -0.14425781 0.3933271 -0.45275435 0.044691663 0.55915827
0.48024392 0.25199303 0.15625395 0.078743175 -0.11179582 -0.19829912 -0.26981795 0.012808484
0.38945273 0.07909625 -0.17547564 -0.33791348 -0.4048664 0.37752864 -0.1887649 0.27344608
-0.344098 -0.09162601 0.33928514 0.29226333 0.011306162 0.5444983 0.009718692 -0.41674957
-0.106413364 -0.31103647 0.52857417 -0.22699702 -0.053201277 -0.059036184 0.07735768 -0.00524531
-0.40669763 0.23127571 0.48464197 0.46982786 -0.39504865 0.27616182 0.23971164 -0.32652164
0.15202916 0.5579197 0.14639069 0.44299862 -0.02583472 0.5351278 0.26343963 -0.4218197
-0.14292823 0.023172172 0.15896793 0.43410656 0.2239555 0.2146248 0.47255903 0.29743183
0.47023094 0.023348916
00000000: 4371 c5be 8de3 88be 4862 f63e 9381 5c3e
00000010: 5248 5ebc f66e 7d3e 3eda 0fbf e39b 1dbe
00000020: cd66 5dbe 3419 dfbd c5c9 c23e 93e5 a73e
00000030: b2d7 27be c32b 3a3c fec3 6c3d daa6 e53d
00000040: eef5 4bbc 842c ebbe 268e 0a3f ed3c 5f3e
00000050: 3ea7 4f3e 3865 1b3e 8922 843e 8149 ad3d
00000060: 5d08 233e 8b55 58bc 1eb2 35be 1afb e03e
00000070: e1be 75be cd7d 733e fe6c d23d 1c78 4ebe
00000080: 1cf7 0f3f 366a 493e edad 993d f3c1 f33c
00000090: 30ab 2bbc be71 59bd d17a 42be d8c7 cf3e
000000a0: f9ba 783e 0094 083f c036 38be 5434 823e
000000b0: e6ac 443e 2814 babe 89b1 07bf aaeb 4fbd
000000c0: 4104 133f 774e a4be 0cd7 963e 31a9 92be
000000d0: f1b9 073f 4891 ef3e dd9f fcbd c67b 6f3e
000000e0: f7a3 903e f1b9 9dbe f5e1 adbe 577f d13e
000000f0: aa41 833e 0cd8 cf3e 0338 8f3e 46d2 7b3e
00000100: bbfe 653e 0979 833e ad8b 2e3e 0f0b e2bd
00000110: b867 163c 01e6 6fbd 460b cd3e 914a ac3e
00000120: 8fe0 083f ac90 263e 1c75 d7be 0fb2 eb3d
00000130: 484b c5be 5849 313e 2a6d d73e 4714 d43e
00000140: f54b ccbe 2a13 d1be e00b 023f dfc2 a93e
00000150: 2e9d dbbd c063 b9be 29f1 0d3f 6db6 063f
00000160: 314d a3bb 4ac7 b8be e7db 0e3d cfba a6be
00000170: 39a2 a9be cf34 42be b38f 90be 414f 2b3f
00000180: f885 3a3d 343c bbbe c809 823e 8e4a 9c3e
00000190: 2de0 94bb d5ed 09be b298 50bd 1568 533e
000001a0: df88 f73e 7e22 993b cc4d 7b3d 3336 b1be
000001b0: 9c55 e3be 27a1 d3be 6014 57be 4111 553e
000001c0: b8ef edbd 8993 153f 8dc3 0b3e cab1 ad3d
000001d0: 4435 1abe b6ec eabe e3d1 12be 5822 9b3e
000001e0: c73a e4be 07ae 84be 69e4 803e fa6f 95bc
000001f0: 60f0 d93e 8958 f6be fdf6 7c3e 6b16 adbe
00000200: b113 bcbc 5c4c 9ebe 6d3c adbe 681c b5be
00000210: a65b 1c3e c7f9 bb3e a3f8 f2bd 851b 35be
00000220: 685d 953e 756a 34bd 0008 a53e 8582 c73c
00000230: 52a7 e53c 9579 f93e f743 aebd 72d9 123f
00000240: 2901 92be af5c c13e de21 fd3d 74fe d93e
00000250: 4d0b 863e 5925 993e 08b3 01be 9510 d63e
00000260: 16eb e03e f11a 45bd f52f 69bd cd47 663d
00000270: b673 57be b3a7 343e 9a79 8a3d e56b c73e
00000280: 254c 7fbe 2c1f 33be 2761 53be b2e6 00be
00000290: 1335 843e e529 babe 91ae 103f f5ef 483b
000002a0: 76db cebe aa19 2f3e ca2d 0a3f a9ba 633d
000002b0: a2b8 45be 67ff 9fbe 4e9e 98bd 2681 d1be
000002c0: 6fc0 c63d 86e0 62be 5cd8 5ebd 3871 ddbe
000002d0: 9d95 c4be 1bd5 79be 90e0 163f 762d 21be
000002e0: 1934 f9bd c20b 0ebc b677 7d3e 52b8 13be
000002f0: 2b62 c93e 6bcf e7be 9b0e 373d ff24 0f3f
00000300: 88e2 f53e 3b05 813e 0901 203e 1a44 a13d
00000310: 35f5 e4bd ed0e 4bbe 9425 8abe adda 513c
00000320: 5966 c73e 37fd a13d e3af 33be ff02 adbe
00000330: a64a cfbe 6f4b c13e 964b 41be 2001 8c3e
00000340: 9d2d b0be 6ba6 bbbd c8b6 ad3e 8aa3 953e
00000350: 7b3d 393c 3e64 0b3f 263b 1f3c 3360 d5be
00000360: 40ef d9bd 2c40 9fbe a350 073f e871 68be
00000370: 95e9 59bd edcf 71bd b46d 9e3d d9e0 abbb
00000380: ac3a d0be 8ad3 6c3e fe22 f83e 478d f03e
00000390: d143 cabe 1565 8d3e f876 753e d82d a7be
000003a0: 88ad 1b3e d3d3 0e3f 71e7 153e b7d0 e23e
000003b0: 56a3 d3bc 23fe 083f 8fe1 863e c0f8 d7be
000003c0: c75b 12be 91d3 bd3c 7dc8 223e 3743 de3e
000003d0: 9754 653e 9bc6 5b3e 42f3 f13e fc48 983e
000003e0: 1cc2 f03e 3a46 bf3c

l2.weight f4 [130, 250]
-0.07406471 0.0011945015 0.010998736 -0.006238383 0.12621218 -0.11833741 0.0021823063 0.12451127
0.092215054 -0.08596581 -0.049010485 -0.046399992 0.015883954 0.14017484 -0.050706938 -0.053378347
0.05901439 0.020588197 -0.052012943 0.041876726 -0.050940525 -0.07257199 -0.008672244 -0.01694723
0.07563735 0.02783336 -0.0055993493 -0.04524049 -0.046637237 0.12717354 0.04619215 0.055439908
-0.06571916 0.038635764 0.16522288 0.051231213 0.040641557 0.09230591 0.09788163 0.033261303
0.06032415 0.010924738 0.021565013 0.015530594 0.025279554 0.004692009 -0.089754686 -0.00741602
-0.047164552 0.21514267 -0.080658175 0.04301546 0.029867439 -0.02931062 0.10423526 0.04817072
0.026550345 0.021535248 -0.049729902 -0.008646305 -0.063261576 -0.08548977 -0.07962979 0.069972485
0.008770541 0.06674129 0.062401727 0.102554984 0.120193034 0.010216037 0.012225862 -0.08387549
-0.039771866 -0.046601254 0.06658102 0.111133255 -0.012338473 -0.04110992 0.043598335 -0.025082681
-0.007914255 -0.027637739 -0.091149025 0.019832099 0.028181799 0.00570332 -0.031563655 -0.035755496
0.10157172 -0.054438543 -0.00090250943 0.0036437719 0.039432697 0.06462738 -0.0179404 -0.055024218
0.13843378 0.019191379 0.04556786 -0.09587755 0.1328872 0.029492067 0.051606875 0.16354683
-0.057860453 0.0366075 0.042366944 -0.02014353 -0.030595804 0.06935076 0.042494074 0.093209706
0.014998485 0.044466782 0.04820026 0.14618765 0.043043196 0.044304706 -0.018362649 -0.08596975
0.003994045 -0.01038272 0.023928778 0.011883385 0.022287829 -0.07030373 0.019696884 -0.005541638
0.10791703 0.031453833 0.046466295 -0.060146715 -0.023578033 0.003682381 -0.023095032 0.07484615
-0.07201228 0.073522754 0.008669356 -0.009214307 0.02091593 0.08087223 0.053318843 -0.03256672
0.121676005 -0.10270537 0.015456792 0.05201521 0.11512627 0.0020430388 0.004419228 -0.035521843
-7.177764e-05 -0.008898423 -0.01849325 0.12371237 0.079474926 -0.00818641 0.15106599 -0.008039924
-0.04367392 0.17278539 -0.09412159 0.114804834 0.014005669 0.07199917 0.010981759 0.012854673
0.054155216 0.0906393 -0.017103536 0.20146988 0.05633605 -0.060044087 0.025724256 -0.0343388
0.04579076 -0.02364066 0.032671724 -0.065586194 -0.016339641 0.16285415 -0.05699387 0.06354493
0.039825156 0.069501795 -0.007853661 0.03766572 -0.068043314 -0.045128535 0.05853891 0.049855046
0.046743367 0.075827084 0.03339901 -0.05620043 -0.014683413 0.104565956 0.008467614 0.10945638
0.0071749077 0.054357026 0.065714024 -0.060450472 0.03440076 -0.017352171 0.030587146 0.069842614
0.06245152 0.088098355 -0.01972433 0.0012818046 0.06648799 0.0034608745 0.10420395 -0.029495409
0.13016996 -0.034832615 0.062455755 -0.017468208 0.08343485 0.07917613 0.052947238 0.13082385
0.027857836 0.00336363 0.009643204 -0.05719078 -0.010109405 0.040739678 -0.1176194 -0.03588154
0.01403972 0.02847397 0.01881741 -0.022753522 0.08739626 0.021165358 -0.08934006 0.014596716
0.000314106 0.08283023 0.049616948 0.011314862 -0.009354053 0.216271 -0.042096727 0.008136205
-0.049413607 0.034122434 -0.032602657 0.00017864576 0.041006938 -0.035435747 -0.048210766 6.630021e-05
00000000: 3daf 97bd d290 9c3a 0b34 343c 596b ccbb
00000010: c43d 013e e25a f2bd 0605 0f3b c4ff fe3d
00000020: 3fdb bc3d d80e b0bd 38bf 48bd eb0d 3ebd
00000030: 111f 823c fe89 0f3e 14b2 4fbd 41a3 5abd
00000040: 13b9 713d 94a8 a83c 860b 55bd ee86 2b3d
00000050: 03a7 50bd a0a0 94bd 0716 0ebc ebd4 8abc
00000060: c1e7 9a3d c902 e43c bf7a b7bb 184e 39bd
00000070: b006 3fbd c839 023e fb33 3d3d f514 633d
00000080: c497 86bd 8940 1e3d 3030 293e d2d7 513d
00000090: c377 263d e20a bd3d 2a76 c83d 013d 083d
000000a0: 7516 773d acfd 323c 1ca9 b03c 0874 7e3c
000000b0: 1117 cf3c 6dbf 993b 4ed1 b7bd 1602 f3bb
000000c0: 9e2f 41bd 5c4e 5c3e 1d30 a5bd fb30 303d
000000d0: 8fac f43c d31c f0bc 4c79 d53d a94e 453d
000000e0: 1c80 d93c b06a b03c 95b1 4bbd 3ba9 0dbc
000000f0: 498f 81bd 4315 afbd f114 a3bd bc4d 8f3d
00000100: 51b2 0f3c a8af 883d f498 7f3d 5908 d23d
00000110: c427 f63d 2a61 273c fb4e 483c eac6 abbd
00000120: d3e7 22bd f5e0 3ebd a15b 883d d599 e33d
00000130: 4f27 4abc e062 28bd 2b94 323d 327a cdbc
00000140: cbaa 01bc 8a68 e2bc 57ac babd ed76 a23c
00000150: 84dd e63c eae2 ba3b e448 01bd 5b74 12bd
00000160: d504 d03d f3fa 5ebd 6296 6cba 59cc 6e3b
00000170: 2e84 213d 5c5b 843d bff7 92bc 1361 61bd
00000180: 96c1 0d3e 3d37 9d3c 5da5 3a3d 735b c4bd
00000190: 9513 083e 5999 f13c bb61 533d d278 273e
000001a0: 15ff 6cbd bff1 153d f688 2d3d 0b04 a5bc
000001b0: 0da4 fabc c507 8e3d 440e 2e3d bbe4 be3d
000001c0: 35bc 753c cd22 363d a36d 453d 37b2 153e
000001d0: 104e 303d da78 353d 446d 96bc e910 b0bd
000001e0: 7ae0 823b 491c 2abc 4906 c43c 87b2 423c
000001f0: f794 b63c 67fb 8fbd 5c5b a13c a196 b5bb
00000200: 9b03 dd3d bcd5 003d 7153 3e3d 675c 76bd
00000210: b826 c1bc 1a54 713b cb31 bdbc f048 993d
00000220: 2d7b 93bd 1993 963d ea09 0e3c 9bf7 16bc
00000230: e257 ab3c 57a0 a53d dc64 5a3d ae64 05bd
00000240: 4531 f93d 3157 d2bd 7c3e 7d3c e70d 553d
00000250: 52c7 eb3d 81e4 053b 2ccf 903b 5a7f 11bd
00000260: 5487 96b8 b1ca 11bc 287f 97bc e95c fd3d
00000270: c0c3 a23d 4b20 06bc 0bb1 1a3e e3b9 03bc
00000280: 6de3 32bd a7ee 303e d2c2 c0bd cc1e eb3d
00000290: 0978 653c 4d74 933d d6ec 333c 689c 523c
000002a0: dcd1 5d3d 19a1 b93d b71c 8cbc 1f4e 4e3e
000002b0: a1c0 663d caf0 75bd adbb d23c d7a6 0cbd
000002c0: 188f 3b3d 0faa c1bc c9d2 053d 0e52 86bd
000002d0: b6da 85bc 3dc3 263e 6772 69bd d823 823d
000002e0: b41f 233d f556 8e3d a4ac 00bc 5f47 1a3d
000002f0: 4b5a 8bbd b3d8 38bd 7fc6 6f3d ce34 4c3d
00000300: f975 3f3d 3b4b 9b3d 66cd 083d 6c32 66bd
00000310: b392 70bc ad26 d63d bfbb 0a3c ab2a e03d
00000320: 7d1b eb3b 79a5 5e3d 1395 863d ea9a 77bd
00000330: d0e7 0c3d 2426 8ebc e591 fa3c a509 8f3d
00000340: 2acd 7f3d e96c b43d eb94 a1bc 3a02 a83a
00000350: db2a 883d d7cf 623b e168 d53d 5ba0 f1bc
00000360: 464b 053e a5ac 0ebd 9bd1 7f3d 7d19 8fbc
00000370: e4df aa3d 1827 a23d 34df 583d b0f6 053e
00000380: 1e36 e43c 5970 5c3b 87fe 1d3c e140 6abd
00000390: eba1 25bc a6de 263d 71e2 f0bd 86f8 12bd
000003a0: db06 663c 3e42 e93c f826 9a3c 9865 babc
000003b0: cffc b23d f962 ad3c ecf7 b6bd 1027 6f3c
000003c0: 98ae a439 e5a2 a93d 243b 4b3d f961 393c
000003d0: be41 19bc 2576 5d3e 9e6d 2cbd b84d 053c
000003e0: ec65 4abd f7c3 0b3d 5d8a 05bd db52 3b39
000003f0: e4f6 273d 1325 11bd a778 45bd a70a 8b38

l2.bias f4 [130]
0.010716719 0.053443592 -0.038617834 -0.03967219 -0.020155119 -0.016632773 0.005253251 0.042347893
-0.008781121 -0.048948713 -0.023269743 0.015706688 0.06107683 -0.039256386 -0.02536512 0.046957295
-0.020459214 0.022053592 0.046360545 0.03126811 -0.04222087 -0.031906966 0.0706204 0.015237714
0.059786998 -0.046232365 0.061245628 -0.050764397 -0.049035102 0.051265623 -0.05127062 0.024901435
0.012687391 0.062441666 0.04396627 -0.047936488 0.04974936 -0.026449181 0.010786053 -0.06713011
0.00060975703 -0.03385993 0.052180883 0.056377698 0.012707713 -0.0147697665 -0.051794317 0.03951955
0.03181886 0.024918778 0.051310696 0.06230641 0.03227974 -0.02482555 0.0024881077 -0.0145346075
-0.03939243 0.023514327 -0.0487176 -0.0088274 -0.004677073 0.055420574 -0.04607558 -0.010505771
0.042885598 -0.025142262 0.017006543 -0.011241281 0.013820621 -0.05679373 0.030656094 -0.06699129
-0.0052971435 -0.07256104 -0.043502953 -0.010976698 0.009555651 0.1133605 -0.03440972 0.016950933
0.046659622 -0.050403915 0.0037831587 0.043396644 0.022615012 0.006678433 0.040478006 0.033432636
-0.039578088 0.054156795 0.026482861 -0.017753555 -0.08932465 0.015233374 -0.045136586 0.040090892
-0.010859673 0.044559013 -0.026771747 0.049654778 -0.011354127 0.04008867 0.03595752 0.043023698
0.070793465 -0.028151708 -0.04595986 0.027808951 0.047026392 -0.015508518 0.06365009 0.045039758
-0.050573014 0.0124005955 0.12641482 -0.0038401415 0.053957753 0.021491747 -0.009714365 -0.017598087
0.012881043 -0.026652554 -0.028328095 -0.0040430087 0.03979207 0.043869533 -0.043253336 -0.013458647
-0.045264322 -0.051202353
00000000: 2d95 2f3c abe7 5a3d bc2d 1ebd 4e7f 22bd
00000010: 591c a5bc 7441 88bc 7723 ac3b fc74 2d3d
00000020: b1de 0fbc 727e 48bd 30a0 bebc 50ab 803c
00000030: b32b 7a3d 4ecb 20bd 83ca cfbc 4b56 403d
00000040: 159a a7bc bca9 b43c 8ee4 3d3d fd12 003d
00000050: caef 2cbd e1b0 02bd 6ea1 903d 9ba7 793c
00000060: 36e3 743d 265e 3dbd b2dc 7a3d 54ee 4fbd
00000070: 08d9 48bd e7fb 513d 2401 52bd 18fe cb3c
00000080: c6de 4f3c d5c2 7f3d fa15 343d 0d59 44bd
00000090: fcc5 4b3d f4ab d8bc fcb7 303c 837b 89bd
000000a0: 1ad8 1f3a b6b0 0abd 9fbb 553d 4dec 663d
000000b0: 0334 503c e4fc 71bc 4726 54bd 40df 213d
000000c0: 7e54 023d 7722 cc3c 2a2b 523d 0235 7f3d
000000d0: c337 043d f45e cbbc 850f 233b 9022 6ebc
000000e0: f559 21bd 1ea1 c03c 1b8c 47bd cda0 10bc
000000f0: 2242 99bb af00 633d bfb9 3cbd 6620 2cbc
00000100: cfa8 2f3d 25f7 cdbc 4e51 8b3c 5a2d 38bc
00000110: e36f 623c 8ba0 68bd 7d22 fb3c bb32 89bd
00000120: a993 adbb e29a 94bd 2730 32bd 9cd7 33bc
00000130: 4e8f 1c3c 8d29 e83d 35f1 0cbd afdc 8a3c
00000140: 291e 3f3d 5674 4ebd dfee 773b aec0 313d
00000150: 1e43 b93c c2d6 da3b 44cc 253d a9f0 083d
00000160: a21c 22bd 84d3 5d3d 96f2 d83c e76f 91bc
00000170: d8ef b6bd 6795 793c 24e1 38bd 5936 243d
00000180: c5ec 31bc 8383 363d 6c50 dbbc cf62 4b3d
00000190: a906 3abc 0434 243d 3148 133d 9e39 303d
000001a0: 2afc 903d 699e e6bc 6840 3cbd 99cf e33c
000001b0: bf9e 403d 7017 7ebc fa5a 823d 9c7b 383d
000001c0: a625 4fbd de2b 4b3c e372 013e e2aa 7bbb
000001d0: ce02 5d3d 760f b03c 0029 1fbc dd29 90bc
000001e0: 030b 533c 7556 dabc 5210 e8bc 377b 84bb
000001f0: 02fd 223d 8ab0 333d 692a 31bd a881 5cbc
00000200: 1567 39bd 8fb9 51bd

l3.weight f4 [50, 130]
-0.5294065 0.07630066 -0.44566485 -0.13575414 -0.07907665 -0.06312896 -0.2729442 0.3242211
-0.30776373 0.35740954 0.3779115 -0.15179339 0.18093333 -0.038416997 -0.6653026 -0.04630448
-0.08326506 0.013662398 -0.016754605 0.07516561 -0.028770585 0.065245904 -0.25729716 -0.32363048
-0.063792154 -0.059244767 0.17029437 0.2931531 0.25619388 -0.055084225 -0.106711656 0.076919585
-0.53443575 0.18904577 -0.077418655 0.36608413 0.032554973 -0.31639928 -0.027513077 0.43775395
0.03015673 -0.42506078 0.21823913 0.08576807 0.018615069 0.13065532 0.14995705 -0.9460966
0.035087682 -0.17822416 -0.39399144 -0.36475837 0.48934016 -0.06648693 0.17961428 0.048344295
-0.05824485 -0.4959168 -0.4801552 -0.03652168 0.030416274 -0.017468665 -0.3483296 -0.67062354
0.19193113 0.43061718 -0.009600705 -0.0076590115 -0.0837169 0.13128816 -0.021752534 -0.08168943
-0.66857696 -0.7051063 -0.3301687 0.2617716 0.20448104 0.03876008 0.017511675 -0.69491166
0.104927905 -0.62824696 -0.3946394 0.14330553 -0.24055846 -0.13034792 0.28761846 -0.41122288
0.11449354 0.024181288 0.07725796 -0.26381987 -0.26254553 -0.18714808 0.33135986 -0.39524192
-0.06178641 0.13281466 -1.0306579 0.0872493 0.10807796 -0.083134495 0.010460302 -0.34436718
0.032716762 -0.5611557 0.13567518 -0.004026398 0.10511983 0.11341796 -0.008409347 -0.540864
-0.50968784 -0.7689084 0.10425164 -0.43771157 0.1188161 0.17848466 -0.020731257 -0.023462111
0.06574129 -0.05144969 0.039582297 -0.32998592 -0.02813994 -0.045286287 -0.9538453 0.07085526
-0.43807402 -0.7452082 0.070619985 0.19007203 0.07909699 0.17733991 -0.047251802 -0.024045298
0.09134581 -0.06094648 0.020570284 -0.05729325 -0.02940137 0.028357923 0.00095339137 0.03322423
0.08892484 -0.0074911052 -0.07661714 -0.021184675 0.05847058 -0.024649652 -0.03423039 -0.08058808
0.03471765 0.032315657 -0.15285702 0.07715208 -0.08002951 -0.01569337 -0.11169913 -0.013721983
0.023806714 -0.04871699 0.06503076 -0.009544842 -0.044453993 0.060647752 0.0671037 0.050905257
0.030175075 -0.008501376 -0.09571118 0.022577744 -0.022780297 -0.05966283 0.07164559 -0.04357146
0.00241008 0.044619273 0.08707931 0.027615206 -0.043562263 0.076278105 0.03257815 -0.0798892
0.051746957 0.003156994 -0.07833473 0.098708235 0.06767762 -0.065959185 -0.020582283 -0.018718397
0.08334658 -0.016763268 0.053627256 0.08618436 -0.0038932168 -0.018602265 -0.06604733 0.094435014
-0.110433474 0.06725108 0.11206919 0.12648927 0.08388447 -0.035312477 -0.07058512 0.041407477
0.062198605 0.14950575 -0.017216127 -0.056668095 0.11025857 -0.045230474 0.113290325 0.039147805
-0.021655818 0.059489563 0.010417271 0.03130586 -0.014716438 0.014441355 0.10686532 0.06980848
-0.0546759 0.10118596 0.025812386 0.093691185 0.052847665 -0.022849051 0.053484023 0.07863163
-0.007622956 0.036197998 -0.035186987 -0.037024647 -0.06182529 0.1317225 0.053294983 -0.06329083
0.102146804 0.050431363 -0.034144785 0.06386346 -0.05887774 0.04176545 0.03686183 -0.032597598
0.029019104 0.102669045 0.031186508 -0.025977258 -0.09422462 -0.18511389 -0.036663238 -0.048575882
00000000: 2f87 07bf 8543 9c3d 2f2e e4be 2203 0bbe
00000010: f0f2 a1bd c249 81bd 58bf 8bbe 4f00 a63e
00000020: 3593 9dbe 62fe b63e 9e7d c13e ba6f 1bbe
00000030: 9646 393e 245b 1dbd 4551 2abf c4a9 3dbd
00000040: df86 aabd 40d8 5f3c f440 89bc 6df0 993d
00000050: 4ab0 ebbc a59f 853d 74bc 83be e5b2 a5be
00000060: 76a5 82bd a4aa 72bd a661 2e3e 2a18 963e
00000070: d82b 833e ff9f 61bd a48b dabd 0488 9d3d
00000080: c8d0 08bf 3795 413e ac8d 9ebd 616f bb3e
00000090: 5d58 053d 16ff a1be 1b63 e1bc 4921 e03e
000000a0: 3f0b f73c 91a1 d9be 147a 5f3e 2ba7 af3d
000000b0: a17e 983c 82ca 053e 578e 193e 6333 72bf
000000c0: 1ab8 0f3d 6580 36be 3fb9 c9be 9cc1 babe
000000d0: cb8a fa3e 4d2a 88bd ceec 373e ab04 463d
000000e0: 2792 6ebd cfe8 fdbe e7d6 f5be c297 15bd
000000f0: 8d2b f93c 721a 8fbc 4258 b2be fcad 2bbf
00000100: 9889 443e db79 dc3e 464c 1dbc 72f8 fabb
00000110: c473 abbd 6770 063e 5f32 b2bc ca4c a7bd
00000120: dc27 2bbf d981 34bf df0b a9be ed06 863e
00000130: 7a63 513e e4c2 1e3d a574 8f3c bbe5 31bf
00000140: 71e4 d63d cbd4 20bf 2d0e cabe afbe 123e
00000150: f554 76be ed79 05be ba42 933e ce8b d2be
00000160: 977b ea3d d617 c63c 6c39 9e3d 6613 87be
00000170: 5e6c 86be bfa3 3fbe 00a8 a93e 265d cabe
00000180: bf13 7dbd 9100 083e 99ec 83bf c3af b23d
00000190: fa57 dd3d 6b42 aabd b061 2b3c e550 b0be
000001a0: 0302 063d e6a7 0fbf 6fee 0a3e e0ef 83bb
000001b0: 1149 d73d ad47 e83d 5cc7 09bc 1076 0abf
000001c0: e77a 02bf 2ed7 44bf e281 d53d bb1b e0be
000001d0: db55 f33d afc4 363e 99d4 a9bc 9d33 c0bc
000001e0: 5fa3 863d e9bc 52bd 0c21 223d eaf3 a8be
000001f0: bb85 e6bc 1d7e 39bd 352f 74bf 901c 913d
00000200: 3d4b e0be f7c5 3ebf 36a1 903d 3ea2 423e
00000210: 9afd a13d 9898 353e 1b8b 41bd a5fa c4bc
00000220: 8313 bb3d 04a3 79bd 0383 a83c 54ac 6abd
00000230: 24db f0bc e04e e83c 03ed 793a 2116 083d
00000240: 3a1e b63d f277 f5bb 72e9 9cbd 7c8b adbc
00000250: d97e 6f3d 11ee c9bc 2a35 0cbd 5d0b a5bd
00000260: 1834 0e3d 6c5d 043d 8d86 1cbe e901 9e3d
00000270: 83e6 a3bd 628f 80bc 83c2 e4bd 2bd2 60bc
00000280: 4c06 c33c 778b 47bd d92e 853d f861 1cbc
00000290: 6415 36bd c769 783d aa6d 893d 0882 503d
000002a0: b831 f73c 5b49 0bbc 3904 c4bd f6f4 b83c
000002b0: bf9d babc 0361 74bd ecba 923d fd77 32bd
000002c0: 6ff2 1d3b b3c2 363d a356 b23d 4939 e23c
000002d0: 586e 32bd b237 9c3d ab70 053d f39c a3bd
000002e0: 9ef4 533d 92e5 4e3b f56d a0bd 8b27 ca3d
000002f0: 909a 8a3d 9c15 87bd 2d9c a8bc 5357 99bc
00000300: 9db1 aa3d 1f53 89bc 41a8 5b3d 6d81 b03d
00000310: 5725 7fbb c763 98bc d343 87bd 2567 c13d
00000320: f22a e2bd efba 893d 8884 e53d 6786 013e
00000330: 9fcb ab3d d1a3 10bd ee8e 90bd e39a 293d
00000340: f7c3 7e3d 0918 193e d608 8dbc ce1c 68bd
00000350: 3fcf e13d 9743 39bd c204 e83d 7359 203d
00000360: 8b67 b1bc 54ab 733d 34ad 2a3c 933a 003d
00000370: 371d 71bc 6f9b 6c3c 34dc da3d c0f7 8e3d
00000380: d6f3 5fbd 963a cf3d 7f74 d33c 2ae1 bf3d
00000390: cb76 583d ef2d bbbc 1012 5b3d 9f09 a13d
000003a0: fdc9 f9bb 5a44 143d 3b20 10bd 28a7 17bd
000003b0: 843c 7dbd 43e2 063e d74b 5a3d 9f9e 81bd
000003c0: 5832 d13d 1e91 4e3d 67db 0bbd d9ca 823d
000003d0: c929 71bd 4012 2b3d 6efc 163d 0f85 05bd
000003e0: 79b9 ed3c 2644 d23d d97a ff3c 42ce d4bc
000003f0: d6f8 c0bd 7f8e 3dbe 312c 16bd 81f7 46bd

l3.bias f4 [50]
0.1953087 -0.07524442 0.031310618 -0.056424767 0.0395518 -0.0030942133 -0.016258387 -0.02184595
-0.06483204 -0.05656758 -0.087808765 0.07446189 0.090166956 -0.07078366 0.032148115 0.0068584266
-0.003318606 0.0717341 -0.08133069 0.04657812 0.0072880723 0.0119156595 -0.06525203 0.04749603
0.0007736462 0.010580022 -0.031085622 -0.0900331 0.052480184 -0.015382509 0.06206733 0.02845894
-0.033360384 0.019125607 0.014960249 -0.04836982 -0.08554807 0.0067933137 -0.07887574 0.038988743
0.031601448 0.036933694 -0.052719653 0.07974072 -0.008548808 0.020346649 -0.072787985 0.03862715
0.037701894 -0.074881025
00000000: 01ff 473e bf19 9abd 903f 003d a81d 67bd
00000010: 1101 223d 49c8 4abb 4f30 85bc 47f6 b2bc
00000020: a9c6 84bd 68b3 67bd 15d5 b3bd 7a7f 983d
00000030: 74a9 b83d 06f7 90bd bead 033d a7bc e03b
00000040: f87c 59bb 54e9 923d b490 a6bd b3c8 3e3d
00000050: c8d0 ee3b e639 433c dba2 85bd 328b 423d
00000060: 85ce 4a3a d457 2d3c 46a7 febc 4663 b8bd
00000070: 76f5 563d eb06 7cbc 503a 7e3d b922 e93c
00000080: e6a4 08bd 4ead 9c3c d51b 753c 6f1f 46bd
00000090: d433 afbd 729a de3b 9b89 a1bd a9b2 1f3d
000000a0: 8570 013d c947 173d 90f0 57bd 1a4f a33d
000000b0: 4d10 0cbc 04ae a63c de11 95bd 8137 1e3d
000000c0: 4d6d 1a3d 395b 99bd

l4.weight f4 [2, 50]
-0.00016164775 0.14870925 0.106995374 0.18959062 -0.090565845 0.15685415 0.24804956 0.19435889
0.17294942 0.13183755 -0.015861532 0.053647015 -0.09732517 0.10079129 0.10009928 0.12665637
-0.035286248 -0.60043365 -0.09337127 0.014245417 0.03463038 -0.0035645124 -0.037284203 0.075319156
0.16205308 0.05953062 0.21739301 -0.7102295 -0.18774998 -0.6087956 -0.50507456 0.1418687
0.18204835 0.16748394 0.066414766 -0.086057976 0.14261946 -0.17430674 -0.38676748 -0.17840824
0.15057783 -0.42045864 -0.28695032 0.14235258 0.15763809 -0.20578855 0.18677989 0.10473721
0.07098476 -0.12390384 -0.7334358 0.16241793 -0.0071285334 -0.041898098 -0.06714633 0.08881852
-0.2209951 0.1498027 0.08243717 0.14589551 0.048619926 0.06609484 0.050109018 0.14488243
0.0074567655 0.09567351 0.2077975 0.044063743 -0.050876286 0.034829244 0.12823382 -0.11413152
-0.7846386 0.06474293 -0.1491535 -0.12601168 0.044907108 -0.11318405 0.16879429 -0.029670328
0.016706299 -0.120227665 -0.010346151 -0.08858402 0.09863927 0.05742294 0.12172397 -0.19534487
-0.1689498 0.11300438 0.094019555 0.37172613 -0.034639053 0.090608805 -0.085385494 -0.04474927
-0.09545295 0.019402685 0.1358106 0.016649414
00000000: fd7f 29b9 3d47 183e 6420 db3d 0b24 423e
00000010: 967a b9bd 609e 203e b400 7e3e 0406 473e
00000020: a719 313e 6c00 073e 0bf0 81bc f9bc 5b3d
00000030: 6b52 c7bd aa6b ce3d da00 cd3d 35b2 013e
00000040: 5088 10bd 05b6 19bf 7039 bfbd 9c65 693c
00000050: 96d8 0d3d 989a 69bb 52b7 18bd ee40 9a3d
00000060: 3ef1 253e 61d6 733d 469c 5e3e 9ad1 35bf
00000070: 8841 40be 07da 1bbf 914c 01bf 0746 113e
00000080: e26a 3a3e e980 2b3e 7704 883d 2a3f b0bd
00000090: d60a 123e 777d 32be 6306 c6be a6b0 36be
000000a0: 1331 1a3e 5b46 d7be 27eb 92be e0c4 113e
000000b0: e16b 213e 3cba 52be 3a43 3f3e 7680 d63d
000000c0: 7560 913d 4cc1 fdbd 73c2 3bbf e350 263e
000000d0: 7996 e9bb 579d 2bbd 0484 89bd 7ce6 b53d
000000e0: 8a4c 62be e165 193e d2d4 a83d a265 153e
000000f0: b025 473d bb5c 873d 1d3f 4d3d 0f5c 143e
00000100: e257 f43b 79f0 c33d dec8 543e 2f7c 343d
00000110: a763 50bd 1ca9 0e3d ba4f 033e c9bd e9bd
00000120: 13de 48bf f197 843d b2bb 18be 3509 01be
00000130: 84f0 373d 0acd e7bd 69d8 2c3e 300f f3bc
00000140: a6db 883c ec39 f6bd e782 29bc 8a6b b5bd
00000150: 6303 ca3d 5134 6b3d 6b4a f93d 7c08 48be
00000160: 2d01 2dbe d76e e73d 538d c03d e352 be3e
00000170: aee1 0dbd 1c91 b93d 97de aebd 034b 37bd
00000180: d67c c3bd 61f2 9e3c ef11 0b3e 5a64 883c

l4.bias f4 [2]
-0.04992962 -0.12041045
00000000: 0083 4cbd c199 f6bd

exp_avg f4 [250, 3]
2.153395e-07 -8.43172e-08 2.996366e-07 -6.7785356e-07 2.4635665e-07 -2.1549212e-07 1.4842698e-07 6.7000194e-08
-7.1784e-07 1.7920937e-07 1.16546396e-07 -2.1800113e-07 -5.27877e-07 -3.6225626e-07 9.2040764e-08 4.8165468e-08
1.890314e-07 -1.2501023e-06 -6.318015e-09 -3.2742287e-09 1.5189789e-08 4.7904734e-07 4.101568e-07 2.3078294e-06
2.4120374e-07 -1.3637451e-07 -2.78489e-07 -4.5294237e-06 -4.4349142e-07 -5.0122558e-06 1.8239582e-08 -1.207672e-07
-7.3217734e-07 -3.4887485e-08 3.2486236e-07 6.801024e-08 5.2386405e-08 -4.83671e-07 -1.878563e-07 1.7368221e-07
4.798181e-07 5.200475e-06 -1.13770696e-07 2.4708987e-07 -1.9029768e-07 -4.28185e-08 -1.2943914e-07 -1.7801528e-06
4.0349056e-07 -2.6517733e-07 2.214446e-06 -9.59098e-09 -2.5616663e-07 -6.05188e-07 -2.616682e-08 -2.3830007e-07
-1.1888017e-06 -3.0082458e-07 4.3351434e-07 2.0416494e-06 6.867036e-10 -2.9478926e-07 -1.0811301e-06 -8.2180856e-07
6.502378e-07 -2.5855222e-09 -2.312752e-07 -1.0314923e-07 -1.3224212e-06 -4.90111e-07 -7.7767425e-08 -1.5860496e-06
-3.2695905e-07 -4.600227e-08 -9.418419e-07 8.365869e-07 1.54272e-07 6.76357e-08 -1.8411399e-08 6.8659375e-08
4.0145534e-07 -1.01136315e-07 -2.538457e-07 -4.380303e-07 3.8472768e-07 2.7134158e-07 -1.7624766e-06 2.5005176e-07
4.5125635e-08 -8.9126934e-07 1.1216008e-08 -1.9940563e-07 -3.6005167e-07 2.2012034e-07 -1.4995281e-07 -6.217996e-06
3.731129e-08 7.721326e-08 -1.8414916e-06 4.5228737e-07 -2.2783585e-08 -1.6608377e-07 7.8326785e-08 3.531669e-07
1.2320301e-07 -7.389829e-08 4.69453e-07 2.0758412e-06 1.3070355e-07 -7.465443e-07 7.3597835e-06 3.4174434e-07
4.951277e-07 1.7081343e-06 2.2444601e-07 -7.0107995e-07 3.992255e-06 -4.5916934e-08 -2.5333048e-07 -5.667347e-07
1.2615865e-07 -9.231029e-07 1.03301694e-07 -1.2870453e-07 2.579435e-07 -2.2064543e-07 9.3493946e-07 -1.1676859e-06
5.258169e-07 1.8773717e-07 9.6699985e-08 -1.7267974e-06 -3.951222e-08 -4.8337984e-07 -1.6157826e-06 -3.4545272e-07
-7.6380694e-08 -5.203892e-07 9.136597e-09 1.4314662e-07 -2.0348254e-07 -1.2283414e-07 7.207809e-08 3.9429236e-07
1.3599146e-07 6.475382e-08 -1.4193064e-07 -4.6257238e-08 8.6664436e-08 7.6128026e-07 -7.4030304e-08 -2.730993e-07
-3.4500175e-07 4.1707378e-07 -4.1437906e-07 3.1160627e-07 2.018289e-07 -7.022247e-07 -4.7432448e-07 1.8961659e-07
-1.2171952e-07 -1.1451482e-07 4.2159567e-07 -3.7714656e-07 2.0671453e-07 1.027926e-06 7.447064e-07 3.285178e-06
6.515044e-08 1.3734223e-08 2.3681075e-06 -4.2534842e-07 -1.5282035e-07 -3.1247745e-07 1.1681887e-08 5.4143175e-08
-6.9609567e-09 1.4413706e-07 -2.4852972e-07 3.957528e-07 -1.246823e-07 1.938156e-07 -2.8470873e-07 2.108664e-08
2.5636768e-07 -8.0876987e-07 1.3209825e-09 -3.7191715e-08 -3.744274e-07 -4.3185148e-07 -1.18097276e-07 -1.252855e-06
3.5753916e-07 -2.1604949e-07 1.3874462e-07 -7.892677e-07 3.7954293e-09 3.8631345e-07 2.021547e-07 -2.0827557e-07
-4.0313216e-07 5.099994e-07 1.7522586e-07 2.8186042e-08 4.3473923e-07 7.4663933e-07 5.2259606e-06 8.120095e-07
-1.718388e-06 1.0286504e-06 8.433041e-08 -1.2249205e-07 -1.33175275e-08 -1.2361517e-07 -5.930077e-08 -6.5719644e-07
-9.938085e-08 -2.8906056e-08 -8.0512046e-07 4.3854882e-07 3.2248428e-07 -1.1041924e-06 -4.5245847e-09 9.72902e-08
-8.2015003e-07 -2.5479667e-07 5.128588e-08 3.032697e-07 2.8051545e-08 -3.1147894e-07 -7.147054e-08 3.4853264e-07
-3.6982726e-08 -5.8468396e-07 -1.1694501e-07 -1.00620085e-07 -3.207791e-07 -1.0921899e-07 8.849017e-08 4.0205606e-07
1.887553e-07 2.1535342e-08 -4.4785768e-08 8.721558e-09 2.0209427e-08 7.486569e-09 -2.592134e-07 4.8459547e-08
-6.498632e-07 2.8778233e-09 -1.3480107e-08 -1.5873276e-07 7.529666e-07 -8.2529475e-08 4.0178023e-07 2.5892706e-07
00000000: 1238 6734 df11 b5b3 bedd a034 bef5 35b5
00000010: 0043 8434 0662 67b4 4c5f 1f34 bfe1 8f33
00000020: 97b1 40b5 b26c 4034 0f48 fa33 b213 6ab4
00000030: 6eb3 0db5 1f7c c2b4 f2a7 c533 7ede 4e33
00000040: 8ef8 4a34 30c9 a7b5 d915 d9b1 d700 61b1
00000050: b37a 8232 e297 0035 8533 dc34 35e0 1a36
00000060: ca7e 8134 576e 12b4 3d83 95b4 74fb 97b6
00000070: ff18 eeb4 f32e a8b6 44ad 9c32 3cac 01b4
00000080: d88a 44b5 32d7 15b3 be68 ae34 060d 9233
00000090: 76ff 6033 9ed5 01b5 8cb5 49b4 677d 3a34
000000a0: d9cc 0035 bd7f ae36 1a52 f4b3 c6a7 8434
000000b0: a154 4cb4 70e7 37b3 f6fb 0ab4 96ed eeb5
000000c0: 529f d834 b25d 8eb4 e59b 1436 93c5 24b2
000000d0: 4687 89b4 3474 22b5 72c5 e0b2 6ddf 7fb4
000000e0: ea8e 9fb5 0481 a1b4 c2bd e834 4503 0936
000000f0: 78c2 3c30 8743 9eb4 591b 91b5 419a 5cb5
00000100: 008c 2e35 fdac 31b1 7154 78b4 e482 ddb3
00000110: 0c7e b1b5 2c90 03b5 1801 a7b3 40e0 d4b5
00000120: e988 afb4 0894 45b3 e2d2 7cb5 d091 6035
00000130: f7a5 2534 1f3f 9133 1827 9eb2 e471 9333
00000140: 9a87 d734 4730 d9b3 4a48 88b4 6d2a ebb4
00000150: 928c ce34 e7ac 9134 3c8e ecb5 da3e 8634
00000160: 29d0 4133 903f 6fb5 86b0 4032 341c 56b4
00000170: 204d c1b4 385a 6c34 b702 21b4 2ea4 d0b6
00000180: 3240 2033 70d0 a533 2b29 f7b5 e7d1 f234
00000190: a2b5 c3b2 c254 32b4 9b34 a833 e49a bd34
000001a0: c949 0434 04b2 9eb3 2109 fc34 ae4e 0b36
000001b0: 8557 0c34 2266 48b5 0ff4 f636 fc78 b734
000001c0: ebe8 0435 0c43 e535 40ff 7034 d931 3cb5
000001d0: 36f5 8536 3436 45b3 7a01 88b4 b621 18b5
000001e0: 3a76 0734 26cb 77b5 b5d6 dd33 0832 0ab4
000001f0: 7c7b 8a34 8eea 6cb4 8df8 7a35 62b9 9cb5
00000200: dd25 0d35 cd94 4934 61a9 cf33 4fc4 e7b5
00000210: 25b4 29b3 9cc1 01b5 dedd d8b5 a976 b9b4
00000220: bb06 a4b3 e0b0 0bb5 2ef7 1c32 d8b3 1934
00000230: db7c 5ab4 64e4 03b4 59c9 9a33 21af d334
00000240: 0c05 1234 ca0e 8b33 9965 18b4 5fac 46b3
00000250: 471c ba33 c85a 4c35 97fa 9eb3 7b9e 92b4
00000260: ae38 b9b4 2fea df34 d377 deb4 d74a a734
00000270: 4eb6 5834 8480 3cb5 a9a6 feb4 6999 4b34
00000280: 02b2 02b4 30eb f5b3 ab57 e234 a17a cab4
00000290: 42f5 5d34 45f7 8935 d6e7 4735 ee76 5c36
000002a0: d5e8 8b33 c0f3 6b32 c7eb 1e36 715b e4b4
000002b0: f016 24b4 93c2 a7b4 7bb1 4832 0d8b 6833
000002c0: 392d efb1 18c4 1a34 aa6d 85b4 da77 d434
000002d0: 69e0 05b4 a01b 5034 12da 98b4 0322 b532
000002e0: e8a2 8934 3e1a 59b5 f18d b530 b9bc 1fb3
000002f0: e904 c9b4 37d9 e7b4 aa9c fdb3 c527 a8b5
00000300: cff3 bf34 3bfb 67b4 d5f9 1434 10de 53b5
00000310: f368 8231 8466 cf34 dc0f 5934 5aa2 5fb4
00000320: 106e d8b4 e4e6 0835 b825 3c34 c31d f232
00000330: 1b66 e934 aa6c 4835 a95a af36 def8 5935
00000340: 5da3 e6b5 2910 8a35 2219 b533 5c86 03b4
00000350: 1bcb 64b2 14bb 04b4 e3b1 7eb3 326a 30b5
00000360: 336b d5b3 174d f8b2 751f 58b5 b171 eb34
00000370: e721 ad34 c333 94b5 ab76 9bb1 daed d033
00000380: 4828 5cb5 fdca 88b4 6c45 5c33 12d1 a234
00000390: 00f6 f032 5739 a7b4 587b 99b3 f61d bb34
000003a0: f0d6 1eb3 2df3 1cb5 3323 fbb3 7a14 d8b3
000003b0: 8b37 acb4 c68b eab3 fc07 be33 2ada d734
000003c0: a9ac 4a34 b8fc b832 795a 40b3 d1d5 1532
000003d0: 0099 ad32 479e 0032 052a 8bb4 d621 5033
000003e0: 4272 2eb5 34c3 4531 2396 67b2 2170 2ab4
000003f0: 791f 4a35 0f3b b1b3 41b4 d734 aa02 8b34

exp_avg_sq f4 [250, 3]
4.4853977e-12 2.8420673e-12 2.9630586e-11 1.333541e-10 2.2721505e-11 1.2713625e-11 2.2890023e-11 1.0926458e-11
2.0717626e-10 4.4706374e-12 4.6611614e-11 4.5891654e-12 4.2887298e-11 3.348651e-11 1.21861046e-11 3.4135223e-12
7.51713e-12 3.5189446e-10 3.319649e-13 4.41996e-14 8.7759005e-13 1.00480894e-10 2.1703986e-10 4.0548116e-09
4.7610323e-12 1.8603633e-11 4.595597e-10 3.087395e-10 3.6007315e-11 1.5718719e-09 1.2188628e-11 3.2378836e-11
2.2911822e-10 2.1912757e-13 1.186568e-11 1.7108226e-12 2.864909e-11 5.971223e-11 1.11890094e-10 1.6028148e-11
1.5891517e-10 9.490804e-09 5.6199236e-11 1.7143077e-11 3.5007188e-12 1.9929688e-11 1.1731885e-11 1.1303568e-09
5.771445e-11 8.890008e-12 1.9636692e-09 2.1233537e-13 2.4573206e-11 9.661945e-11 3.6444712e-11 2.7100872e-11
8.467506e-10 2.0126466e-11 7.1398554e-11 2.0896929e-09 2.7966316e-12 1.7450166e-11 7.431208e-10 1.5863269e-10
2.3716553e-11 1.1395445e-10 8.323796e-12 1.7478618e-11 5.7189803e-10 7.9081616e-11 5.5507135e-12 1.819857e-09
2.834538e-11 1.3176337e-12 2.486277e-10 1.986451e-10 1.1760116e-11 4.6301487e-11 2.3459465e-13 2.6704515e-12
1.1692045e-11 1.2489332e-12 6.5118197e-12 5.724101e-11 1.961715e-10 2.5628409e-11 1.2066685e-09 1.6889103e-11
1.8533816e-12 2.1602374e-10 3.8545963e-12 2.1962787e-11 1.3246094e-10 4.4563415e-11 2.9876886e-11 1.1515554e-08
5.269249e-12 4.783499e-12 1.4820665e-09 1.2736241e-10 4.681057e-13 2.3033757e-10 2.397528e-11 3.6414614e-11
1.0473904e-11 5.4071786e-12 5.206919e-11 1.9707804e-09 1.2293732e-11 3.8984466e-10 1.9877605e-08 3.6906644e-11
3.1082893e-11 1.540575e-09 4.0711087e-11 1.7526304e-10 5.0435927e-09 3.1849074e-12 3.3967451e-12 1.2923347e-10
9.796012e-12 2.6992458e-10 4.102835e-11 4.0946285e-11 1.1743401e-11 1.2027822e-10 5.942869e-10 6.508546e-10
1.0977502e-10 1.847229e-11 4.6217097e-12 1.180274e-09 1.0111328e-12 4.179446e-11 8.925405e-10 5.7306025e-11
8.6668644e-13 4.396323e-11 1.0262693e-12 1.8211708e-12 5.6478125e-12 1.4440222e-11 5.7225127e-12 3.7359182e-10
2.088486e-12 9.0412953e-13 3.5772073e-11 2.026073e-12 1.4356648e-12 2.7465058e-10 1.4473156e-11 1.8171934e-11
2.0209827e-11 2.0557031e-10 1.0312129e-10 5.4350118e-11 1.2216029e-11 1.3373856e-10 1.1311562e-10 1.5426316e-11
9.607771e-12 4.814282e-11 7.393973e-11 9.423618e-12 2.4853794e-11 1.6796642e-10 1.9349705e-10 2.7695626e-09
2.1612438e-12 5.676086e-12 2.1254085e-09 4.310212e-11 7.470421e-12 1.893935e-11 1.6889249e-14 5.1880483e-14
1.3069844e-12 1.2336874e-11 3.663386e-11 3.6781467e-11 5.294801e-11 3.4017178e-11 4.3854604e-11 5.423506e-13
5.1629107e-11 1.3195903e-10 2.1470046e-12 3.1289638e-11 7.356565e-12 3.7748447e-11 8.81701e-12 6.504608e-11
1.4027811e-10 3.0498607e-11 1.8689812e-11 2.0446439e-10 1.3987163e-11 2.0652557e-10 7.893291e-12 9.233163e-12
9.1116635e-11 3.4266756e-11 3.786635e-11 5.135308e-12 8.4025814e-11 2.3369598e-10 9.751969e-09 1.580295e-10
7.16775e-10 3.7570674e-10 2.4158666e-11 3.9056872e-11 1.2314236e-11 2.8931564e-11 2.870823e-12 3.417514e-10
1.1485401e-11 2.5576504e-11 2.3130252e-10 1.618938e-11 2.3806864e-11 7.2268136e-10 2.4345266e-13 6.819272e-13
1.9046156e-10 2.7670042e-11 5.6862384e-12 1.194946e-11 2.7384752e-11 1.464732e-11 7.675504e-13 3.853233e-12
2.1121046e-13 1.07393226e-10 2.4926672e-11 2.7521332e-11 8.543051e-11 7.677182e-12 5.756054e-13 3.3990054e-11
1.13908345e-11 1.3611197e-13 6.7266006e-13 8.191093e-14 8.094626e-13 3.6783033e-12 4.5031402e-11 1.8099256e-11
3.6268846e-10 1.0621995e-13 1.066399e-11 4.1755793e-11 9.684374e-11 2.8090807e-12 4.6075883e-11 4.925811e-11
00000000: dfd0 9d2c 22fe 472c 1351 022e d89f 122f
00000010: 48dc c72d 14a9 5f2d c057 c92d 6438 402d
00000020: efca 632f ec4b 9d2c 0300 4d2e 8777 a12c
00000030: ce9e 3c2e 7546 132e 5661 562d 8d34 702c
00000040: 253e 042d be74 c12f 2fe1 ba2a ab0e 4729
00000050: 0705 772b b7f5 dc2e 4aa3 6e2f 8052 8b31
00000060: 9183 a72c a8a3 a32d 47a5 fc2f 39bb a92f
00000070: a25c 1e2e 5309 d830 b36c 562d 5467 0e2e
00000080: 0ceb 7b2f 39b7 762a 46be 502d e1c6 f02b
00000090: 0400 fc2d ff4e 832e 860c f62e 2efc 8c2d
000000a0: a5ba 2e2f ff0c 2332 b72a 772e c7ca 962d
000000b0: 5857 762c ab4d af2d b763 4e2d e55a 9b30
000000c0: b2d4 7d2e 0965 1c2d 3cf1 0631 8111 6f2a
000000d0: f125 d82d ea77 d42e 1949 202e bd61 ee2d
000000e0: c7c0 6830 c608 b12d d001 9d2e 449a 0f31
000000f0: a3cb 442c 487e 992d 7a44 4c30 226b 2e2f
00000100: ee9c d02d a796 fa2e 0b6f 122d 59be 992d
00000110: bf33 1d30 fee6 ad2e 624c c32c 871e fa30
00000120: 1f54 f92d c270 b92b 3daf 882f a069 5a2f
00000130: dbe2 4e2d d7a2 4b2e a710 842a 94ea 3b2c
00000140: 4ab0 4d2d 90c5 af2b 421d e52c a6bf 7b2e
00000150: 5eb1 572f 0c6e e12d e0d7 a530 e18e 942d
00000160: 8e6b 022c 4785 6d2f 1e9f 872c cd2f c12d
00000170: 71a4 112f f2fd 432e 6266 032e f1d5 4532
00000180: 2d65 b92c ee4d a82c 94b1 cb30 5509 0c2f
00000190: 92c2 032b 4342 7d2f 88e3 d22d 3627 202e
000001a0: 4542 382d 893f be2c b200 652e 566e 0731
000001b0: 0c46 582d c251 d62f 51bf aa32 3051 222e
000001c0: 3ab4 082e 2abc d330 9c0c 332e 29b4 402f
000001d0: e94b ad31 311e 602c 5206 6f2c fd17 0e2f
000001e0: 5155 2c2d 8264 942f d171 342e 6b15 342e
000001f0: 9497 4e2d 4f3f 042f 395b 2330 d2e7 3230
00000200: d865 f12e e67b a22d a99c a22c 3337 a230
00000210: e64d 8e2b 61d0 372e f456 7530 d908 7c2e
00000220: 57f3 732b 325a 412e 406f 902b 4c27 002c
00000230: f9b6 c62c fa08 7e2d d057 c92c 6062 cd2f
00000240: d2f6 122c 667d 7e2b c653 1d2e 7d92 0e2c
00000250: 470d ca2b a2fd 962f 4d9d 7e2d 8fd7 9f2d
00000260: 7cc4 b12d e606 622f 20c4 e22e cb08 6f2e
00000270: 1be8 562d 0f0c 132f 6fbe f82e fab0 872d
00000280: 8e05 292d ffbb 532e 5e98 a22e 34c8 252d
00000290: c59d da2d 58ae 382f 94c0 542f a952 3e31
000002a0: 8215 182c a3b5 c72c 950e 1231 ac90 3d2e
000002b0: c96b 032d a097 a62d f51f 9828 20a6 6929
000002c0: 13f1 b72b 5708 592d 0f1e 212e 40c4 212e
000002d0: 29de 682e f09b 152e e5df 402e 7ba8 182b
000002e0: 3511 632e 2a17 112f ff14 172c 009d 092e
000002f0: 066b 012d f904 262e 481c 1b2d b009 8f2e
00000300: c73c 1a2f 6122 062e b765 a42d 9ccf 602f
00000310: 9510 762d c813 632f 39dc 0a2d 786e 222d
00000320: 1b5e c82e f0b4 162e b889 262e beae b42c
00000330: 54c6 b82e c979 802f 9d89 2732 5ac1 2d2f
00000340: 8e06 4530 068c ce2f 7b80 d42d 21c6 2b2e
00000350: 63a2 582d 177c fe2d 2604 4a2c 3ce1 bb2f
00000360: a60d 4a2d 2bf9 e02d df51 7e2f 3e67 8e2d
00000370: 4b68 d12d 2ea6 4630 3a0d 892a 09f2 3f2b
00000380: 2a6a 512f 6563 f32d 1511 c82c 9537 522d
00000390: fbe0 f02d d5d6 802d d60b 582b d692 872c
000003a0: 45cd 6d2a 0329 ec2e e041 db2d 8814 f22d
000003b0: 1add bb2e f40e 072d be04 222b 667d 152e
000003c0: c263 482d 9b3f 192a 4456 3d2b 7072 b829
000003d0: edd7 632b 366b 812c da0c 462e e733 9f2d
000003e0: dd63 c72f a22f ef29 579a 3b2d d8a4 372e
000003f0: 2ef6 d42e e6ab 452c d5a4 4a2e b4a3 582e
