ros_ws/src/primitive_library/src/neural_jsdf/JSDF/hand/NN_model/models/single_001.pt (torch, 491546 bytes, 24 tensors)

l1.weight f4 [250, 3]
-0.39784423 0.023061236 0.07570578 -0.5299598 0.27618676 -0.35289484 0.043042786 0.6145734
0.8351435 0.20747338 0.7255187 -0.68056 -0.117054716 -0.29674628 -0.041424356 0.26451805
0.33771852 0.4580654 0.107451476 0.19005299 -0.31280887 -0.7191338 0.5608751 0.5444015
-0.554754 -0.5691986 -0.4286758 0.28927773 -0.015079927 0.43058667 0.28898928 0.1575047
-0.45048705 -0.20645295 -0.019892087 0.7656444 0.026267134 -0.16759108 0.650098 -0.3051997
-0.3285864 -0.7092613 0.08132518 -0.10869761 0.012084551 0.54993266 0.108936876 -0.05457095
0.54668593 -0.33389914 -0.20792727 0.3965254 0.24987748 0.6882748 0.75523406 -0.51901597
0.13591236 -0.3122325 0.37446463 0.44632995 -0.31024507 0.05493323 0.24761249 -0.5885162
-0.4161628 0.82570803 0.7231216 0.5302902 0.35530576 -0.2999596 0.36137432 -0.3435591
0.14699215 -0.37409097 -0.19084299 -0.1915022 0.18637903 -0.0823148 -0.61649716 -0.54459685
0.106013864 -0.10650996 0.11994408 0.2985584 -0.17123044 0.0028912006 0.011683766 -0.19161311
-0.18360819 0.10306473 0.005126786 0.7004536 0.46448874 -0.145986 -0.47019577 0.19159378
0.03675846 0.51765573 0.22821721 0.29696983 -0.7773002 -0.05746097 -0.5785953 0.288934
0.59621364 -0.42712834 0.4260796 -0.5166378 0.30956492 -0.03680231 0.15752757 0.6606072
0.6355057 -0.3131095 0.52051586 0.22969733 -0.28950846 -0.5102688 0.48202702 0.6647412
-0.4864643 0.5231873 0.2352773 -0.5577799 0.055490654 -0.29048482 0.37041575 -0.75234437
-0.72601897 0.01796919 -0.09541495 0.6382438 0.0120468475 -0.55344075 -0.4099634 -0.67389363
0.42872036 0.35811624 -0.4351116 -0.6480295 0.00015894855 0.049128518 -0.706136 0.8880476
0.5850191 0.8793925 -0.06546435 0.019250464 0.010092169 0.79972845 -0.022651678 0.076062195
-0.5220689 0.035627104 0.12910627 -0.19197586 0.022501318 0.37461233 1.0596006 -0.20619282
-0.44951662 0.4634381 -0.40315223 -1.0281305 -0.5548055 0.52076113 -0.65579075 0.2058045
-0.23856881 0.11550324 -0.5993045 0.57482004 -0.565862 0.64378375 0.32952237 -0.5051734
0.34933576 0.05921698 -0.1749744 -0.66664875 -0.5075793 0.54903275 0.6728238 -0.04487405
0.47497565 -0.46622565 0.5030082 0.19589043 0.23487271 0.06350877 -0.1170681 -0.7197197
-0.19294056 0.019430662 0.38988665 0.70952845 -0.6585974 -0.52917105 -0.44608873 -0.47507888
-0.5142973 0.11746497 -0.78129303 0.11989741 -0.6790528 0.019182041 0.79270655 0.09649
0.5519631 -0.48342824 -0.8428466 -0.37163755 -0.07626172 -0.55542064 0.0035909484 -0.72787803
0.6393491 -0.5281032 -0.16379197 0.8260257 -0.31595743 0.16513763 0.0005391833 0.053736325
0.117410325 0.6475781 -0.185262 0.26399043 0.7196921 -0.014503249 0.85234165 -0.43210968
-0.023262186 -0.26145938 0.4171149 0.36509693 -0.02972733 -0.46754166 0.6468484 -0.48135316
0.06571464 -0.4095649 -0.0064027454 0.38878104 -0.46237123 0.27631137 0.5225025 0.23211925
0.4863087 0.25649157 -0.07271023 -0.18677586 0.09190192 0.010496308 0.07472102 0.063765675
00000000: 3db2 cbbe ebea bc3c a20b 9b3d 72ab 07bf
00000010: 5a68 8d3e a2ae b4be a24d 303d af54 1d3f
00000020: f7cb 553f e773 543e 98bb 393f 2e39 2ebf
00000030: 62ba efbd 21ef 97be 96ac 29bd e96e 873e
00000040: 71e9 ac3e 8c87 ea3e 850f dc3d 409d 423e
00000050: 7c28 a0be 2719 38bf 8395 0f3f e65d 0b3f
00000060: 5c04 0ebf 00b7 11bf 657b dbbe 361c 943e
00000070: cc11 77bc db75 dc3e 67f6 933e e948 213e
00000080: 3da6 e6be 6768 53be bbf4 a2bc 4501 443f
00000090: 2c2e d73c ff9c 2bbe d36c 263f 2343 9cbe
000000a0: 7a3c a8be 2692 35bf d18d a63d da9c debd
000000b0: 48fe 453c 63c8 0c3f 4c1a df3d ca85 5fbd
000000c0: 9cf3 0b3f d4f4 aabe e3ea 54be 6105 cb3e
000000d0: e2df 7f3e c732 303f 0557 413f 3bde 04bf
000000e0: 9c2c 0b3e f0dc 9fbe d4b9 bf3e 5c85 e43e
000000f0: 71d8 9ebe ab01 613d 218e 7d3e ffa8 16bf
00000100: 4a13 d5be 9a61 533f 7f1e 393f 19c1 073f
00000110: a3ea b53e 4e94 99be 0e06 b93e fae6 afbe
00000120: 1c85 163e da88 bfbe 586c 43be 2719 44be
00000130: 25da 3e3e a994 a8bd c2d2 1dbf b36a 0bbf
00000140: cc1d d93d e521 dabd 3ea5 f53d a6dc 983e
00000150: 0857 2fbe 4c7a 3d3b 446d 3f3c 3a36 44be
00000160: c903 3cbe 9a13 d33d 99fe a73b ed50 333f
00000170: 78d1 ed3e 5b7d 15be 80bd f0be 2931 443e
00000180: 0a90 163d 1685 043f c6b1 693e 6e0c 983e
00000190: 25fd 46bf 325c 6bbd d21e 14bf 28ef 933e
000001a0: 75a1 183f 91b0 dabe 1b27 da3e 6042 04bf
000001b0: 4b7f 9e3e 05be 16bd e84e 213e 8e1d 293f
000001c0: 80b0 223f e34f a0be 8740 053f c735 6b3e
000001d0: 743a 94be faa0 02bf 3fcc f63e 7b2c 2a3f
000001e0: d911 f9be 9aef 053f 88ec 703e aaca 0ebf
000001f0: 2b4a 633d 6dba 94be 22a7 bd3e a499 40bf
00000200: 61dc 39bf 1f34 933c ea68 c3bd f263 233f
00000210: 2460 453c 4bae 0dbf b9e6 d1be 4b84 2cbf
00000220: 3c81 db3e 035b b73e f3c6 debe 43e5 25bf
00000230: 6dab 2639 fc3a 493d 54c5 34bf 1657 633f
00000240: d0c3 153f de1f 613f 2c12 86bd 26b3 9d3c
00000250: a059 253c 01bb 4c3f 0390 b9bc 7fc6 9b3d
00000260: 4fa6 05bf baed 113d 6f34 043e 5295 44be
00000270: af54 b83c 30cd bf3e fea0 873f 3624 53be
00000280: 0b27 e6be c247 ed3e f869 cebe c899 83bf
00000290: bc07 0ebf 9a50 053f e7e1 27bf 6abe 523e
000002a0: 624b 74be f68c ec3d 056c 19bf 6827 133f
000002b0: 55dc 10bf 03cf 243f 28b7 a83e 0b53 01bf
000002c0: 23dc b23e 818d 723d 7d2c 33be 7ea9 2abf
000002d0: b8f0 01bf 698d 0c3f 2e3e 2c3f dacd 37bd
000002e0: 0230 f33e 21b5 eebe 25c5 003f 8097 483e
000002f0: 7982 703e e310 823d 66c1 efbd 8d3f 38bf
00000300: 3692 45be 0d2d 9f3c 399f c73e a8a3 353f
00000310: d799 28bf c177 07bf be65 e4be 8a3d f3be
00000320: fda8 03bf 7991 f03d d202 48bf c68c f53d
00000330: 68d6 2dbf a823 9d3c d1ee 4a3f 8d9c c53d
00000340: 744d 0d3f e883 f7be cbc4 57bf 4747 bebe
00000350: 1b2f 9cbd 0c30 0ebf 1e56 6b3b 3756 3abf
00000360: 62ac 233f c531 07bf 15b9 27be 6c76 533f
00000370: 2cc5 a1be d719 293e fb57 0d3a 9f1a 5c3d
00000380: d374 f03d aec7 253f 52b5 3dbe c129 873e
00000390: be3d 383f 099f 6dbc 1033 5a3f 7b3d ddbe
000003a0: 5790 bebc 01de 85be 1690 d53e fced ba3e
000003b0: bb86 f3bc 9f61 efbe db97 253f ec73 f6be
000003c0: 6695 863d 7eb2 d1be 1fce d1bb 4f0e c73e
000003d0: ecbb ecbe af78 8d3e b9c2 053f abb0 6d3e
000003e0: 74fd f83e dd52 833e 1ae9 94bd 2c42 3fbe
000003f0: 1337 bc3d b5f8 2b3c 5607 993d 9497 823d

l1.bias f4 [250]
0.06380237 -0.48882526 -0.21784517 -0.2447203 -0.5025999 0.19402756 -0.18134041 -0.018176652
0.030384783 0.25552082 0.20143072 -0.0885362 0.18668526 -0.25603923 0.013459803 0.2949281
-0.16687544 -0.24386713 0.023606703 0.1705996 0.111809835 0.07760664 -0.1772645 -0.00928198
0.3796721 0.4009759 -0.28047237 0.3240002 0.012423183 0.063801125 -0.3775724 0.09704776
0.11129517 -0.22253096 0.25691545 0.05588671 -0.39034143 -0.41554588 0.21801348 -0.55713344
-0.27569804 0.309072 -0.32332274 0.14979962 -0.16210788 0.18571895 -0.26388085 -0.025568157
-0.19300142 -0.15590337 0.02946883 0.423155 -0.10240305 0.36021566 -0.26692307 -0.49288023
0.08648075 -0.2501114 0.16521545 -0.24636506 -0.42430553 -0.37135446 -0.1970778 0.12867309
-0.04582798 -0.24918464 0.412073 0.086790435 -0.06883036 0.25117093 -0.19309846 -0.0704903
-0.46078998 0.023099622 0.0072452687 -0.27852237 -0.11717752 0.04441735 0.080014884 -0.21773577
-0.08683323 0.2998624 0.21866553 -0.43057084 -0.08325728 0.21226303 -0.24680398 -0.12606126
0.38567898 -0.16806805 0.062803105 -0.41268358 -0.15586597 -0.21570332 -0.025330706 0.08084481
0.12297838 0.13748543 0.2777396 0.07352481 -0.06081246 -0.2798761 0.33137292 -0.46039024
0.36737832 -0.48836753 -0.24824916 0.3493667 -0.57262784 0.032955375 -0.019061921 -0.27042198
0.056136005 -0.025138255 0.00493219 -0.008998615 0.23114094 -0.26188162 -0.041221626 -0.046734568
-0.49154082 -0.09666774 0.4013791 0.16425566 0.053557947 -0.10668535 0.17035772 0.021863794
-0.18688934 0.26701573 0.3806063 0.19580293 0.03900279 0.077589616 0.40833616 -0.17747752
0.0017450162 0.10074041 -0.10715234 0.09632442 0.009279476 0.28581873 0.12012787 -0.1587859
0.021702763 -0.2982701 0.02926591 0.26477054 0.3898161 0.3599119 -0.48089162 0.27851838
-0.3226113 0.002561956 0.1464336 -0.07805266 -0.0069568953 -0.19076543 0.13489379 0.22565264
-0.24891895 -0.37873083 -0.004285104 -0.573997 -0.10586185 -0.22565837 0.098269746 -0.29881683
-0.2294785 0.23420432 0.32657105 0.036390126 -0.07780531 0.13485116 -0.27589187 0.077612445
-0.041656323 0.3038934 0.04220835 -0.36707103 0.33149967 -0.19096673 0.07691168 -0.023408068
0.07140168 -0.023547936 -0.040122047 -0.1190698 0.22815758 -0.296026 -0.29537076 0.24812685
0.038543694 -0.46906286 0.005980843 -0.03434393 0.025015729 0.05943291 0.04949042 0.039243158
-0.040475253 -0.02480397 -0.1707657 0.050857507 0.009130769 -0.10828204 0.042400703 0.021853276
-0.06340708 -0.13872233 -0.23437715 -0.116704024 -0.39023298 -0.109667815 -0.23342088 -0.15653151
0.08807366 -0.23862751 0.026049674 0.2944238 0.08072187 -0.21533976 0.038907405 0.23483466
0.28629664 0.07860577 0.20146555 -0.35959437 -0.12346278 0.4010498 -0.20332566 0.020909596
0.20849381 0.339418 0.16191809 0.087430716 -0.3030746 0.3994838 -0.23015204 -0.15430833
0.07155143 -0.019378532 -0.17601173 0.12677756 0.06184028 0.11998096 0.42377046 -0.39389643
-0.28643206 0.31296083
00000000: d1aa 823d 4e47 fabe ce12 5fbe f597 7abe
00000010: 63aa 00bf 29af 463e 4db1 39be 34e7 94bc
00000020: 82e9 f83c a0d3 823e db43 4e3e 7852 b5bd
00000030: 6c2a 3f3e 9317 83be 8186 5c3c d100 973e
00000040: 65e1 2abe 4eb8 79be d862 c13c a9b1 2e3e
00000050: 8efc e43d 3bf0 9e3d d384 35be 7213 18bc
00000060: 6264 c23e b74c cd3e 139a 8fbe 5be3 a53e
00000070: 9b8a 4b3c 2aaa 823d 2b51 c1be fac0 c63d
00000080: b9ee e33d 28df 63be 6c8a 833e 76e9 643d
00000090: d5da c7be 6ec2 d4be ed3e 5f3e 4ca0 0ebf
000000a0: 4b28 8dbe af3e 9e3e 8f8a a5be 1265 193e
000000b0: 9cff 25be 1c2d 3e3e 641b 87be 5074 d1bc
000000c0: 2aa2 45be 22a5 1fbe 9e68 f13c c6a7 d83e
000000d0: b1b8 d1bd 306e b83e 24aa 88be cc5a fcbe
000000e0: d21c b13d 9a0e 80be 3d2e 293e 1f47 7cbe
000000f0: 933e d9be 2c22 bebe c3ce 49be e1c2 033e
00000100: 1fb6 3bbd 422a 7fbe 3bfb d23e 2fbf b13d
00000110: eff6 8cbd 7a99 803e 9abb 45be 385d 90bd
00000120: aaec ebbe 6b3b bd3c b869 ed3b 7c9a 8ebe
00000130: c5fa efbd f8ee 353d d8de a33d 20f6 5ebe
00000140: 9fd5 b1bd 9187 993e dbe9 5f3e c873 dcbe
00000150: cb82 aabd 7b5b 593e 2fba 7cbe 3416 01be
00000160: b777 c53e 081a 2cbe ea9e 803d 434b d3be
00000170: 549b 1fbe 55e1 5cbe 5782 cfbc f791 a53d
00000180: 17dc fb3d fbc8 0c3e e333 8e3e 2d94 963d
00000190: 7c16 79bd ec4b 8fbe b6a9 a93e 45b8 ebbe
000001a0: 0319 bc3e 4f0b fabe 0735 7ebe 31e0 b23e
000001b0: bd97 12bf 37fc 063d bf27 9cbc c074 8abe
000001c0: deee 653d beee cdbc 359e a13b ed6e 13bc
000001d0: 36b0 6c3e 5915 86be 02d8 28bd bf6c 3fbd
000001e0: 3dab fbbe bcf9 c5bd 9081 cd3e a332 283e
000001f0: 945f 5b3d d97d dabd 4172 2e3e b31b b33c
00000200: eb5f 3fbe 49b6 883e d4de c23e 9080 483e
00000210: 64c1 1f3d 4ee7 9e3d 7011 d13e abbc 35be
00000220: 07b9 e43a fd50 ce3d b072 dbbd bd45 c53d
00000230: f108 183c d556 923e 9a05 f63d c598 22be
00000240: fec9 b13c dcb6 98be 10bf ef3c 0190 873e
00000250: fa95 c73e 5f46 b83e 6d37 f6be f699 8e3e
00000260: 4f2d a5be 7de6 273b b1f2 153e 13da 9fbd
00000270: abf6 e3bb 0358 43be 9921 0a3e 7c11 673e
00000280: 9ce4 7ebe 02e9 c1be 0f6a 8cbb 78f1 12bf
00000290: 19ce d8bd fd12 67be a641 c93d 85fe 98be
000002a0: 69fc 6abe 42d3 6f3e 5234 a73e d00d 153d
000002b0: 6458 9fbd 6c16 0a3e b341 8dbe 46f3 9e3d
000002c0: d29f 2abd ea97 9b3e aae2 2c3d bcf0 bbbe
000002d0: 53ba a93e c88c 43be df83 9d3d 47c2 bfbc
000002e0: 0b3b 923d 9ae7 c0bc 0457 24bd deda f3bd
000002f0: 24a2 693e b890 97be d63a 97be f714 7e3e
00000300: fedf 1d3d 0229 f0be f3fa c33b 39ac 0cbd
00000310: c9ed cc3c ec6f 733d 77b6 4a3d 6fbd 203d
00000320: 61c9 25bd b231 cbbc 34dd 2ebe f64f 503d
00000330: 3999 153c f9c2 ddbd 5cac 2d3d a405 b33c
00000340: 92db 81bd 3a0d 0ebe 9000 70be 8502 efbd
00000350: 9ecc c7be 8599 e0bd e205 6fbe cc49 20be
00000360: f75f b43d c55a 74be 2066 d53c b7be 963e
00000370: 8251 a53d 0782 5cbe 5f5d 1f3d 7f78 703e
00000380: 7995 923e 10fc a03d fc4c 4e3e c11c b8be
00000390: 0eda fcbd 6656 cd3e 9a34 50be 9a4a ab3c
000003a0: 677f 553e 32c8 ad3e dbcd 253e e00e b33d
000003b0: 982c 9bbe 2489 cc3e faac 6bbe 0103 1ebe
000003c0: 8e89 923d babf 9ebc 6b3c 34be fad1 013e
000003d0: 3c4c 7d3d 94b8 f53d 71f8 d83e cbac c9be
000003e0: 39a7 92be 673c a03e

l2.weight f4 [130, 250]
-0.022289986 -0.04906274 -0.0032219018 -0.025016895 0.038534112 -0.033492465 -0.05208125 -0.0590076
-0.011305967 -0.057816505 0.015036733 -0.043801237 0.05383951 -0.027292838 0.05409071 0.021025365
0.035877105 0.058267586 -0.02544734 -0.057058286 -0.0581132 0.0066223876 -0.059187796 0.016887194
0.042795725 0.04641961 -0.012958796 0.043428596 -0.041432288 -0.003319553 0.058834493 0.040301923
0.050683472 -0.054966405 0.03788199 -0.005542485 0.022749497 -0.021567926 -0.032498624 -0.03544666
0.03356147 0.028952222 -0.0012345291 -0.017817019 0.0058098147 -0.068930015 -0.007958417 -0.008976161
-0.02918588 -0.044123784 -0.06377397 0.021409612 -0.059355926 0.018786928 -0.02330046 -0.006115352
0.042206876 -0.039713252 -0.055680428 0.0356475 0.019728068 -0.06769104 0.05558656 0.050654884
-0.0038952832 -0.040713914 0.020956127 -0.04815882 -0.02842239 0.030992663 -0.030724438 -0.008453294
-0.054039396 -0.010113428 0.002615067 -2.5817471e-05 -0.043891564 -0.004564009 0.03433779 0.0031251765
-0.008220085 -0.0023975754 -0.050627265 0.025870802 -0.01456756 0.049952485 0.015232357 -0.027085446
0.020885527 -0.06559015 0.05198126 0.0056819757 0.05567254 0.01598387 -0.010781853 -0.045421686
-0.020053525 0.027176034 -0.06736224 0.009965547 0.0014657838 0.03603404 -0.0571041 0.038750727
-0.012765978 0.03411351 0.05299549 0.03392199 -0.01452904 -0.012855822 0.061616696 -0.020907374
0.03527458 -0.03570781 -0.042421922 -0.016960401 -0.013461233 0.033545606 -0.060650904 -0.06714936
-0.047686275 -0.06632804 -0.04164028 -0.06370138 -0.031580776 -0.061086424 -0.06890822 0.017417783
0.02880313 0.01638905 0.036548097 0.006823898 -0.044513598 0.04008034 0.024641095 -0.034391437
-0.020917604 -0.0063390653 -0.05637659 0.019917475 0.032449476 -0.039482564 -0.04526864 -0.01061404
0.013055176 0.027687913 -0.026387604 -0.017690852 -0.057931103 -0.053790856 -0.06827268 -0.009924875
0.022129595 0.01027053 0.004331107 -0.049508385 0.05525935 -0.040446103 -0.06464995 -0.027132845
-0.0057456223 0.021903275 0.045709822 0.03662225 -0.013838696 0.03022795 -0.06958726 -0.054091204
0.013906883 0.032885298 -0.03245224 0.027289143 0.016085293 0.03671865 0.008924736 -0.0510129
-0.061190087 -0.029691681 -0.055447895 0.052174106 -0.024096936 -0.007905837 0.017777942 0.028374294
-0.042738046 0.053777166 -0.06779254 0.031412866 0.053002063 -0.01735692 -0.066528946 -0.06957121
-0.043417104 0.024773164 -0.06671788 -0.02518807 -0.04454496 -0.02464513 0.028674696 -0.059063036
-0.016306626 0.021226186 0.03915719 0.027412647 0.029467024 -0.05535543 -0.013184729 -0.063309595
-0.011835467 -0.059060007 0.0048571816 0.020479426 -0.03682588 0.045239206 -0.057941847 0.049083836
0.022216909 -0.008823894 0.027221639 0.012904202 -0.058661338 -0.04171593 -0.0443785 -0.02695769
-0.052762784 0.05147511 0.047259744 -0.031303704 0.052023947 0.046767574 -0.06426634 -0.041153435
-0.05754923 -0.06918918 -0.020055544 -0.054080565 0.028084595 -0.061570186 -0.05756997 -0.049181912
-0.05372306 0.015529669 -0.054591086 -0.02404471 -0.01341554 0.013806751 -0.020118255 -0.04091891
-0.00286525 0.014869881 0.0043276036 -0.21955033 -0.29319406 0.56636053 0.016701542 -0.03445969
00000000: 7d99 b6bc 03f6 48bd 8b26 53bb 3bf0 ccbc
00000010: f2d5 1d3d 652f 09bd 2653 55bd f4b1 71bd
00000020: aa3c 39bc 00d1 6cbd a15c 763c ed68 33bd
00000030: d186 5c3d 3b95 dfbc 388e 5d3d 633d ac3c
00000040: dff3 123d fea9 6e3d f176 d0bc f3b5 69bd
00000050: 1b08 6ebd 9d00 d93b e76e 72bd 0357 8a3c
00000060: 924a 2f3d 7d22 3e3d 2151 54bc 2fe2 313d
00000070: e7b4 29bd dc8c 59bb 70fc 703d a113 253d
00000080: 7999 4f3d 7424 61bd 252a 1b3d bc9d b5bb
00000090: 275d ba3c 38af b0bc 471d 05bd 8430 11bd
000000a0: c177 093d 362d ed3c eccf a1ba fff4 91bc
000000b0: 4260 be3b 2e2b 8dbd 0564 02bc bf10 13bc
000000c0: 3a17 efbc 24bb 34bd ed9b 82bd 3663 af3c
000000d0: 331f 73bd 0be7 993c 9be0 bebc 4a63 c8bb
000000e0: 1ee1 2c3d 5daa 22bd 2911 64bd 1d03 123d
000000f0: c29c a13c 9aa1 8abd bcae 633d 7f7b 4f3d
00000100: 0248 7fbb a2c3 26bd 2fac ab3c 2f42 45bd
00000110: 12d6 e8bc 53e4 fd3c d1b1 fbbc af7f 0abc
00000120: 6a58 5dbd cbb2 25bc 8b61 2b3b 9992 d8b7
00000130: a4c7 33bd af8d 95bb c8a5 0c3d c3cf 4c3b
00000140: 89ad 06bc a420 1dbb 895e 4fbd 01ef d33c
00000150: c6ac 6ebc fa9a 4c3d 2391 793c 4ce2 ddbc
00000160: 2018 ab3c 2154 86bd 4dea 543d de2f ba3b
00000170: e408 643d 9bf0 823c 5fa6 30bc 170c 3abd
00000180: 4a47 a4bc 46a0 de3c 37f5 89bd 8946 233c
00000190: 8b1f c03a 6e98 133d fde5 69bd 15b9 1e3d
000001a0: 6528 51bc 9cba 0b3d cd11 593d c9f1 0a3d
000001b0: 360b 6ebc 3aa1 52bc ca61 7c3d f145 abbc
000001c0: 147c 103d 5a42 12bd 9cc2 2dbd 8af0 8abc
000001d0: 818c 5cbc 1e67 093d 156d 78bd 9b85 89bd
000001e0: af52 43bd ffd6 87bd 008f 2abd de75 82bd
000001f0: d85a 01bd c235 7abd c11f 8dbd bdaf 8e3c
00000200: 8bf4 eb3c 5442 863c 75b3 153d 019b df3b
00000210: e453 36bd 482b 243d 1fdc c93c 09de 0cbd
00000220: 655b abbc efb7 cfbb 24eb 66bd f929 a33c
00000230: bee9 043d 78b8 21bd 9c6b 39bd 83e6 2dbc
00000240: 60e5 553c c3d1 e23c d12a d8bc 68ec 90bc
00000250: 2a49 6dbd cd53 5cbd 8cd2 8bbd f19b 22bc
00000260: 2049 b53c ba45 283c f5eb 8d3b 4ec9 4abd
00000270: a157 623d d0aa 25bd 3167 84bd b345 debc
00000280: c645 bcbb 7f6e b33c 393a 3b3d 3601 163d
00000290: b3bb 62bc 9ba0 f73c c483 8ebd bd8e 5dbd
000002a0: b2d9 633c bcb2 063d a4ec 04bd 7b8d df3c
000002b0: 4ec5 833c 4c66 163d 0e39 123c e7f2 50bd
000002c0: 75a2 7abd f83b f3bc 551d 63bd 84b4 553d
000002d0: f066 c5bc 7c87 01bc 0ca3 913c 3571 e83c
000002e0: 170e 2fbd 7245 5c3d d1d6 8abd c7aa 003d
000002f0: b118 593d 1930 8ebc 5440 88bd 5a7b 8ebd
00000300: 22d6 31bd 17f1 ca3c 62a3 88bd 3657 cebc
00000310: c774 36bd 95e4 c9bc 32e7 ea3c 15ec 71bd
00000320: 7995 85bc 8ae2 ad3c 4a63 203d 7d90 e03c
00000330: d464 f13c 60bc 62bd c304 58bc 76a8 81bd
00000340: 8ce9 41bc e8e8 71bd fe28 9f3b 78c4 a73c
00000350: bcd6 16bd bf4c 393d 6e54 6dbd 220c 493d
00000360: 3c00 b63c 1892 10bc eaff de3c 256c 533c
00000370: df46 70bd 53de 2abd 3bc6 35bd 60d6 dcbc
00000380: ca1d 58bd 91d7 523d 6f93 413d 5038 00bd
00000390: 1017 553d 5b8f 3f3d 129e 83bd 8190 28bd
000003a0: beb8 6bbd 0fb3 8dbd 864b a4bc 9583 5dbd
000003b0: aa11 e63c 0531 7cbd 7dce 6bbd f972 49bd
000003c0: b60c 5cbd 2770 7e3c e79a 5fbd 69f9 c4bc
000003d0: dacc 5bbc b635 623c 0acf a4bc 969a 27bd
000003e0: ebc6 3bbb cda0 733c 92ce 8d3b cdd1 60be
000003f0: 881d 96be 01fd 103f acd1 883c 9b25 0dbd

l2.bias f4 [130]
-0.055250704 -0.018989813 0.007364732 -0.029442962 -0.026158491 -0.028445926 0.0028888516 0.033424973
-0.05979614 0.07822462 -0.0034319577 0.010468532 -0.066509835 0.01647055 0.08596738 0.013336743
0.010629204 -0.001520714 0.0033535366 0.05581028 -0.00010876633 -0.0071642394 -0.02010892 -0.051332716
-0.058607742 -0.024797572 0.03733898 -0.010577966 -0.03483657 0.046905678 -0.037283584 0.014097369
0.09136998 -0.0036824665 0.04433243 -0.027340747 -0.063789755 0.010809117 -0.071347736 -0.027811136
-0.019984564 0.026133088 0.010552517 -0.08170837 -0.016169798 0.002147959 0.052052177 -0.015399922
-0.014400783 -0.06381649 0.014320429 -0.047889348 -0.014208228 -0.03304115 0.012634111 -0.0751389
-0.021457907 -0.036226556 -0.016883688 0.012373635 0.045226358 -0.060165036 -0.033342954 -0.025833074
0.03748743 0.043161236 0.02760759 -0.02052649 0.061949525 -0.06821946 -0.0072080246 -0.037545163
0.044360656 -0.002030895 0.005879385 -0.074322574 -0.038030714 0.025882673 -0.048087776 -0.023062943
-0.05201278 0.017822428 0.08359873 0.03091245 -0.059078977 -0.056873698 0.030183677 -0.013234488
-0.05052436 0.04181365 -0.016791208 0.072837576 0.046764188 0.022925435 0.015092209 0.03904129
-0.004123901 0.014986396 -0.037730854 -0.063923 0.015489815 -0.017089324 -0.023376515 -0.04659254
-0.019056352 -0.016898243 -0.005032377 0.004086357 0.02686011 -0.017375626 -0.039458968 -0.044490267
-0.040425517 -0.017091008 -0.025254892 0.04213962 0.0067007574 -0.0498752 0.028354513 0.0070864353
-0.02149566 0.034140438 -0.041278154 -0.0036952668 0.04703656 -0.049157426 -0.07184278 -0.0024764775
-0.052198008 -0.06842089
00000000: 904e 62bd 8690 9bbc da53 f13b 5e32 f1bc
00000010: 554a d6bc 6e07 e9bc e352 3d3b a0e8 083d
00000020: ccec 74bd 3b34 a03d b2ea 60bb 3584 2b3c
00000030: 4f36 88bd 3fed 863c aa0f b03d 5b82 5a3c
00000040: 1d26 2e3c b252 c7ba 02c7 5b3b 5299 643d
00000050: 7b19 e4b8 ffc1 eabb 76bb a4bc 4142 52bd
00000060: ac0e 70bd 4724 cbbc c2f0 183d 354f 2dbc
00000070: cbb0 0ebd 2b20 403d acb6 18bd a7f8 663c
00000080: 2f20 bb3d 8955 71bb ec95 353d b4f9 dfbc
00000090: 34a4 82bd b918 313c c31e 92bd 2ed4 e3bc
000000a0: abb6 a3bc 0f15 d63c 77e4 2c3c b856 a7bd
000000b0: 8676 84bc c6c4 0c3b aa34 553d f44f 7cbc
000000c0: 43f1 6bbc 38b2 82bd 3ca0 6a3c 9f27 44bd
000000d0: a1c9 68bc 2856 07bd 4dff 4e3c 6ce2 99bd
000000e0: 7ec8 afbc 4c62 14bd a94f 8abc c9ba 4a3c
000000f0: 463f 393d 9d6f 76bd 9f92 08bd e29f d3bc
00000100: 6b8c 193d d6c9 303d 5029 e23c 2b27 a8bc
00000110: c9be 7d3d a5b6 8bbd 4b31 ecbb f5c8 19bd
00000120: 85b3 353d c418 05bb dba7 c03b 6f36 98bd
00000130: 18c6 1bbd e607 d43c b0f7 44bd 7fee bcbc
00000140: 5a0b 55bd 5700 923c d035 ab3d 1b3c fd3c
00000150: ccfc 71bd 65f4 68bd c243 f73c 77d5 58bc
00000160: a2f2 4ebd ca44 2b3d b78d 89bc de2b 953d
00000170: ce8b 3f3d 1fce bb3c 5045 773c c2e9 1f3d
00000180: ca21 87bb 8089 753c ab8b 1abd 10ea 82bd
00000190: fec8 7d3c e9fe 8bbc 1b80 bfbc d2d7 3ebd
000001a0: 111c 9cbc 2f6e 8abc a3e6 a4bb d9e6 853b
000001b0: bc09 dc3c 5457 8ebc ba9f 21bd 6d3b 36bd
000001c0: 3a95 25bd 7102 8cbc 59e3 cebc 989a 2c3d
000001d0: 0792 db3b f049 4cbd b947 e83c 5435 e83b
000001e0: ab17 b0bc d8d6 0b3d 4813 29bd 4a2c 72bb
000001f0: 68a9 403d 4c59 49bd 4f22 93bd 664c 22bb
00000200: 94cd 55bd 4020 8cbd

l3.weight f4 [50, 130]
0.029383767 -0.9941638 -0.472255 0.19672783 0.014176677 -0.0042640883 -1.6425347 -0.02303601
0.08486161 -1.4151065 0.044265427 -0.04402711 -0.0015472535 -0.0010282362 0.07772805 -0.0040524276
0.30667323 1.3199668 0.02502701 -0.035122648 0.07151671 -0.21089642 0.08076861 0.09809063
0.06368427 -0.5387675 -0.029371973 0.018023297 0.2209612 -0.024289627 0.006817373 0.086140916
0.089728855 -0.023350034 -0.035318628 -0.043933716 -0.0336767 0.07703633 -2.6312861 -0.02987829
-0.016696703 1.9461694 -0.564814 -1.1932206 -0.02738697 -0.89612454 0.00994884 -0.1795292
-0.06487911 0.009486928 0.06675658 -0.07679159 -0.3420367 0.14389426 -0.13059917 -0.00027242745
-0.031631112 -0.13568811 -0.07106805 -0.037421495 0.01852684 -0.051891044 -0.024901606 0.02401588
0.13512774 0.03349633 -0.30359983 0.022677511 0.049728148 -0.09199164 -0.011067867 0.05355686
-2.00902 -0.054568313 -0.04639127 -0.0692058 -0.03502791 0.052709945 0.067634314 0.05163043
-0.061786376 -0.05774489 -0.057339605 0.08294779 -0.6542327 -1.4664528 0.07576485 0.07675142
-0.022956414 -0.10971683 -0.0050709136 -0.29107487 -0.05367992 -0.0060368082 -0.16626559 0.018660769
-2.125907 0.051675357 0.07327748 0.051835146 0.016048882 0.066092685 0.042593006 0.061578654
0.0042242063 -0.06985857 0.2999312 -0.01923933 -0.06476107 0.09524659 0.050876863 -0.07305629
-0.080597356 0.05051068 -0.09259057 0.033267092 0.165919 0.0641478 0.036811996 -0.5455195
-0.048274975 -0.04110538 0.011058658 -0.0062092086 -0.66462356 -1.7430574 -1.4633677 -0.05433034
0.02986439 -0.05089343 -0.020965215 0.007097874 0.056555223 0.0852331 -0.030628309 0.027950725
0.053077187 -0.07470992 -0.045891244 0.010167001 -0.023770554 0.12549506 0.15618995 0.06941052
0.016134297 0.06574123 0.04227195 0.1200676 0.09344885 -0.0036936495 0.060332954 0.06320327
-0.07239796 0.002849058 -0.050720796 0.08844163 0.038805965 0.06793942 0.04429909 0.06456976
0.028919788 0.09604284 0.031403564 -0.05065368 -0.037557438 0.05863428 -0.018139286 0.03182324
-0.017063316 -0.061179344 -0.041843962 0.08816517 -0.021278847 -0.047240816 -0.01201127 0.04872124
-0.04832113 0.011264665 -0.035821144 0.001193777 0.047810107 -0.017448697 -0.08532569 0.009658173
0.10906005 -0.040027548 -0.063901275 0.05475779 -0.08613267 0.041811906 0.073594704 0.017208599
-0.0007664588 0.09254198 0.071106054 0.002114846 0.05775965 0.069822416 0.0085053025 0.084171705
-0.012451734 -0.0016021911 0.030039724 0.06699364 -0.0645018 0.0792005 0.06923032 -0.055206977
0.101385385 -0.049674068 0.08162462 -0.07087382 -0.037009504 0.07652679 -0.21067435 0.10834248
0.031767864 -0.026534861 0.02535037 0.065772146 0.016845237 -0.07128252 0.035879314 0.088148154
0.03787884 0.025105715 -0.0018471951 0.0068540545 -0.0630852 -0.06394968 0.05209368 -0.005906544
0.017918756 -0.06979584 -0.039739043 -0.07631238 0.022162272 -0.023835817 0.08583797 0.04373961
-0.017885752 -0.011644602 0.14746654 0.01203053 0.06485264 -0.07655679 0.088557534 0.08733254
-0.064962275 -0.0074669947 -0.033677425 -0.053909406 -0.02692399 -0.07492797 -0.046369508 -0.10570974
00000000: 3ab6 f03c 8581 7ebf 68cb f1be 0573 493e
00000010: 4b45 683c c4b9 8bbb 943e d2bf 04b6 bcbc
00000020: eccb ad3d 3622 b5bf aa4f 353d c555 34bd
00000030: 36cd caba e2c5 86ba e22f 9f3d 3aca 84bb
00000040: 4604 9d3e acf4 a83f 7205 cd3c c4dc 0fbd
00000050: 5a77 923d 3bf5 57be 036a a53d bde3 c83d
00000060: e66c 823d abec 09bf 7e9d f0bc 98a5 933c
00000070: a743 623e 0afb c6bc 4564 df3b a66a b03d
00000080: c3c3 b73d 9248 bfbc 44aa 10bd d7f3 33bd
00000090: 94f0 09bd 39c5 9d3d fe66 28c0 51c3 f4bc
000000a0: 86c7 88bc 141c f93f a697 10bf 74bb 98bf
000000b0: a45a e0bc 6b68 65bf 7600 233c 81d6 37be
000000c0: 57df 84bd 0f6f 1b3c acb7 883d e944 9dbd
000000d0: 6f1f afbe 0459 133e cabb 05be 98d4 8eb9
000000e0: a08f 01bd d3f1 0abe 208c 91bd 4847 19bd
000000f0: 99c5 973c b48b 54bd 74fe cbbc f3bc c43c
00000100: ed5e 0a3e 7333 093d 7071 9bbe 30c6 b93c
00000110: beaf 4b3d 1d66 bcbd 0056 35bc 705e 5b3d
00000120: c993 00c0 0683 5fbd c604 3ebd c5bb 8dbd
00000130: 6d79 0fbd 62e6 573d dc83 8a3d 6e7a 533d
00000140: b613 7dbd e885 6cbd efdc 6abd 88e0 a93d
00000150: cb7b 27bf bab4 bbbf 9a2a 9b3d d92f 9d3d
00000160: 170f bcbc 38b3 e0bd e829 a6bb c407 95be
00000170: 7adf 5bbd 6bd0 c5bb 8741 2abe 78de 983c
00000180: dc0e 08c0 8aa9 533d 8112 963d 1751 543d
00000190: f278 833c 9a5b 873d 0176 2e3d e639 7c3d
000001a0: 366b 8a3b 0312 8fbd 9590 993e cd9b 9dbc
000001b0: 74a1 84bd a510 c33d 4264 503d 899e 95bd
000001c0: 3a10 a5bd 49e4 4e3d 20a0 bdbd 1343 083d
000001d0: ace6 293e ec5f 833d 2dc8 163d 2aa7 0bbf
000001e0: fbbb 45bd 1d5e 28bd 602f 353c 9e76 cbbb
000001f0: c524 2abf 811c dfbf a24f bbbf 7e89 5ebd
00000200: 2aa6 f43c a175 50bd 3ebf abbc 4895 e83b
00000210: 73a6 673d b18e ae3d 38e8 fabc ebf8 e43c
00000220: 7767 593d 8401 99bd 75f8 3bbd 7e93 263c
00000230: 77ba c2bc c781 003e 42f0 1f3e 1a27 8e3d
00000240: 132c 843c 57a3 863d 5a25 2d3d 00e6 f53d
00000250: 1c62 bf3d 2811 72bb b01f 773d b770 813d
00000260: 6245 94bd 43b7 3a3b 9cc0 4fbd e320 b53d
00000270: 01f3 1e3d d323 8b3d f672 353d 263d 843d
00000280: 31e9 ec3c 1cb2 c43d 06a1 003d 3c7a 4fbd
00000290: d4d5 19bd 802a 703d d798 94bc 1659 023d
000002a0: 5ec8 8bbc 3197 7abd 9364 2bbd f18f b43d
000002b0: fa50 aebc 967f 41bd ebca 44bc ec8f 473d
000002c0: 61ec 45bd 6e8f 383c 31b9 12bd 8278 9c3a
000002d0: 88d4 433d 92f0 8ebc 3cbf aebd 503d 1e3c
000002e0: e05a df3d edf3 23bd acde 82bd b449 603d
000002f0: 5366 b0bd f642 2b3d d2b8 963d 0cf9 8c3c
00000300: 2eec 48ba a686 bd3d 0da0 913d 3a99 0a3b
00000310: 6295 6c3d 0eff 8e3d d359 0b3c 3762 ac3d
00000320: 5c02 4cbc 9d00 d2ba de15 f63c f633 893d
00000330: 8519 84bd df33 a23d a0c8 8d3d b620 62bd
00000340: 24a3 cf3d 0977 4bbd cf2a a73d 4b26 91bd
00000350: 4797 17bd 14ba 9c3d 04bb 57be aae2 dd3d
00000360: 051f 023d a35f d9bc 94ab cf3c 8cb3 863d
00000370: 06ff 893c 92fc 91bd 30f6 123d 0587 b43d
00000380: d826 1b3d 80aa cd3c 951d f2ba fa97 e03b
00000390: d032 81bd 0df8 82bd 2f60 553d af8b c1bb
000003a0: 5bca 923c 1ff1 8ebd 68c5 22bd aa49 9cbd
000003b0: a78d b53c 5543 c3bc d1cb af3d 4e28 333d
000003c0: 2485 92bc 00c9 3ebc 7801 173e b31b 453c
000003d0: 76d1 843d cec9 9cbd a75d b53d 67db b23d
000003e0: f10a 85bd b1ad f4bb 57f1 09bd 1cd0 5cbd
000003f0: b38f dcbc d673 99bd f4ed 3dbd 597e d8bd

l3.bias f4 [50]
0.13526079 -0.009982153 -0.054106537 0.026614217 -0.05407596 -0.061436933 -0.019680256 -0.07907456
-0.03898471 -0.077651545 0.026034692 0.08806841 0.015490853 0.051884525 -0.05177418 -0.009518288
0.026530141 -0.0052530454 0.02843515 0.100119956 -0.02766604 -0.038640477 0.039944906 -0.04495822
-0.022576857 -0.0213451 -0.067618534 0.004354986 0.07001436 0.06809154 -0.029581428 -0.051624812
0.066840716 0.11075815 0.1576679 0.02004132 -0.0732407 0.025980597 -0.021882586 -0.055436116
0.067323595 -0.051222157 -0.055889755 -0.06126934 0.059372358 0.0026470262 0.018707704 0.08158355
-0.01247949 0.090905584
00000000: ce81 0a3e 2f8c 23bc d19e 5dbd 0f06 da3c
00000010: c17e 5dbd 4ba5 7bbd 7d38 a1bc d8f1 a1bd
00000020: 6eae 1fbd c607 9fbd b546 d53c 365d b43d
00000030: 59cd 7d3c de84 543d 2a11 54bd 98f2 1bbc
00000040: bd55 d93c bd21 acbb d5f0 e83c b10b cd3d
00000050: e4a3 e2bc 7a45 1ebd 459d 233d 1c26 38bd
00000060: 1af3 b8bc ebdb aebc 967b 8abd 45b4 8e3b
00000070: b063 8f3d 9473 8b3d c054 f2bc 8a74 53bd
00000080: c9e3 883d 2bd5 e23d b273 213e b22d a43c
00000090: 38ff 95bd 43d5 d43c 1c43 b3bc fb10 63bd
000000a0: f4e0 893d 53ce 51bd a8ec 64bd 8ff5 7abd
000000b0: 6e30 733d bb79 2d3b e640 993c 4715 a73d
000000c0: c676 4cbc b52c ba3d

l4.weight f4 [2, 50]
-0.88699025 -0.10314634 0.21732885 0.06731642 -0.039707977 0.11059233 -0.12136625 -0.04982857
0.012174696 -0.8167878 0.00034131444 -0.14688894 -0.65301746 -0.05796578 -0.034171145 0.022193993
0.067094095 0.12231746 0.039042864 -0.07159735 0.0022562905 0.053908437 -0.041808948 0.06838058
0.10148993 -0.109876744 -0.016590938 0.022098185 -0.11458204 0.00588929 -0.12747091 -0.32063332
-0.008689162 -0.00028215395 0.022836722 0.048782174 -0.0023476635 0.108853936 -0.81510377 -0.03406721
-0.013574154 0.0024372386 0.11146476 -0.13888778 -0.11946371 0.08041495 -0.06604831 0.021460347
-0.51641506 -0.07402849 -0.013308639 0.11221067 -0.052059162 -0.013294738 -0.041357078 -0.0040647215
-0.018923186 -0.049122017 0.082744524 0.023765927 0.0145470975 -0.081493676 -0.0996349 0.034895193
-0.027136516 -0.004992512 0.00029176121 -0.018986188 -0.09709457 -0.14955077 0.068173505 -0.053768657
0.0758675 0.08344131 0.11404652 0.048575435 -0.08064778 -0.048874162 -0.095624246 -0.5549876
-0.103531964 -0.0027971638 -0.029657004 -0.2576225 -0.21784157 -0.008093238 0.0063862028 -0.015566128
0.13365345 -0.042439915 -0.87817496 0.072042406 0.10227886 0.009244061 -0.010596904 -0.020284422
0.07268525 -0.11601577 -0.0074047362 0.04797411
00000000: cb11 63bf 633e d3bd 748b 5e3e 31dd 893d
00000010: d5a4 22bd 3b7e e23d de8e f8bd 0b19 4cbd
00000020: 6078 473c 0119 51bf 73f2 b239 0e6a 16be
00000030: 272c 27bf 876d 6dbd 0bf7 0bbd 2dd0 b53c
00000040: a168 893d 9481 fa3d 69eb 1f3d a2a1 92bd
00000050: 46de 133b 18cf 5c3d dc3f 2bbd 1e0b 8c3d
00000060: f4d9 cf3d 0f07 e1bd b8e9 87bc 4107 b53c
00000070: fda9 eabd f2fa c03b bc87 02be 0d2a a4be
00000080: fd5c 0ebc 10ee 93b9 1414 bb3c d1cf 473d
00000090: 42db 19bb d0ee de3d a4aa 50bf 0f8a 0bbd
000000a0: 2166 5ebc 14ba 1f3b a347 e43d 9938 0ebe
000000b0: 64a9 f4bd 98b0 a43d 5644 87bd 9ccd af3c
000000c0: c733 04bf 409c 97bd 7a0c 5abc b5ce e53d
000000d0: fd3b 55bd 2cd2 59bc 0a66 29bd 5b31 85bb
000000e0: cc04 9bbc 2b34 49bd f675 a93d c3b0 c23c
000000f0: f356 6e3c 28e6 a6bd 620d ccbd 43ee 0e3d
00000100: 664d debc 3a98 a3bb 87f7 9839 ec88 9bbc
00000110: 85d9 c6bd d623 19be 8d9e 8b3d 863c 5cbd
00000120: 6b60 9b3d 47e3 aa3d 3991 e93d 09f7 463d
00000130: aa2a a5bd 4630 48bd a5d6 c3bd ab13 0ebf
00000140: 9108 d4bd 9f50 37bb 3ff3 f2bc 19e7 83be
00000150: dc11 5fbe 8099 04bc 5a43 d13b 1309 7fbc
00000160: 73dc 083e 7ad5 2dbd 13d0 60bf f88a 933d
00000170: 9477 d13d 6774 173c a39e 2dbc 842b a6bc
00000180: 01dc 943d ad99 edbd 6ea3 f2bb 8080 443d

l4.bias f4 [2]
0.068382464 0.02853087
00000000: 1b0c 8c3d 92b9 e93c

exp_avg f4 [250, 3]
-1.04894e-07 5.8882495e-08 -2.4722452e-08 -5.817931e-08 1.6479932e-08 -3.715785e-08 5.78783e-09 8.424718e-08
4.929112e-08 1.8227173e-07 3.309583e-07 -5.663971e-07 0.0 0.0 0.0 7.3687967e-09
1.5858227e-07 1.1188832e-07 8.357197e-08 9.9221346e-08 -1.5860725e-07 -6.2581485e-08 2.246767e-07 9.633737e-08
-5.9447203e-08 -5.213357e-08 2.8627372e-07 1.3515408e-08 -1.8923629e-08 1.2487806e-07 4.781772e-08 4.7434696e-08
2.0435465e-07 1.4114404e-07 -2.1143995e-07 7.4485e-07 -5.303125e-08 -1.3705429e-08 2.2753936e-06 -9.3147264e-08
-1.830207e-07 -2.4961332e-07 -2.0930456e-08 -2.6316402e-08 1.0029134e-07 3.3384563e-08 6.538907e-09 -9.8746476e-08
5.651821e-09 -6.904553e-08 -2.9012013e-09 9.116003e-09 6.431862e-08 4.2568608e-08 4.6891037e-07 -5.1570373e-07
4.135887e-08 -3.863124e-08 4.239239e-08 4.380947e-08 -3.6840635e-08 8.8692865e-08 -2.8906694e-08 -4.8269646e-07
-2.4284412e-07 -3.2215044e-07 -1.3173513e-08 -2.4654352e-09 -1.3696849e-09 -1.03569874e-07 3.6023454e-07 -9.3906493e-07
-4.9373497e-08 -7.8102865e-08 3.96843e-07 -3.0894768e-08 9.752532e-08 2.2798471e-07 -7.845885e-08 -1.3181514e-07
-3.516737e-08 -3.3344605e-08 8.8762995e-08 9.24931e-08 -1.7428682e-08 -2.8519313e-08 2.1259257e-07 -1.6601714e-08
-3.4379877e-08 1.3578099e-08 -1.2205043e-08 4.304861e-08 9.2458365e-08 -8.1219895e-08 -2.429456e-07 -6.7039264e-07
2.49117e-07 4.6094172e-07 -1.8520069e-06 3.178532e-08 -2.6003627e-07 -2.3190433e-08 -7.988611e-08 2.0877945e-08
1.4533174e-07 -1.0597118e-07 2.1172575e-07 9.198137e-08 0.0 0.0 0.0 2.8157585e-08
4.994888e-08 -1.8310926e-08 -8.425534e-09 3.9301575e-08 2.211325e-07 9.483457e-10 3.091738e-08 4.2160803e-08
-4.7974726e-08 9.3709346e-08 2.2973024e-08 -1.496839e-08 5.7708284e-08 2.1657553e-07 5.9728094e-08 -9.055759e-08
-3.7857248e-08 -7.790089e-08 -9.5716416e-08 7.957338e-07 -5.2010208e-08 1.5654993e-07 3.4886276e-07 -1.4402568e-07
2.2904334e-08 -5.9446006e-07 -9.282484e-08 -2.1625378e-07 -4.6101597e-08 7.4821024e-08 -5.182419e-07 2.564298e-07
-3.3567782e-09 3.230011e-08 1.5524309e-08 2.3196096e-09 1.5544508e-08 1.4871318e-07 -6.037975e-08 1.221426e-07
5.4596967e-08 -1.542141e-08 1.0027173e-08 1.936688e-07 1.3844779e-07 2.984733e-07 4.153356e-07 -4.4609102e-08
-2.899941e-08 1.1962197e-07 -1.0381058e-07 -1.5016712e-07 -2.2394622e-07 1.6752025e-09 -2.904835e-08 1.9088692e-08
-5.218223e-08 6.6873866e-08 4.8586838e-08 6.066449e-09 -2.3914955e-08 3.541294e-08 2.8588985e-08 -3.1992712e-08
1.3372043e-07 6.516581e-08 -1.6479747e-07 -3.0398581e-07 2.4938636e-09 3.7269807e-08 4.7745385e-08 -2.0087903e-08
8.3612235e-08 -8.647483e-08 5.984226e-08 5.6787265e-08 2.5399439e-08 -1.3113628e-09 -1.3095644e-07 2.7574305e-07
1.4535411e-07 -1.4385706e-07 7.855078e-07 1.2026183e-07 -1.0802388e-07 -1.3505237e-07 -7.218146e-08 -9.859185e-08
3.5354282e-07 3.395008e-07 -4.6882013e-07 -4.772402e-07 2.390646e-07 -1.3498843e-07 5.7684355e-07 -2.8715537e-08
1.2256704e-07 -1.227752e-07 -7.242303e-08 -3.0086266e-08 -5.986184e-08 -2.0703213e-08 -2.6929754e-08 -7.647688e-07
1.8141193e-08 -2.5901036e-08 -9.554357e-09 -4.8632543e-08 -3.5289347e-07 4.4384194e-07 -3.3930935e-08 -2.3070834e-08
-1.10830364e-07 8.816155e-08 -1.2796657e-08 5.1009184e-09 1.5645861e-07 -4.0107645e-07 8.28084e-07 -2.2231106e-08
-4.326329e-08 1.3347957e-07 5.3181907e-08 1.8212549e-07 -4.25355e-08 -2.2763966e-07 8.710352e-08 -9.9880275e-08
1.1998219e-07 -8.9372e-07 -1.03144146e-07 3.9093324e-09 -8.853205e-08 4.9688566e-07 1.3438516e-07 9.1512824e-08
1.3331919e-07 0.0 0.0 0.0 -5.793905e-09 -7.899751e-09 -7.263096e-09 -2.367462e-08
00000000: 1642 e1b3 fde5 7c33 3f5d d4b2 d4e0 79b3
00000010: c18f 8d32 7d97 1fb3 4bde c631 61eb b433
00000020: 29b4 5333 79b6 4334 90ae b134 830a 18b5
00000030: 0000 0000 0000 0000 0000 0000 9f30 fd31
00000040: c346 2a34 4147 f033 2d78 b333 8313 d533
00000050: a14d 2ab4 8964 86b3 a93e 7134 07e2 ce33
00000060: e452 7fb3 77e9 5fb3 29b1 9934 6531 6832
00000070: 808d a2b2 3816 0634 2460 4d33 00bb 4b33
00000080: 946c 5b34 618d 1734 2c08 63b4 b4f1 4735
00000090: 7ac4 63b3 1d75 6bb2 f7b2 1836 4008 c8b3
000000a0: 5984 44b4 9802 86b4 8fca b3b2 610e e2b2
000000b0: bf5f d733 b762 0f33 d6ac e031 730e d4b3
000000c0: f131 c231 2e46 94b3 795e 47b1 9b9c 1c32
000000d0: 891f 8a33 aed4 3633 8dbe fb34 e46e 0ab5
000000e0: 8fa2 3133 7feb 25b3 ed12 3633 0629 3c33
000000f0: b53a 1eb3 6b77 be33 7e4e f8b2 a692 01b5
00000100: 3e60 82b4 05f4 acb4 b951 62b2 656c 29b1
00000110: 813f bcb0 246a deb3 4266 c134 0d14 7cb5
00000120: bc0e 54b3 81b9 a7b3 b00d d534 28b1 04b3
00000130: 1d6f d133 f6cb 7434 357d a8b3 1289 0db4
00000140: ef0a 17b3 c836 0fb3 f99d be33 9fa0 c633
00000150: 14b6 95b2 a2fa f4b2 0045 6434 8e9b 8eb2
00000160: 13a9 13b3 1c45 6932 59ae 51b2 72e4 3833
00000170: 868d c633 1c6b aeb3 306e 82b4 08f5 33b5
00000180: 61be 8534 5977 f734 7992 f8b5 5484 0833
00000190: 1d9b 8bb4 4d34 c7b2 da8d abb3 1657 b332
000001a0: 7c0c 1c34 4692 e3b3 bb56 6334 4b87 c533
000001b0: 0000 0000 0000 0000 0000 0000 2fdf f132
000001c0: 6087 5633 274a 9db2 e4bf 10b2 8acc 2833
000001d0: 7070 6d34 f356 8230 05ca 0433 4b14 3533
000001e0: c50c 4eb3 423d c933 3756 c532 d693 80b2
000001f0: eeda 7733 d48b 6834 de43 8033 9078 c2b3
00000200: 7c98 22b3 784a a7b3 a88c cdb3 699a 5535
00000210: d461 5fb3 1e18 2834 554b bb34 7aa5 1ab4
00000220: 2abf c432 fc92 1fb5 ff56 c7b3 6333 68b4
00000230: 3e01 46b3 4bad a033 501d 0bb5 71ab 8934
00000240: 11ad 66b1 59ba 0a33 515a 8532 0167 1f31
00000250: bc86 8532 f8ad 1f34 1eaa 81b3 4d26 0334
00000260: 007e 6a33 0a78 84b2 f943 2c32 46f3 4f34
00000270: 3da8 1434 dc3d a034 4afb de34 3a98 3fb3
00000280: 611a f9b2 7071 0034 78ee deb3 a03d 21b4
00000290: de75 70b4 f33c e630 ff85 f9b2 7af8 a332
000002a0: f81e 60b3 4c9c 8f33 cbad 5033 0d71 d031
000002b0: 8b6d cdb2 f018 1833 d893 f532 5c68 09b3
000002c0: cb94 0f34 48f1 8b33 2ff3 30b4 7e33 a3b4
000002d0: 8360 2b31 9612 2033 9b10 4d33 c48d acb2
000002e0: 508e b333 0ab4 b9b3 a182 8033 42e6 7333
000002f0: f52d da32 7a3b b4b0 089d 0cb4 d609 9434
00000300: a212 1c34 2177 1ab4 afdb 5235 5221 0134
00000310: c2fa e7b3 ea02 11b4 2d02 9bb3 71b9 d3b3
00000320: 8ece bd34 a244 b634 26b2 fbb4 b21b 00b5
00000330: ca58 8034 56f1 10b4 63d8 1a35 22aa f6b2
00000340: f99a 0334 31d4 03b4 fb86 9bb3 3338 01b3
00000350: 658d 80b3 d9d6 b1b2 2853 e7b2 834a 4db5
00000360: e8d4 9b32 fb7c deb2 8224 24b2 0ce0 50b3
00000370: 4f75 bdb4 2c49 ee34 75bb 11b3 4d2d c6b2
00000380: a301 eeb3 5353 bd33 4bd8 5bb2 2744 af31
00000390: 04ff 2734 8753 d7b4 8049 5e35 b8f6 beb2
000003a0: 7ed0 39b3 9652 0f34 206a 6433 468e 4334
000003b0: 47b0 36b3 1d6d 74b4 ab0d bb33 c37d d6b3
000003c0: 74d4 0034 f9e7 6fb5 1880 ddb3 da52 8631
000003d0: 021f beb3 b961 0535 834b 1034 b585 c433
000003e0: 8026 0f34 0000 0000 0000 0000 0000 0000
000003f0: ba13 c7b1 79b7 07b2 de8e f9b1 0a5d cbb2

exp_avg_sq f4 [250, 3]
2.6057146e-11 3.3677484e-12 1.756995e-11 5.569153e-12 1.9000812e-12 2.428502e-12 7.375217e-15 1.1721539e-11
1.0381755e-12 8.581407e-11 5.7097926e-10 9.31564e-10 0.0 0.0 0.0 9.920324e-12
1.5550642e-11 1.867617e-10 1.4630165e-11 3.6323132e-11 4.0777322e-11 7.2597806e-10 2.6971148e-10 8.202567e-10
2.930112e-11 2.640038e-12 2.8388775e-10 6.113966e-13 4.776777e-13 5.2290745e-11 1.1591774e-11 1.0617126e-12
4.9403265e-10 2.4763748e-11 3.752303e-11 1.6159397e-09 3.076699e-11 8.593596e-11 3.675989e-08 1.4628751e-11
5.791026e-11 7.135251e-11 1.0208686e-12 2.1257232e-13 6.5841624e-11 1.1293931e-12 7.1985777e-13 7.601032e-11
2.4054391e-12 1.08957825e-11 6.784647e-13 2.244485e-13 3.0274017e-12 5.64776e-12 7.631641e-10 3.3498482e-10
3.2817934e-10 9.958631e-12 1.3400874e-13 4.8329476e-11 2.461477e-11 2.2038439e-12 2.6081486e-11 3.3781342e-10
5.149584e-11 2.8929223e-10 3.7262424e-12 2.2464094e-12 3.1134971e-13 4.8958098e-11 3.7564685e-10 3.744054e-09
1.4580744e-12 1.1321241e-11 6.781308e-10 5.5803777e-12 7.240002e-12 5.16688e-10 1.9430908e-11 2.514568e-11
6.00516e-13 9.1368735e-12 9.937782e-12 3.6226352e-11 1.2801985e-12 7.408011e-13 5.727172e-11 1.4046443e-12
2.936981e-12 9.384644e-11 1.5851324e-14 1.1132363e-11 7.833105e-12 2.6733707e-11 1.6898764e-10 3.3784233e-09
3.0606413e-11 5.546244e-10 2.7666166e-08 1.366553e-12 1.297506e-10 7.77866e-13 3.6299967e-11 4.681983e-13
6.6642947e-10 4.630251e-11 4.2680536e-11 1.1714921e-09 0.0 0.0 0.0 2.5878895e-12
6.4772545e-12 1.3355232e-12 4.1329115e-12 4.135548e-12 2.5683466e-10 9.920848e-14 1.9384856e-12 2.0970064e-12
6.9351547e-12 2.4161664e-11 5.234825e-13 2.8677282e-12 6.3960984e-13 2.632251e-10 3.4703809e-12 1.0416895e-11
2.8187639e-12 1.3701769e-10 1.0017922e-11 1.2716791e-09 1.0095604e-11 6.542077e-11 1.9264343e-10 7.724481e-11
1.2513013e-11 2.346739e-09 2.270865e-11 7.476675e-11 3.1255747e-12 2.189773e-11 5.373603e-10 3.6192577e-10
6.4725494e-14 3.4046691e-12 2.1346438e-13 2.928397e-13 1.3146116e-12 6.0511623e-11 2.7720575e-12 1.7108807e-11
3.6380043e-10 1.962202e-12 1.8878397e-12 1.5902771e-10 1.4688657e-11 2.626521e-10 6.695137e-10 1.7266515e-11
1.3220396e-12 2.321312e-10 1.1224143e-10 3.4330572e-10 4.884832e-10 9.218955e-15 9.12889e-13 1.4242073e-12
6.3282274e-12 1.9340933e-12 6.0008026e-10 8.219107e-13 2.0369858e-12 3.2019957e-12 1.3617539e-12 1.6195559e-12
5.826609e-10 4.96391e-12 3.1337166e-11 1.03679544e-10 7.1552824e-14 2.1618573e-12 4.2726617e-12 2.8214174e-13
2.3219216e-11 1.7402232e-11 6.9169254e-12 5.0095323e-12 2.3651146e-12 4.23881e-12 2.5566176e-11 9.630982e-10
1.9422944e-11 2.1341201e-11 2.1592388e-09 1.6858816e-10 1.0096646e-10 2.315932e-10 1.4478994e-11 7.1166293e-12
2.3754024e-10 2.1548548e-10 3.4782582e-10 6.8965433e-10 6.003055e-11 1.4500669e-11 8.949639e-10 2.296445e-12
2.3882006e-11 1.8972277e-10 2.3362038e-11 9.2479436e-12 4.1059382e-12 1.967165e-11 1.1945115e-11 6.278378e-09
3.2509152e-13 3.8072892e-13 1.9960245e-14 3.0144838e-11 9.236686e-11 2.3793914e-10 4.1592026e-13 7.757645e-12
2.0393917e-11 1.8642698e-11 1.7351205e-12 1.6287183e-13 3.7278604e-11 2.2633662e-11 1.6086048e-09 6.671067e-12
2.8136944e-12 2.8002798e-11 7.163609e-12 3.2619935e-11 1.1711965e-11 4.1222686e-10 4.4889795e-10 9.644828e-10
2.1383167e-12 1.9158588e-09 1.919333e-11 9.96961e-13 4.7809387e-12 1.0848425e-09 1.2809245e-11 5.6783063e-12
2.1634046e-10 0.0 0.0 0.0 1.6994754e-14 2.6759768e-14 6.3521196e-14 3.1347236e-12
00000000: 7a33 e52d f6fb 6c2c 038c 9a2d 79f2 c32c
00000010: d2b4 052c 01e4 2a2c 2fdc 0428 1e35 4e2d
00000020: 371c 922b 07b5 bc2e 18f3 1c30 7f08 8030
00000030: 0000 0000 0000 0000 0000 0000 2b85 2e2d
00000040: efc8 882d bf58 4d2f 34b0 802d 36c0 1f2e
00000050: 2f57 332e 2a8e 4730 8446 942f 6f78 6130
00000060: 21de 002e b2c6 392c a611 9c2f c517 2c2b
00000070: 4e74 062b 25fa 652e b6ec 4b2d 3a6c 952b
00000080: 75cc 0730 01d3 d92d 2d07 252e d317 de30
00000090: 8d50 072e a5f9 bc2e ede1 1d33 05ad 802d
000000a0: 28b1 7e2e e4e7 9c2e abac 8f2b cd55 6f2a
000000b0: 8ac9 902e adf2 9e2b 389f 4a2b 0226 a72e
000000c0: 8a44 292c 3eae 3f2d 89f8 3e2b e0b4 7c2a
000000d0: d208 552c 80b6 c62c e6c6 5130 ec28 b82f
000000e0: 236b b42f b031 2f2d 64e1 162a 278e 542e
000000f0: 8983 d82d ec14 1b2c 496a e52d 03b7 b92f
00000100: 297b 622e 430a 9f2f 021b 832c b713 1e2c
00000110: 3946 af2a eb51 572e 9883 ce2f 0ca5 8031
00000120: ab34 cd2b 562a 472d 3667 3a30 9357 c42c
00000130: 24bc fe2c b006 0e30 84ea aa2d 0a2f dd2d
00000140: bd07 292b d2bc 202d cbd3 2e2d 3f53 1f2e
00000150: 032c b42b 5884 502b 39e2 7b2e a5af c52b
00000160: f2ab 4e2c d95e ce2e aac6 8e28 b5d7 432d
00000170: 2bcd 092d f526 eb2d cbcd 392f da29 6831
00000180: c29b 062e 3974 1830 8ba6 ed32 4353 c02b
00000190: 8ca9 0e2f 27f3 5a2b 21a6 1f2e 3ec9 032b
000001a0: ce2f 3730 fea3 4b2e 03b6 3b2e 3702 a130
000001b0: 0000 0000 0000 0000 0000 0000 461b 362c
000001c0: ece5 e32c 4bf5 bb2b f569 912c b481 912c
000001d0: 4432 8d2f cc65 df29 a768 082c 4f90 132c
000001e0: 5202 f42c 3b87 d42d e458 132b 66cc 492c
000001f0: bf08 342b a4b5 902f d334 742c 8641 372d
00000200: 565a 462c 0da7 162f b63c 302d 3bc7 ae30
00000210: 8f9a 312d 9fdc 8f2e 4ed0 532f f6dc a92e
00000220: 9a21 5c2d 4544 2131 55bf c72d f069 a42e
00000230: 59f1 5b2c 4e9d c02d 5fb5 1330 86f8 c62f
00000240: b5bf 9129 1195 6f2c eb56 702a a6da a42a
00000250: e003 b92b 0411 852e f310 432c 9c7d 962d
00000260: 5c00 c82f e413 0a2c 4cd8 042c 52da 2e2f
00000270: ea33 812d ff64 902f d708 3830 bce0 972d
00000280: 7f0f ba2b 203b 7f2f 4fd2 f62e fcbb bc2f
00000290: f345 0630 ed12 2628 4b7a 802b 7a70 c82b
000002a0: 9ba7 de2c 8719 082c e5f2 2430 e858 672b
000002b0: 1357 0f2c 0752 612c 5ba6 bf2b a7ee e32b
000002c0: 1e29 2030 eda6 ae2c 83d2 092e 65fe e32e
000002d0: 651f a129 8f20 182c b754 962c e9d4 9e2a
000002e0: 073d cc2d 5812 992d 205e f32c db41 b02c
000002f0: 1e6e 262c ce23 952c e9e1 e02d 015e 8430
00000300: 95d8 aa2d 1db8 bb2d bb61 1431 595d 392f
00000310: 1007 de2e b1a3 7e2f 98b7 7e2d e664 fa2c
00000320: d196 822f c5ed 6c2f 2238 bf2f 1c92 3d30
00000330: 3202 842e 3519 7f2d 7c01 7630 1399 212c
00000340: 7f11 d22d 369a 502f a27e cd2d 09b1 222d
00000350: 0177 902c 9e08 ad2d 0424 522d 32b9 d731
00000360: a002 b72a d254 d62a 31c9 b328 1294 042e
00000370: eb1d cb2e f5ce 822f 6d24 ea2a 5479 082d
00000380: 0563 b32d a0fb a32d 4e32 f42b 9c60 372a
00000390: faf3 232e 7a16 c72d c015 dd30 a1b7 ea2c
000003a0: 03ff 452c b250 f62d 0e0c fc2c c876 0f2e
000003b0: 000a 4e2d c69f e22f c5c8 f62f b98e 8430
000003c0: 7d78 162c 25a8 0331 89d3 a82d 4e4f 8c2b
000003d0: de36 a82c 8119 9530 b657 612d a3c9 c72c
000003e0: 6dde 6d2f 0000 0000 0000 0000 0000 0000
000003f0: 3c13 9928 d307 f128 7a09 8f29 2996 5c2c

exp_avg f4 [130, 250]
6e-45 6e-45 6e-45 6e-45 0.0 6e-45 6e-45 0.0
6e-45 6e-45 6e-45 0.0 6e-45 6e-45 6e-45 6e-45
6e-45 0.0 6e-45 6e-45 6e-45 0.0 6e-45 6e-45
6e-45 6e-45 0.0 6e-45 6e-45 6e-45 0.0 6e-45
6e-45 0.0 6e-45 6e-45 0.0 6e-45 6e-45 0.0
6e-45 6e-45 6e-45 6e-45 6e-45 6e-45 0.0 0.0
6e-45 0.0 6e-45 6e-45 6e-45 6e-45 6e-45 0.0
6e-45 0.0 6e-45 6e-45 0.0 6e-45 6e-45 6e-45
0.0 6e-45 6e-45 6e-45 0.0 6e-45 6e-45 6e-45
0.0 6e-45 6e-45 6e-45 6e-45 6e-45 6e-45 6e-45
6e-45 6e-45 6e-45 0.0 6e-45 6e-45 6e-45 6e-45
6e-45 6e-45 6e-45 6e-45 0.0 6e-45 6e-45 6e-45
6e-45 6e-45 6e-45 6e-45 6e-45 6e-45 6e-45 6e-45
6e-45 0.0 0.0 6e-45 6e-45 0.0 0.0 0.0
6e-45 6e-45 6e-45 6e-45 6e-45 6e-45 6e-45 6e-45
0.0 6e-45 6e-45 6e-45 6e-45 0.0 6e-45 6e-45
0.0 6e-45 6e-45 6e-45 6e-45 6e-45 6e-45 0.0
6e-45 6e-45 6e-45 6e-45 6e-45 6e-45 6e-45 0.0
6e-45 6e-45 6e-45 6e-45 6e-45 6e-45 6e-45 6e-45
0.0 6e-45 6e-45 6e-45 0.0 0.0 6e-45 6e-45
6e-45 6e-45 6e-45 0.0 0.0 6e-45 6e-45 6e-45
6e-45 6e-45 6e-45 6e-45 6e-45 6e-45 6e-45 6e-45
6e-45 6e-45 0.0 0.0 6e-45 0.0 0.0 0.0
6e-45 6e-45 6e-45 6e-45 6e-45 6e-45 6e-45 6e-45
6e-45 0.0 6e-45 6e-45 6e-45 6e-45 6e-45 6e-45
6e-45 6e-45 0.0 6e-45 6e-45 6e-45 6e-45 6e-45
6e-45 6e-45 6e-45 6e-45 6e-45 0.0 6e-45 6e-45
6e-45 0.0 0.0 6e-45 6e-45 6e-45 6e-45 6e-45
6e-45 6e-45 6e-45 0.0 6e-45 6e-45 6e-45 6e-45
6e-45 6e-45 6e-45 6e-45 6e-45 6e-45 6e-45 6e-45
6e-45 6e-45 6e-45 6e-45 6e-45 0.0 6e-45 0.0
6e-45 6e-45 2.26942e-07 -7.7267104e-13 -2.4683346e-09 1.9924023e-08 0.0 5.715558e-07
00000000: 0400 0000 0400 0000 0400 0000 0400 0000
00000010: 0000 0000 0400 0000 0400 0000 0000 0000
00000020: 0400 0000 0400 0000 0400 0000 0000 0000
00000030: 0400 0000 0400 0000 0400 0000 0400 0000
00000040: 0400 0000 0000 0000 0400 0000 0400 0000
00000050: 0400 0000 0000 0000 0400 0000 0400 0000
00000060: 0400 0000 0400 0000 0000 0000 0400 0000
00000070: 0400 0000 0400 0000 0000 0000 0400 0000
00000080: 0400 0000 0000 0000 0400 0000 0400 0000
00000090: 0000 0000 0400 0000 0400 0000 0000 0000
000000a0: 0400 0000 0400 0000 0400 0000 0400 0000
000000b0: 0400 0000 0400 0000 0000 0000 0000 0000
000000c0: 0400 0000 0000 0000 0400 0000 0400 0000
000000d0: 0400 0000 0400 0000 0400 0000 0000 0000
000000e0: 0400 0000 0000 0000 0400 0000 0400 0000
000000f0: 0000 0000 0400 0000 0400 0000 0400 0000
00000100: 0000 0000 0400 0000 0400 0000 0400 0000
00000110: 0000 0000 0400 0000 0400 0000 0400 0000
00000120: 0000 0000 0400 0000 0400 0000 0400 0000
00000130: 0400 0000 0400 0000 0400 0000 0400 0000
00000140: 0400 0000 0400 0000 0400 0000 0000 0000
00000150: 0400 0000 0400 0000 0400 0000 0400 0000
00000160: 0400 0000 0400 0000 0400 0000 0400 0000
00000170: 0000 0000 0400 0000 0400 0000 0400 0000
00000180: 0400 0000 0400 0000 0400 0000 0400 0000
00000190: 0400 0000 0400 0000 0400 0000 0400 0000
000001a0: 0400 0000 0000 0000 0000 0000 0400 0000
000001b0: 0400 0000 0000 0000 0000 0000 0000 0000
000001c0: 0400 0000 0400 0000 0400 0000 0400 0000
000001d0: 0400 0000 0400 0000 0400 0000 0400 0000
000001e0: 0000 0000 0400 0000 0400 0000 0400 0000
000001f0: 0400 0000 0000 0000 0400 0000 0400 0000
00000200: 0000 0000 0400 0000 0400 0000 0400 0000
00000210: 0400 0000 0400 0000 0400 0000 0000 0000
00000220: 0400 0000 0400 0000 0400 0000 0400 0000
00000230: 0400 0000 0400 0000 0400 0000 0000 0000
00000240: 0400 0000 0400 0000 0400 0000 0400 0000
00000250: 0400 0000 0400 0000 0400 0000 0400 0000
00000260: 0000 0000 0400 0000 0400 0000 0400 0000
00000270: 0000 0000 0000 0000 0400 0000 0400 0000
00000280: 0400 0000 0400 0000 0400 0000 0000 0000
00000290: 0000 0000 0400 0000 0400 0000 0400 0000
000002a0: 0400 0000 0400 0000 0400 0000 0400 0000
000002b0: 0400 0000 0400 0000 0400 0000 0400 0000
000002c0: 0400 0000 0400 0000 0000 0000 0000 0000
000002d0: 0400 0000 0000 0000 0000 0000 0000 0000
000002e0: 0400 0000 0400 0000 0400 0000 0400 0000
000002f0: 0400 0000 0400 0000 0400 0000 0400 0000
00000300: 0400 0000 0000 0000 0400 0000 0400 0000
00000310: 0400 0000 0400 0000 0400 0000 0400 0000
00000320: 0400 0000 0400 0000 0000 0000 0400 0000
00000330: 0400 0000 0400 0000 0400 0000 0400 0000
00000340: 0400 0000 0400 0000 0400 0000 0400 0000
00000350: 0400 0000 0000 0000 0400 0000 0400 0000
00000360: 0400 0000 0000 0000 0000 0000 0400 0000
00000370: 0400 0000 0400 0000 0400 0000 0400 0000
00000380: 0400 0000 0400 0000 0400 0000 0000 0000
00000390: 0400 0000 0400 0000 0400 0000 0400 0000
000003a0: 0400 0000 0400 0000 0400 0000 0400 0000
000003b0: 0400 0000 0400 0000 0400 0000 0400 0000
000003c0: 0400 0000 0400 0000 0400 0000 0400 0000
000003d0: 0400 0000 0000 0000 0400 0000 0000 0000
000003e0: 0400 0000 0400 0000 58ad 7334 d17c 59ab
000003f0: 679f 29b1 6425 ab32 0000 0000 046d 1935
