ros_ws/src/primitive_library/src/neural_jsdf/JSDF/hand/NN_model/models/single_101.pt (torch, 505498 bytes, 24 tensors)

l1.weight f4 [250, 7]
000000 e9 44 31 3c b5 9d 96 be 9e 98 72 bc d1 fd 26 bc
       0.010819652 -0.29417196 -0.014806895 -0.0101923505
000010 fe fa 28 3f 1a 94 a6 3d 6d 95 c9 be 94 5e a2 bd
       0.66007984 0.08133717 -0.39371815 -0.079281956
000020 05 2f b1 be 02 99 58 be dc 8d 8a bc 6c a9 09 3f
       -0.34606186 -0.21152118 -0.016913347 0.5377414
000030 6c a5 a9 be e4 4c 70 3e 66 a4 c6 3a ea 90 27 3e
       -0.3313402 0.23466831 0.0015155196 0.16363874
000040 ae ea 0e be 04 22 18 3c 70 83 05 bc e7 db b2 3e
       -0.1395671 0.009285454 -0.008149013 0.34933397
000050 91 f3 0c bf be 71 93 3e 82 84 ef 3c b7 81 c9 3d
       -0.5505915 0.28797716 0.02923799 0.09839194
000060 51 f1 c7 3c cd e9 06 3f fb 05 57 be f4 dd 87 3e
       0.02440706 0.527005 -0.20998375 0.26536524
000070 f6 0d b3 bd 51 8f 12 bf a6 49 88 be c6 d2 58 3c
       -0.08742897 -0.57249933 -0.2661869 0.013233846
000080 f5 a8 71 3e d2 8f 1e 3d 77 7f 1b bf 47 17 77 be
       0.23599608 0.038711376 -0.6074137 -0.24129973
000090 ae e7 03 3f ba e5 95 3e 7a e9 93 3d 8b 71 bb 3e
       0.5152539 0.2927683 0.072222665 0.36610064
0000a0 a7 51 4d 3e 28 60 20 3f 35 06 a4 3d be 68 3d 3e
       0.20050679 0.6264672 0.080089964 0.18496987
0000b0 8b 1b df bd a4 54 f3 bc 66 d9 41 bf f4 f3 08 bc
       -0.10893925 -0.029703446 -0.7572235 -0.008358944
0000c0 bb b7 2f bf b3 10 b1 bb a5 04 49 3d cd bd 35 ba
       -0.68639725 -0.005403602 0.049076695 -0.00069328846
0000d0 f9 26 4c 3a 8f 85 51 3f f7 40 87 bc ab 5d fd bb
       0.000778779 0.8184442 -0.01651047 -0.0077321134
0000e0 65 7c db bd 71 2b 72 be 6e dd a0 3c 8f a5 c7 bc
       -0.10717086 -0.23649384 0.019636836 -0.024370937
0000f0 1e 0d a7 3e 6d 7f 9f 3e dd c6 75 be 5a cc 41 bd
       0.32627195 0.31151906 -0.24001642 -0.047314025
000100 cf 35 a2 3e f5 a4 a9 3e fc dd 0f 3f a8 98 01 be
       0.31681678 0.33133665 0.56198096 -0.1265589
000110 b3 c9 38 3d 7f 24 eb 3d 28 16 5e bb 9f b0 b0 3e
       0.04511423 0.114815705 -0.0033887718 0.3450975
000120 f8 95 0c 3f b8 c8 d9 3c fa ee a7 be d5 fe c1 bd
       0.54916334 0.026584968 -0.32799512 -0.094724335
000130 d8 c1 68 be 5f e6 86 3d 4a 52 f8 b9 b2 1f b0 ba
       -0.22730196 0.065869085 -0.00047363556 -0.001343718
000140 36 e6 71 bb f3 97 3f bf b3 0d dd 3e 5e 5b 75 be
       -0.0036910898 -0.7484123 0.43174514 -0.23960635
000150 5a 7f cd bd c8 84 25 3d 23 f3 79 be 95 85 78 bd
       -0.10034056 0.040409833 -0.24409156 -0.06067427
000160 e5 c3 d6 bd f7 ce 9c be 72 9e e8 be e9 ca 9b 3b
       -0.10486583 -0.30626652 -0.45433384 0.0047544134
000170 a2 76 bb bc 32 37 cd bc ff 84 a3 bd fb 4e a7 bd
       -0.022883717 -0.025050733 -0.07984351 -0.08169361
000180 aa 18 1c 3d 37 31 e3 3c e6 0e fa be 3c 10 64 be
       0.03810946 0.027733428 -0.48839492 -0.22271818
000190 8e 2c d4 bc 87 35 85 3c 6c 7f ca be 41 08 ab 3e
       -0.025900152 0.016260875 -0.3955034 0.33404735
0001a0 7b 82 98 bb 04 0e c0 3d 91 19 83 3e 46 f5 10 3e
       -0.0046542264 0.09377673 0.25605443 0.14156064
0001b0 38 dc 88 bd 15 c1 6b be a2 c8 de be 28 f8 c9 bc
       -0.066826284 -0.23022874 -0.43512446 -0.024654463
0001c0 14 64 1b 3e 23 1f 98 be 93 9a 6d be a9 7c 14 be
       0.15174896 -0.29711255 -0.23203497 -0.14500679
0001d0 42 10 02 3e 49 ff 4d 3e 2b a7 9f 3c 6d 7b de bd
       0.12701514 0.20116915 0.019488892 -0.10863385
0001e0 36 12 dd be e4 a3 36 3e 3a 63 a7 3d 5d 15 fa 3e
       -0.43177956 0.17835957 0.08173223 0.48844424
0001f0 e3 af 10 3d 14 15 aa be c4 51 92 3e f9 e0 87 be
       0.03532399 -0.33219206 0.28578007 -0.26538828
000200 5b 5a a1 3d 2e da 4e 3b 70 7c 86 3d 02 22 18 3e
       0.07878562 0.003156315 0.06566703 0.14856723
000210 68 13 9b bd 0f c5 1f be d0 bd f3 be 22 59 4f be
       -0.07572061 -0.15602516 -0.47605753 -0.20248845
000220 6f 10 fe bb 7c 2e 24 3f 0e 55 98 3e 61 10 69 be
       -0.007753424 0.6413343 0.29752392 -0.22760154
000230 94 83 f9 3d ca 93 b3 3e 9b 83 99 3d b8 69 a1 bb
       0.121833 0.35073692 0.07495805 -0.0049259327
000240 24 c7 bc be 75 fd cf bd 41 be c1 3e f0 28 66 bd
       -0.36870682 -0.10155765 0.37840465 -0.056191385
000250 24 8d 49 3a 71 d9 b3 bd 04 cd 63 bc d7 14 dd 3d
       0.0007688573 -0.08781708 -0.01390386 0.107949905
000260 05 49 06 bf c5 7f 08 3d 5d 78 88 bc 2a e0 41 3e
       -0.5245517 0.033324976 -0.016658956 0.18933168
000270 f1 f4 0f 3d 7b c0 45 3a d8 64 08 bf 5b 47 bf be
       0.035145704 0.00075436354 -0.53278875 -0.37359127
000280 87 a2 95 3e f2 ff d5 3d 9d a0 37 3e cc 91 0a 3f
       0.2922556 0.10449208 0.17932363 0.5412872
000290 b0 eb be 3d 29 82 e0 3d c9 01 56 3d 2d ef ce bd
       0.093222976 0.10962326 0.052247796 -0.10104213
0002a0 95 10 3d bd 78 af 1a be d6 e6 7d 3c 75 3b 08 bc
       -0.046158392 -0.15105999 0.01549693 -0.008314957
0002b0 b1 50 9b bd bb af ac 3d 31 1d cc 3e 16 1c 56 bb
       -0.0758375 0.084319554 0.3986602 -0.003267055
0002c0 71 69 f2 3b 1a b5 dc bb d2 01 4d bb 6a 06 f7 3e
       0.0073978235 -0.006735456 -0.0031281603 0.4824708
0002d0 ca 1e a6 3e 1d d3 33 bf 6b 61 3c bd c3 04 02 be
       0.32445365 -0.7024401 -0.045991343 -0.12697129
0002e0 73 4a 0f be 89 bc d2 be 94 e6 b5 3e ed c6 b5 bd
       -0.13993244 -0.41159466 0.3552748 -0.08875833
0002f0 fd 03 17 3f 23 af 28 3d 58 20 42 bc 19 67 f3 b9
       0.5899046 0.04118265 -0.011848532 -0.00046425386
000300 67 e3 ac bb 55 9b 40 3e d4 31 1c 3f 27 ca c4 3e
       -0.005276132 0.18809254 0.6101353 0.3843548
000310 63 76 f0 bc 0a 4d 2d bc 20 13 19 3c 2c c9 ac b9
       -0.029353326 -0.01057745 0.009342939 -0.0003295628
000320 e0 ba d4 be 13 d3 19 bf 2d ba 32 be ec 9e 61 be
       -0.41548824 -0.600877 -0.17453833 -0.2203328
000330 2b 15 f5 bd 7b 05 2f 3d ed f6 73 bc b6 58 82 be
       -0.11966928 0.042729836 -0.014890415 -0.25458306
000340 30 fe bd bc bb 40 da bd d6 68 d8 3d fe 26 ce 3e
       -0.023192495 -0.106568776 0.10566871 0.40264124
000350 81 ca 03 bd 41 39 e1 3c 13 53 e1 3d a7 e1 b0 bd
       -0.032175545 0.027493121 0.11002173 -0.0863679
000360 0f 87 83 3e d3 42 ab 3d 06 29 87 3e 41 52 67 be
       0.2568898 0.08362355 0.26398486 -0.22589971
000370 f4 ee 62 bd 4e 72 c3 3e 22 d4 df bd b5 a7 0b 3e
       -0.055403665 0.38173145 -0.10929133 0.13638194
000380 51 3e 50 be 73 9a 92 be 09 9f 8b be 4c ae d2 bd
       -0.20336272 -0.2863346 -0.27269772 -0.10287151
000390 b4 13 df bd dd d0 a9 3e f0 3e e2 be 6c 24 f6 bb
       -0.1089243 0.33167163 -0.44188643 -0.007511666
0003a0 d0 78 3b 3e a8 0a ad 3d fa 26 53 3e 66 6a 9c be
       0.18307805 0.08449298 0.20620337 -0.30549926
0003b0 2d 83 82 3d 28 b2 cf 3e dd 65 9f 3e 08 44 c4 3e
       0.06372676 0.4056561 0.31132403 0.38333154
0003c0 b6 a9 d6 3d b1 b9 9e 3b d1 7b 96 3e 60 8a a9 3e
       0.104815885 0.0048439135 0.2939134 0.33113384
0003d0 87 13 f2 bd 0c 92 ba bd 76 f6 08 3e 86 f6 18 bd
       -0.11820131 -0.091098875 0.13375267 -0.037344478
0003e0 4b 7e e9 3c 04 d3 60 3e a6 fb 33 be 3b 4e 2d be
       0.028502604 0.21955496 -0.17576465 -0.16924374
0003f0 9a 68 b6 bd 51 96 64 3e b8 3d 2a be 52 5f ad 3c
       -0.0890667 0.22322966 -0.16625106 0.021163616

l1.bias f4 [250]
000000 47 44 71 3e 94 18 86 be 09 cf 8c 3d 59 37 92 3c
       0.23561202 -0.26190627 0.06875426 0.017848657
000010 4b 16 45 3e e7 d4 e3 bd 3f a2 d6 be 68 e6 9c 3e
       0.19246785 -0.11124592 -0.4192066 0.30644536
000020 59 12 1e 3e c5 ab 27 be f1 55 72 be c1 b0 82 be
       0.15436687 -0.16374119 -0.23665597 -0.25525478
000030 69 ff 08 be 91 a4 12 3e d8 b0 7a be 81 14 a1 3d
       -0.13378681 0.1432059 -0.24481523 0.07865239
000040 3c fb 12 bd 00 f6 b1 bd d5 30 12 3e a2 8c a2 bc
       -0.035884127 -0.08689499 0.1427644 -0.01984245
000050 6b 6f 50 3e d1 dc 4c 3e c4 62 1b 3e 0b d9 79 bc
       0.20355003 0.2000611 0.15174395 -0.015249501
000060 4b d2 91 3e f0 3e 62 3b 44 fb 58 be 4b 29 9c 3e
       0.28480753 0.0034522377 -0.211896 0.30500254
000070 59 1d 46 be e7 39 49 3e 2a 18 8b 3e c9 ea f6 bd
       -0.19347133 0.19650994 0.27166873 -0.120565005
000080 82 4d 8f 3e b9 ef 3f 3e b5 67 0e be 66 28 b1 3d
       0.2798882 0.1874379 -0.13906749 0.086502835
000090 45 54 6b 3e 37 1f ae be 66 33 1e be 4c e4 ed 3d
       0.22981365 -0.3400819 -0.15449294 0.1161581
0000a0 0a 76 de 3c ec 9a a4 3e 49 3b b4 be 9e 94 70 bc
       0.027155895 0.32149446 -0.3520148 -0.014683871
0000b0 79 76 97 3e 99 1d fa be e2 e0 39 3e a8 20 ef be
       0.29582575 -0.48850706 0.18152192 -0.46704602
0000c0 a6 2b cf be b8 aa d5 3d 59 20 7f 3e 95 85 bf be
       -0.4046299 0.10432953 0.24914683 -0.37406603
0000d0 b4 26 b0 be b1 3d 9b 3d 06 1d ac bc 6b f5 75 3e
       -0.34404528 0.07580126 -0.021009933 0.24019401
0000e0 59 3e 33 be 0c 1a d8 3c f7 67 01 3e 32 35 c0 be
       -0.17504252 0.026379608 0.12637316 -0.37540585
0000f0 42 0c 0a bf fb 3a 25 3e 2c f8 e7 be d3 3e c0 bc
       -0.53924954 0.1613578 -0.45306528 -0.023467457
000100 58 44 0d 3e 35 ea 1a be 5a 1e 67 3e 14 72 84 be
       0.13795602 -0.15128405 0.22570172 -0.25868285
000110 9b 22 5e 3e ac d9 58 3e cc d5 91 3e ae 50 f1 3d
       0.21692888 0.21176785 0.28483427 0.117829666
000120 dd ff 81 bc 55 dc 1b be 00 e2 2d 3d 2d 26 84 3e
       -0.015869075 -0.15220769 0.04245186 0.25810376
000130 58 e7 79 3e d1 0f 1a be e7 c1 f7 3c c1 d9 99 3e
       0.24404657 -0.15045096 0.030243827 0.30048946
000140 ea 6c 08 3e 09 34 fb 3d ed 51 9d bc 22 d3 30 be
       0.13322797 0.12265784 -0.019204104 -0.17268041
000150 55 b3 e3 be 4e 4f ff be 9e a4 7a bc ed e3 d9 3c
       -0.44472757 -0.49865192 -0.015298037 0.026597941
000160 19 12 51 3d 71 9c 5c bb a0 37 34 3e 62 53 8d 3b
       0.05104265 -0.0033662582 0.17599344 0.0043129185
000170 2e a5 83 3e 84 97 fe be aa 72 c8 bd 0d 10 01 3d
       0.2571196 -0.49724972 -0.097874954 0.031509448
000180 43 14 00 3e 6f fe b9 be d0 37 05 3e 4c 08 28 3e
       0.12507729 -0.3632693 0.13009572 0.16409415
000190 b3 af 46 be 30 fd 07 3e 88 7e 8b 3b 6d 4f 8c bd
       -0.19402961 0.13280177 0.004257027 -0.06851087
0001a0 77 2b b3 be 21 c5 09 3b 0c 43 a8 3d 8c 14 f2 be
       -0.349941 0.002102204 0.08215913 -0.472813
0001b0 82 f1 5d be ad e0 52 be ce 9c 06 3b 3e b2 16 3e
       -0.21674159 -0.2059352 0.002054024 0.14716431
0001c0 b4 cb 30 3d a5 a7 ce be 22 c0 6c be 4a 9e c2 be
       0.043163016 -0.40362278 -0.23120168 -0.3801139
0001d0 ee c3 8c 3e 21 7b 4f bd 59 88 3b 3e 3d a7 4b 3e
       0.27493232 -0.050654534 0.18313731 0.19888015
0001e0 6f f2 a3 be 7d eb 92 3e 07 ad af be a6 93 21 be
       -0.320209 0.28695288 -0.34311697 -0.1577898
0001f0 55 80 47 bf cd 03 e6 be 52 99 88 bd 36 ae a9 3c
       -0.77930194 -0.44924775 -0.066698685 0.020712953
000200 c5 60 ec 3d 70 ab 5d be 7e f7 93 bd 3f 25 bd bd
       0.11541895 -0.2164743 -0.0722494 -0.0923562
000210 87 34 0c 3d 21 cf 9d be 26 21 67 3e d0 fc 51 be
       0.03422978 -0.3082209 0.22571239 -0.20506597
000220 93 96 13 bf 77 66 c3 3e dd d6 40 3e 6f 4f 68 3e
       -0.57651633 0.38164112 0.18831964 0.22686552
000230 2a 3f 04 bf d3 d0 05 3e 69 76 10 bf ee 76 54 3e
       -0.5165888 0.13067941 -0.5643068 0.20748493
000240 74 ce f9 3d 2f 86 2d 3e 7c 71 09 3e 31 77 50 bd
       0.12197581 0.16945718 0.13422197 -0.05089492
000250 1a 7c 87 3e 0c 74 55 bd 96 96 47 be 8b 2a 0d 3e
       0.2646187 -0.052112624 -0.19491038 0.1378576
000260 74 de 65 3e 60 e2 43 3e 1c 8c 42 bb 8a 95 0d 3e
       0.2244814 0.19129324 -0.0029685562 0.13826576
000270 0f 3b e0 be e6 27 6f 3e 44 46 11 be 68 8c 06 3d
       -0.43795058 0.23355064 -0.1418696 0.032848746
000280 33 e5 7c 3e da cf 3a bd 75 ae 4c 3e 98 11 4f be
       0.24696808 -0.04560838 0.19988425 -0.20221555
000290 5d cd 36 3e 53 87 22 3e c9 c7 4f 3e 4a 7e 35 3e
       0.17851777 0.15871935 0.20291056 0.17723957
0002a0 17 12 02 3d 42 d9 13 3e f7 e6 c3 be 2c 95 cf bc
       0.031755533 0.14438346 -0.3826215 -0.025339685
0002b0 aa e9 a5 be 6a b9 8b 3e b1 ce 71 3e 1f b5 24 bf
       -0.32404834 0.27289897 0.23614003 -0.6433887
0002c0 41 19 f3 be c8 69 e2 3c e5 43 2f 3e 35 53 45 3d
       -0.47480205 0.027638331 0.17115743 0.048175056
0002d0 a0 77 7a be 0c 0e 9e b9 1f 19 98 3d ac 0d e8 3d
       -0.24459696 -0.00030146574 0.074266665 0.11330733
0002e0 57 96 8c 3d 0e 2c f7 be 83 74 3e 3e 4d ea ef be
       0.068646125 -0.482758 0.18599133 -0.46858445
0002f0 57 d1 d5 3d 65 e5 17 3e 89 ac 15 be c4 dc 16 3e
       0.10440319 0.14833601 -0.14616598 0.14732653
000300 09 8e be be c4 80 3a be e1 55 e3 bc 06 40 2c 3e
       -0.3721774 -0.18213183 -0.027750911 0.16821298
000310 41 d2 6a be 1b 6c 0b 3c 48 a5 2e bf c8 fd 19 3e
       -0.22931768 0.008509661 -0.6822095 0.15038216
000320 b9 4f 68 be 5e 57 8c bd 67 f5 b1 3c e4 4c af bd
       -0.22686662 -0.068526015 0.021723462 -0.085595876
000330 57 9b 58 be 61 94 19 be c3 2f 40 3e 1f 82 28 3e
       -0.21153007 -0.14998008 0.1876822 0.16455887
000340 f1 44 4e be 55 c7 be 3d 8c a1 1b be 73 35 d1 3b
       -0.20143487 0.09315363 -0.15198344 0.0063845455
000350 56 65 ee be 2f ba 36 3e fd 9a 9d 3d 77 79 f9 be
       -0.46561688 0.17844461 0.07695577 -0.48725483
000360 6a 53 01 be 02 b9 3e 3d 74 05 a2 bd 13 0c 6b bd
       -0.12629476 0.046563156 -0.07911196 -0.05738456
000370 98 70 b0 bd 0f 88 21 3e 53 4e 28 3e 5b f3 21 be
       -0.086152256 0.15774558 0.16436128 -0.15815489
000380 7d cb 19 3e 74 d7 c9 3b d6 e9 a1 3d 6a 0e 5f 3e
       0.15019031 0.006159717 0.07905929 0.21782842
000390 18 13 34 3e 09 e7 c0 be 3c a9 f1 bd 30 b4 9f 3e
       0.17585409 -0.37676266 -0.11799857 0.3119216
0003a0 d5 7a 46 3e 5a 46 5f be b8 de 72 be 94 01 2e be
       0.19382794 -0.2180418 -0.23717773 -0.1699279
0003b0 ba 16 ba 3d a7 ce 76 3e df 6a ab 3c b7 fd c7 3d
       0.09086366 0.24102269 0.020924984 0.09765189
0003c0 80 ce 9e 3e c2 29 2b 3e f7 22 77 3e 42 b7 84 be
       0.31016922 0.16715148 0.24134432 -0.25921065
0003d0 b4 28 5f 3d 67 99 17 3e a5 a1 54 3e db e6 21 3e
       0.054482177 0.14804612 0.20764787 0.1581072
0003e0 8c 59 bb 3b 9e 4b 4b 3e
       0.005717462 0.19853064

l2.weight f4 [130, 250]
000000 6b a4 8c 3c ce 97 4b 3c 15 87 2c bd da 6b 08 3d
       0.017168244 0.01242633 -0.04212101 0.03330598
000010 61 38 e4 3c ef 4e 24 3d 96 f5 98 bd 8e 6b 53 bc
       0.027858915 0.04011434 -0.07468717 -0.012904061
000020 02 56 b8 bc eb bd f0 bc 23 48 41 3d de ef 00 3d
       -0.02250195 -0.029387435 0.047187936 0.031478755
000030 78 d7 83 bd 80 18 f3 3c f9 f9 d6 bc 7d ef 1a bd
       -0.06437582 0.029674768 -0.026242243 -0.03782605
000040 15 bd 5d bd 8f 49 7c bd cb 28 25 bd 59 e9 71 bd
       -0.0541354 -0.06159359 -0.040322106 -0.05906043
000050 71 24 05 bc ba 36 83 ba 70 aa 01 ba 21 f0 51 3d
       -0.008126364 -0.0010010817 -0.00049463566 0.051254395
000060 db ae 83 bd 48 8b 58 3d 73 35 a4 3c 31 cb 01 3d
       -0.064298354 0.052867204 0.020045018 0.03168792
000070 68 a9 8b bd 0d 35 ae 39 80 eb 52 3c 9e 2a b2 3c
       -0.06819421 0.00033227392 0.01287353 0.021748837
000080 77 eb 4c bd 11 4e 46 bc b4 4a 32 3d 17 75 17 bd
       -0.050029244 -0.012103573 0.043528274 -0.0369769
000090 2b 7c 44 bd 85 61 e8 3c 30 db 26 3d 9a 35 84 bd
       -0.04796998 0.028366813 0.040736377 -0.06455536
0000a0 60 2d 2b 3d 84 b5 f2 3c 73 e0 00 3d f9 37 ca bc
       0.04179132 0.029627569 0.03146405 -0.024684893
0000b0 e1 85 ca bc 11 3a 76 bd f1 43 37 bd 28 8b 47 bb
       -0.024722042 -0.06011397 -0.04474253 -0.0030447934
0000c0 7a 01 50 bc d5 2e ff bc 95 43 37 bd 44 e4 45 bd
       -0.012695665 -0.031150261 -0.044742186 -0.048313394
0000d0 3d 90 eb bc 78 c6 23 3d 28 23 00 3c bb 64 2b 3d
       -0.028755302 0.039984196 0.007820882 0.04184411
0000e0 ca 05 9a bc 82 5b 31 bd eb 60 85 3c e2 c9 70 bc
       -0.018801589 -0.04330016 0.016281566 -0.01469657
0000f0 5a 66 29 bd d3 21 00 bd a7 6d 22 3d bb 6e 01 bd
       -0.041357376 -0.031282257 0.039655354 -0.03159974
000100 2c dd 0e bd 35 c1 cf 3c 39 f7 2d 3b 09 cd 24 3c
       -0.034878895 0.025360683 0.0026545061 0.01005865
000110 ca 9a ae bc d3 1f 5c bd c0 36 85 bd 5f ae 6c bc
       -0.021314044 -0.053741287 -0.06504583 -0.01444587
000120 66 e5 1e 3d 69 61 86 bd 9e 9f ec 3b a4 0e 93 bd
       0.03879299 -0.06561548 0.0072211763 -0.07180527
000130 97 83 38 bd 97 d5 b2 3c 5c bd f3 3c 26 66 64 bc
       -0.04504737 0.021830363 0.02975338 -0.01394037
000140 75 6e cc 3c d1 b1 5a bd 2a 4c 3a bd 79 20 8a 3c
       0.024955014 -0.053392235 -0.045482792 0.016861187
000150 0f 22 04 3d 50 a8 8d bd 08 79 da 3b 0c b2 68 39
       0.032259043 -0.06916869 0.00666726 0.00022191572
000160 59 7d af 3c 7c c3 0e 3d c1 4f 65 bd 45 64 ae bc
       0.021422075 0.034854397 -0.055984262 -0.021288047
000170 f3 e5 82 bd 0d 6f 11 3c 77 85 81 bd 3e c2 43 3d
       -0.063915156 0.008876574 -0.063242845 0.047792666
000180 5c b5 9f bc 8d c0 86 3d 2e 37 b7 b9 3f 2e 80 bd
       -0.019495659 0.06579695 -0.00034945592 -0.06258821
000190 d8 d3 86 3c dd f4 12 3c 12 33 53 3d ea 73 89 bd
       0.016458437 0.008969513 0.051562376 -0.06711562
0001a0 a9 1a 4e bd 4b b0 99 bd e6 80 3c bd 1a b4 5c 3c
       -0.050318394 -0.07504328 -0.046021365 0.013470674
0001b0 08 7c 67 3d c7 8b 96 bc dd e9 d1 3c 75 4f 79 3c
       0.05651477 -0.018377198 0.02562421 0.015216698
0001c0 e4 2e 96 bd 8b 39 25 3d 18 c1 66 bc ba e3 98 bd
       -0.073331624 0.04033808 -0.014084123 -0.074653104
0001d0 3b 0a a3 bc a0 17 8d 3c 18 69 67 bd 04 53 60 bd
       -0.01990234 0.01722318 -0.05649671 -0.05476667
0001e0 be 67 11 bd 34 c4 e7 3a ef 11 26 bd 3d e5 b3 3c
       -0.035499327 0.0017682374 -0.040544447 0.021959895
0001f0 1d ac a4 3c b9 c6 7c bb 18 6c 3a 3c 6e da 03 bd
       0.020101601 -0.0038570596 0.011378311 -0.032190733
000200 a1 ce de bc 54 4b 8d bc b0 38 8e bd 8d 35 7f bd
       -0.027198138 -0.017247833 -0.06944406 -0.06230693
000210 fc 25 29 3b f0 92 7d 3c 40 4c 7c bd 0d 8a d6 3c
       0.0025809994 0.015476927 -0.061596155 0.026188875
000220 f6 ac 82 3d e6 a7 54 bc a9 31 f5 bc 44 01 30 3b
       0.06380646 -0.012979483 -0.029930906 0.0026856223
000230 4f 63 27 3c 47 f2 35 3d f3 a4 42 bd 43 46 8e bd
       0.010216548 0.044420507 -0.04752059 -0.06946995
000240 32 fd 10 3c 36 bc d2 3b 80 05 13 3d e0 8a da bc
       0.008849429 0.006431128 0.035893917 -0.026677549
000250 08 02 8a bd cc 42 04 bc cb 21 21 3c 3a e1 11 bc
       -0.06738669 -0.008072566 0.009834717 -0.008903796
000260 24 90 03 3d f1 a4 c5 3c 64 1a 06 3d bb 37 4c bd
       0.032119885 0.024126502 0.03274001 -0.049857836
000270 c2 70 64 3d cd fb 15 bd e9 32 58 bd 94 dc d3 bc
       0.055771597 -0.03661709 -0.052782927 -0.025862016
000280 00 12 19 3c d4 ea 0c bd 99 69 6b ba 35 00 23 3d
       0.00934267 -0.034403637 -0.0008980274 0.03979512
000290 0b 47 1b bc e2 35 2e 3d 60 d1 c7 bc 62 e7 1a bd
       -0.009477387 0.042531855 -0.02439183 -0.03781832
0002a0 cf 40 ba 3c ed 7b 3c bb 86 33 b0 bb 72 e7 2d 3d
       0.022735981 -0.002876039 -0.005377236 0.04245705
0002b0 e0 b5 f2 bc 8e b5 4d bc 97 9e 84 bd 01 86 b3 bc
       -0.02962774 -0.012555493 -0.06475561 -0.021914484
0002c0 15 18 e2 3b d8 f5 cc bc b8 e5 8b 3c 08 9b 2c 3d
       0.0068998435 -0.025019571 0.017077312 0.042140037
0002d0 c5 30 78 bc 1f b8 82 bd af 00 71 3c 56 21 89 bc
       -0.015148346 -0.063827746 0.014709636 -0.016739529
0002e0 53 70 2f bc 9f 86 18 bd 04 2e e3 bc e7 81 15 3d
       -0.0107079325 -0.03723776 -0.027731903 0.036500838
0002f0 8f 11 42 3d 84 a0 84 bd 43 43 1a bd c4 65 14 bd
       0.047380026 -0.064759284 -0.037661802 -0.036229864
000300 05 ec 0f bd 66 55 71 3d 77 5f a3 3c b9 75 80 bd
       -0.035137195 0.058919333 0.019942982 -0.06272454
000310 05 a7 36 bc 0d 28 59 3b 7c e0 37 bd 1f 59 e6 bc
       -0.011148219 0.0033135444 -0.04489182 -0.028118668
000320 74 83 a6 3c ca b2 93 3c fc a1 a4 bc 68 1e 00 bc
       0.020326354 0.01802959 -0.020096771 -0.007819749
000330 1c 38 43 3d 5a 5f 50 bd 7d 16 58 bd f6 33 71 bc
       0.047660932 -0.050872184 -0.05275582 -0.014721861
000340 d8 a7 51 bd 17 84 44 bd 02 8a 79 3d 59 8c 24 bc
       -0.05118546 -0.047977533 0.06092263 -0.010043227
000350 29 13 96 bd 2d 0e 26 3d ed 1b aa bc c4 d8 40 bd
       -0.07327873 0.040540863 -0.02076527 -0.047081724
000360 95 28 97 3c 37 0a 6f 3b 4d a0 a7 ba cc d5 2f bd
       0.018451968 0.0036474594 -0.0012788862 -0.042928502
000370 db f3 04 bd 8e cf 83 3c 77 b6 55 3d 62 fc d7 bc
       -0.03245912 0.01609018 0.052175965 -0.026365463
000380 2c ea 87 3c c3 b3 44 3d f0 da 2b 3c a4 4c 80 3b
       0.016591154 0.048022997 0.0104892105 0.0039153863
000390 5f b0 23 3b c6 a2 bc 3c 4a 68 0a bc 60 0b 4d bd
       0.0024976952 0.023026835 -0.008447716 -0.050059676
0003a0 e4 70 83 bd df cc 5f bc 8a 41 0a bc 4a ad ca bb
       -0.064180166 -0.013659685 -0.008438477 -0.0061852084
0003b0 4b 25 6f 3b 26 7c 35 3d 64 a7 1c 3d f6 e5 b1 3c
       0.0036490734 0.04430785 0.038245574 0.0217161
0003c0 5f d5 a3 bb dc 50 94 bd cd e3 56 bc 26 d6 c4 3c
       -0.004999801 -0.07241985 -0.013115835 0.024027895
0003d0 05 90 19 bd 39 dd bb 3c 38 a0 da 3c 50 7f de 3c
       -0.037490863 0.022932636 0.026687726 0.027160317
0003e0 7d e3 21 bd f8 ca 89 bd 9d 95 2b bd 47 ec 06 be
       -0.03952359 -0.06728166 -0.04189073 -0.1317607
0003f0 7b b3 64 bd c8 f5 2e 3d 62 aa 8e bd ac da d1 bc
       -0.05583523 0.042714864 -0.06966092 -0.025616966

l2.bias f4 [130]
000000 92 4f 30 3d 00 36 b5 3d 3b 46 82 bd 73 2a 56 3d
       0.043044634 0.0884819 -0.06361052 0.052286576
000010 9b 3e 86 bd 51 9f b5 3d 4e 86 07 be eb c4 b9 3d
       -0.0655491 0.08868278 -0.13234827 0.09070762
000020 d6 e7 36 3d 87 ce 80 bd 70 e9 6c bc 9f a7 c3 3c
       0.04465469 -0.06289392 -0.014459953 0.023883639
000030 61 eb 72 bc 95 89 3f 3e dc 3a c5 bd 5e 02 8f bd
       -0.0148266265 0.18704827 -0.09630367 -0.069828734
000040 bb e9 82 3d 36 27 b3 bd 4a f2 8d 3b 0a b9 fa bc
       0.06392237 -0.08747713 0.0043318616 -0.030605812
000050 98 7a bc 3d b0 96 96 3c e4 a6 55 3c 19 2e 00 3c
       0.092030704 0.0183824 0.013040278 0.007823491
000060 fa e4 b6 bd d4 b4 8b bd be 76 d3 ba 4b e5 c6 3d
       -0.089303926 -0.068215996 -0.001613341 0.09711703
000070 2c 67 ea 3d eb 6a cb bd fd f9 81 bd f3 6d 34 3d
       0.1144546 -0.09932502 -0.063465096 0.04405017
000080 92 64 a6 3d d4 3a 1d be 80 82 cc bc 43 68 87 bd
       0.08124651 -0.15354472 -0.024964571 -0.06611683
000090 17 db 8f bd cd d5 82 be f6 d5 98 bd e3 c2 81 bb
       -0.0702421 -0.25553742 -0.07462685 -0.00396
0000a0 2f 85 50 bc d9 50 63 be 85 2f e6 3c a6 0c f7 bc
       -0.012727066 -0.2219881 0.028098831 -0.030157398
0000b0 f4 9c 30 3e 98 0f e2 bd c6 6a fc bc 7f 43 85 3d
       0.17247373 -0.110381305 -0.030812632 0.065070145
0000c0 e7 45 20 be 0f 87 b2 3c b8 c1 2d bc 2a e6 02 bd
       -0.15651666 0.021792917 -0.010605268 -0.031957783
0000d0 a1 8c c5 3d 3c bb e7 3d 45 1e 92 bc 47 ef 33 bd
       0.096459635 0.11315009 -0.0178367 -0.043929365
0000e0 66 70 79 3d 36 7f 1d be 31 f0 21 3e 95 bd e3 3b
       0.060898207 -0.15380558 0.15814282 0.00695009
0000f0 d1 b4 88 3d 05 3c 64 bb 0a 8d af 3c 2e a3 75 bc
       0.06675113 -0.0034825813 0.021429557 -0.014992518
000100 4b 03 5c bd a0 5e 08 3e a8 ac b8 3c 24 6c e7 3d
       -0.053714078 0.13317347 0.022543266 0.11299923
000110 3b af f3 3d 68 d3 5d bd b9 6d ba 3c cb 5b 71 bd
       0.11898657 -0.05415669 0.022757398 -0.05892543
000120 c1 4d 2c bd 7d e0 0d be b9 f2 67 bd 4e 91 08 3c
       -0.04206634 -0.13855167 -0.056627963 0.008335425
000130 45 3a 53 bb af e2 36 3e ec 06 1c bd 54 53 d2 3d
       -0.0032230776 0.1785991 -0.03809254 0.102698
000140 ce c2 08 be 1c 7b d0 3c a0 98 a3 3c cf 7e d6 3d
       -0.13355562 0.025449328 0.019970238 0.104734056
000150 75 64 da bd 70 fe 44 bd bf e9 96 3d 7c 1c 01 bd
       -0.10663692 -0.048094213 0.07368802 -0.031521305
000160 08 20 55 3b 53 a0 29 3d c3 67 3d bd d5 47 8f 3d
       0.0032520313 0.041412663 -0.046241533 0.06996123
000170 74 54 29 bd 26 62 da 3d 18 3a 45 bd b7 cb 86 bd
       -0.041340306 0.106632516 -0.048151106 -0.06581824
000180 d0 c7 4e bd 05 b2 fd 3b 36 8b be 3c b3 7f 75 bd
       -0.050483525 0.007742169 0.02325974 -0.059936237
000190 ec 9c 42 be de 69 2e 3d d4 18 29 be dc 0d b7 bc
       -0.19005173 0.04258143 -0.16513377 -0.022345476
0001a0 d1 95 75 bc 90 00 38 bc 29 71 e3 3c b6 3b 76 3d
       -0.014989332 -0.011230603 0.02776392 0.06011554
0001b0 10 8c 71 bc ac 1c 80 bc 86 db 03 bd f2 48 98 bd
       -0.014742866 -0.015638672 -0.032191776 -0.07435788
0001c0 1c c2 95 bc d5 5b de 3d 6e 08 24 3d e8 bd 60 3d
       -0.018281035 0.10857359 0.0400471 0.05486861
0001d0 0c e2 26 3c 07 93 d1 3b e6 0f a0 bd f3 aa 6f 3c
       0.01018573 0.006395701 -0.078155324 0.01462816
0001e0 a5 9d c7 bc e6 c7 d0 bd 61 77 ca 3c 1b c9 80 3d
       -0.024367163 -0.101943776 0.024715127 0.06288358
0001f0 62 ed d1 bd 97 e5 99 3d 3a 70 cd bc 18 66 7f 3c
       -0.10250355 0.07514494 -0.025077928 0.015588306
000200 cf 99 cb 3d cb 32 77 3c
       0.09941446 0.015087794

l3.weight f4 [50, 130]
000000 0f 1d b2 3d 3e c3 e1 3c a8 4a c5 3d f3 7d 76 bd
       0.08696949 0.027558919 0.0963338 -0.06017871
000010 77 c8 fc 3d 58 1e 6b bd 1b f0 e9 bc 77 46 18 3d
       0.12342923 -0.057401985 -0.028556874 0.037176576
000020 1e 7b 69 bd 17 d2 fb 3e a9 90 45 bd b5 9f b6 3d
       -0.05700218 0.49183723 -0.04823366 0.089171804
000030 ee a7 17 ba 7e 91 3a bd 52 fe f3 3d 13 40 47 bd
       -0.00057852163 -0.04554891 0.11913742 -0.04864509
000040 e9 6a b8 bc 4b cb 2e 3d 73 04 92 bd 22 c8 93 3d
       -0.022511916 0.042674344 -0.07129755 0.07215907
000050 1f e2 a2 3d 1c 85 ab bc 59 bd d1 3d c0 c0 a6 3d
       0.079532854 -0.020937495 0.10241193 0.08142233
000060 92 e2 4e 3d b7 e7 1e 3d 8a 7c 67 bd a7 b3 2b 3d
       0.050509043 0.0387952 -0.056515254 0.041919377
000070 27 26 ee bc c1 69 b7 bc 1a 0b f7 bd 25 c4 59 3d
       -0.029070927 -0.022389295 -0.12062664 0.053165574
000080 6b 9b 5c bd eb 40 b5 3d 91 18 bb 3d 03 06 64 3d
       -0.053859156 0.08850273 0.09135545 0.055669796
000090 61 5b 1a 3d e4 d5 c6 bc fc 73 1a 3e 1e f2 9b bd
       0.037684802 -0.024271913 0.15083307 -0.076145396
0000a0 27 8b 73 be 99 e9 73 3d 43 ca da 3c 2a 7a 7b bd
       -0.23783551 0.059548948 0.026707774 -0.0613958
0000b0 e3 d9 14 be b5 7d 2b bd f8 56 22 be 36 95 a3 3d
       -0.14536242 -0.04186793 -0.15853488 0.07987444
0000c0 66 53 f3 bc 3d 4a 10 3c 18 6d f4 bd 04 0d 38 bd
       -0.029702853 0.008806762 -0.119348705 -0.044934288
0000d0 15 4b 0c be a5 ad 09 3d ac 1a 84 bd 7f 3d cb bc
       -0.13700517 0.033612866 -0.064504 -0.024809597
0000e0 cf 4d cd bd 7e 6b c4 3e f3 89 1a 3d ee 67 83 3c
       -0.100246064 0.3836326 0.037729215 0.016040768
0000f0 48 e7 34 3e 7f bc 2f 3d 54 c6 55 3d 8d fc ed bc
       0.17666352 0.042904373 0.052191094 -0.02905109
000100 1e 23 1b 3d 2c 6e 8b bd af 63 99 bd c9 fc 85 3d
       0.037875287 -0.06808123 -0.07489716 0.065423556
000110 43 d8 04 3d 6d 61 be bc bd d8 4a bc b0 38 e9 bc
       0.032432806 -0.023239816 -0.012380776 -0.028469414
000120 63 b8 56 bd 03 eb 9a bc 3d f3 11 3e 26 18 01 bd
       -0.05242194 -0.01891089 0.14252944 -0.03151717
000130 9f ff 1e 3c 7b ae 10 bd 94 00 b2 3d 1b 38 11 bd
       0.0097044995 -0.035322648 0.086915165 -0.035453897
000140 c3 91 1f 3e 4f 3f 8c 3d 2b 56 52 3d d1 bc 85 3d
       0.15582947 0.06848013 0.051351707 0.065301545
000150 e0 74 22 3d 7b 98 1e bf 81 41 74 bd 87 f0 97 bd
       0.039662242 -0.61951417 -0.059632782 -0.07418924
000160 12 1d 08 bd ca 69 38 3d 84 7a 99 3d 3a 55 02 bd
       -0.03323085 0.045022763 0.07494071 -0.03181956
000170 b5 80 a2 3d 3f 49 ea bc 00 13 d1 3d ef 33 5c be
       0.07934705 -0.02859938 0.10208702 -0.21504186
000180 98 67 b4 bc 54 e4 8e bd 4c dd 18 3e 86 a8 da bc
       -0.022022054 -0.06977144 0.14928168 -0.026691686
000190 3b 6a a6 bd 6c 46 fb 3c bb 95 62 bc f1 c8 84 bd
       -0.081257306 0.030673228 -0.013829644 -0.06483639
0001a0 d3 c0 8b 3c 72 01 93 3d 64 43 d9 bc 13 67 f6 3c
       0.01705972 0.0717801 -0.026521392 0.030078446
0001b0 90 98 8b 3d 62 1e 0c 3e 37 f4 60 bd 81 0a 1d 3b
       0.06816208 0.13683465 -0.0549204 0.002396256
0001c0 61 6f 02 3e b9 42 81 3d 8b 6a 5b 3d 2a 89 14 bc
       0.127378 0.063115545 0.053568404 -0.009065906
0001d0 af 0a 2d 3d ad 88 2a 3e 33 46 2c 3d 6e 0b bc 3d
       0.042246517 0.166537 0.042059135 0.091818675
0001e0 57 c5 2e 3e 8c 41 10 be 54 01 93 bd e8 5e a4 3d
       0.17067467 -0.14087504 -0.07177988 0.080259144
0001f0 d5 4d de 3d 24 33 d0 3d a6 f0 7f 3e 08 aa a6 bb
       0.10854689 0.10166004 0.24994144 -0.0050861873
000200 e8 95 1c 3c c8 60 0d 3e f5 0c 27 bc ea 34 30 bd
       0.009557225 0.1380645 -0.01019596 -0.043019213
000210 0b 23 65 bb 99 d4 93 bd c1 ca 12 bd 5f a2 e8 3c
       -0.0034963514 -0.07218284 -0.035837892 0.028397737
000220 4e 1e 46 3d 78 bc 9a bd aa 43 84 3d 2b 3d 8d bd
       0.048368745 -0.07555479 0.064582184 -0.068964325
000230 17 28 6a bd 6e 6b 96 3d 2b 05 9a bb f0 8b 41 bd
       -0.05716714 0.07344709 -0.004700323 -0.047252595
000240 26 41 55 3d 73 f3 af bd 5f 00 5e 3d e5 ba 73 bc
       0.052064084 -0.08591356 0.054199573 -0.014876102
000250 36 79 6e 3d 93 6a 3f 3d 85 5d 83 bb 63 09 2c bd
       0.058221065 0.046732496 -0.004008951 -0.04200114
000260 77 04 8d 3d 26 c1 0c ba 9f 4c 35 3d a4 4c a2 3d
       0.06885617 -0.00053693575 0.044262525 0.07924774
000270 36 dd a4 3c 8d 4e 05 bd bd 44 b0 bd e3 e5 da 3c
       0.020125013 -0.032545615 -0.08606861 0.026720947
000280 1c f3 19 bd 7d 09 40 bd 9b 76 ac 3b 00 cf 48 bd
       -0.037585363 -0.04688405 0.0052631623 -0.049025536
000290 32 97 79 bd aa 85 91 3d 1c 4e 95 bd 17 2a 65 3d
       -0.060935207 0.071055725 -0.07290289 0.055948343
0002a0 c9 47 b4 3c 00 fc 40 3c 74 ec 94 3d 4c 30 9c bd
       0.022006886 0.0117788315 0.07271662 -0.076263994
0002b0 5a 05 cc 3c 49 6d af bd fb f5 e0 bb ac 25 ba 3c
       0.024904896 -0.08565766 -0.0068652607 0.022723041
0002c0 0c 8d f5 bc ab 0c f7 3c 95 b6 10 bd cf 98 56 3d
       -0.029974483 0.030157408 -0.035330374 0.052391823
0002d0 50 6d 97 bd e2 c1 03 3d 44 3c 39 bd 82 78 e5 bc
       -0.073938966 0.032167323 -0.04522349 -0.028011564
0002e0 f4 45 20 bd 23 5b b0 bd c3 1f 9e bd 38 60 9f 3d
       -0.039129212 -0.08611133 -0.07720902 0.07782024
0002f0 d4 56 42 3d 7b e8 2c bd 8a e8 05 bd 39 7d 23 3d
       0.047446087 -0.0422139 -0.03269247 0.039914344
000300 5c ab 49 3d 16 f1 67 bc b7 f9 ac 3c 62 42 bb ba
       0.049235687 -0.0141566 0.021115167 -0.0014286751
000310 2e 73 7f 3c 95 65 ae bd 6f d2 9a bd 88 19 5a bd
       0.015591426 -0.08515469 -0.07559668 -0.053247005
000320 37 40 9a bd 07 33 63 3d 04 ab 91 3b 4b 5f af bc
       -0.07531779 0.055468585 0.0044454355 -0.021407744
000330 9f 6f 18 3d a0 08 72 bd 29 4f 55 bd 16 aa 3b bd
       0.037215825 -0.059090257 -0.052077446 -0.045816503
000340 66 e2 c0 bd 4f 4f 44 bc 57 68 8f bd ca d9 33 bd
       -0.09418182 -0.011981799 -0.07002323 -0.04390887
000350 de 89 77 bd 58 77 55 bd 20 9b 33 3d 97 39 42 3d
       -0.060434215 -0.05211577 0.04384911 0.047418203
000360 e5 22 5a 3c 56 72 0c 3d 41 b3 af bd 4e 8a 3f bc
       0.013313984 0.034288727 -0.08579112 -0.011690689
000370 72 98 a4 bd 95 2e 38 bd 26 a5 8f 3d 7f ea af bd
       -0.08036889 -0.0449663 0.070139214 -0.085896485
000380 d7 d4 0f 3d 4f ef 1e 3c 1c a6 68 3c b2 94 a9 bd
       0.03511509 0.00970061 0.01419976 -0.082803145
000390 87 70 ad bc a0 a5 87 3d 5a 37 9f bd a7 26 5d bd
       -0.021171821 0.06623387 -0.07774229 -0.05399194
0003a0 ba c1 cd bc dc 70 af bc 4d cf 75 bc 10 de 6d bd
       -0.02511679 -0.02141612 -0.015003038 -0.058073103
0003b0 2d 4c f2 bb e6 9a 88 3d af 79 a0 bd be 7e 77 bc
       -0.0073943348 0.066701695 -0.07835709 -0.015105901
0003c0 53 ea 72 3d e7 c0 e0 ba 4b 99 3c bd 12 61 4b bd
       0.0593055 -0.0017147333 -0.04604463 -0.04965312
0003d0 0d e8 1e 3d 79 47 ba 3c ad b9 c6 bc 9c 05 55 bd
       0.03879552 0.022739159 -0.024258459 -0.052007303
0003e0 12 09 3f bd 31 fa 96 3d 8a fe 8f bc f4 8b 4c 3d
       -0.04663951 0.07371939 -0.017577428 0.049938157
0003f0 5e 36 5a bd 1c c9 a7 bd 16 25 bb bd 18 a2 4c 3d
       -0.053274505 -0.081926554 -0.09137933 0.049959272

l3.bias f4 [50]
000000 f4 75 87 bc 30 04 58 bc 82 84 88 be 1e 4e 18 3e
       -0.016535737 -0.013184592 -0.26663595 0.1487355
000010 65 0b a7 bd 21 05 a9 3d 2d 58 8b bd 0d 77 19 3d
       -0.0815647 0.082529314 -0.068039276 0.03746705
000020 a7 34 8b bd ae 9c 54 bd a7 cd cc 3c 35 f8 63 bd
       -0.06797152 -0.051907234 0.025000406 -0.05565663
000030 53 07 46 3d 9f 80 c2 bd f7 61 db 3c 1d 26 e3 3c
       0.04834683 -0.09497189 0.026780112 0.027728135
000040 df a0 2b 3c a7 48 86 3d d6 2d c0 bd ab 4b 28 bd
       0.010475366 0.06556826 -0.093837425 -0.041087788
000050 cf 2b 2b 3e b8 e7 92 bd b1 93 3c be 23 40 31 3e
       0.1671593 -0.07173103 -0.18415715 0.17309622
000060 1e 47 59 3d 84 43 82 be 8b c3 3a be 1c d4 21 be
       0.05304634 -0.25442135 -0.18238656 -0.1580357
000070 ed 05 94 3c c2 0e be 3d 65 6f 10 3d bb 1b c3 bd
       0.018069232 0.092801586 0.035262484 -0.095267735
000080 d0 41 09 bd 29 19 74 3d 5d 30 8e 3c 7c 6a 36 be
       -0.03351003 0.059594307 0.017357046 -0.17814058
000090 cd a5 1c 3e 2d 4f 83 3d ee 90 05 3e e0 03 e9 3d
       0.15297623 0.06411586 0.13043568 0.11377692
0000a0 24 81 3b 3d 1e bb 56 3e 11 16 67 3d 80 99 16 bd
       0.045777455 0.20969817 0.05641753 -0.036767483
0000b0 de 91 84 bd 52 e5 53 be c8 cd 42 3d fa 5b 0a 3e
       -0.064731345 -0.20692948 0.04755953 0.13511649
0000c0 a3 60 5d be 37 44 46 3e
       -0.21618895 0.1936196

l4.weight f4 [5, 50]
000000 82 4c e7 3d 66 69 be 3c 59 31 ac 3b d6 c7 ef 3b
       0.112938896 0.023243617 0.005254906 0.0073175235
000010 17 a1 5e 3e 0c b3 a4 ba 15 d6 0b 3e 55 6b 8e 3e
       0.21741138 -0.0012565567 0.13655885 0.27816263
000020 d4 02 86 3d e6 b9 e8 3d 0c 7f e0 3b 5d f5 a9 bf
       0.06543508 0.11363582 0.0068510827 -1.3278004
000030 c9 5d b4 bc 8d 86 ce bd e6 cd 14 bd c4 ef ea bd
       -0.022017376 -0.10084257 -0.036329173 -0.11471513
000040 55 e1 6c bc af cf b5 3d 4a f7 3c 3c 00 8c 03 3e
       -0.01445802 0.08877503 0.011533568 0.12846375
000050 cb 7e 37 bd 4c 78 78 bd bf 04 c1 3c 72 45 fe bb
       -0.044798654 -0.0606616 0.023561833 -0.0077597434
000060 f6 13 3e bd 0e d7 43 3c 11 3f 18 3d b5 08 e6 3c
       -0.046405755 0.0119531285 0.03716952 0.028080324
000070 4f 6d c5 3c c2 1d 87 bb 77 b9 f5 3a e7 40 26 39
       0.024099974 -0.0041234205 0.001874729 0.00015855172
000080 03 ed e7 3b 1a f0 9e 3c 7b f6 d6 ba 36 3a 9b 3d
       0.0070778145 0.019401599 -0.0016400361 0.07579462
000090 17 83 0a be 70 00 9e bc 4d 61 51 bb 09 7f 9b 3b
       -0.1352657 -0.019287318 -0.0031948865 0.0047453684
0000a0 1e f1 95 3a ed c1 41 3d 13 99 80 ba 85 42 2b 3c
       0.0011439656 0.047304083 -0.0009811245 0.010452871
0000b0 86 51 d5 3c 00 a5 77 3d 0e 30 36 bc 12 0d 3f 38
       0.02603985 0.06046009 -0.011119856 4.555012e-05
0000c0 5c 7a 90 3b 3b 51 2f bd c9 c0 bb 3d 52 cb 00 be
       0.0044091176 -0.042802077 0.0916763 -0.1257756
0000d0 0d b6 29 3e 7b c7 81 bf 57 b8 d5 bd 36 c2 5b b9
       0.16573353 -1.0139002 -0.10435551 -0.00020957817
0000e0 3c 06 06 3b 7b 9d 09 3c f3 7a 03 be 10 d1 a7 bd
       0.0020450493 0.008399363 -0.1283987 -0.081941724
0000f0 65 36 c4 bb dd 63 65 bc 05 86 d4 3d c3 2f 9f 3d
       -0.0059879296 -0.01400086 0.10377125 0.07772782
000100 eb ba 8a bd 95 ed 29 3e 71 06 a3 bc c5 40 ab bd
       -0.06773933 0.16594537 -0.019900532 -0.08361963
000110 24 6e a8 bd 47 31 b7 3d 2e 6c 3b be 32 40 96 bd
       -0.08224133 0.08944946 -0.18302986 -0.07336463
000120 9f a7 f1 bc b3 76 6e 3a c7 2a bc 3d de 18 eb bc
       -0.029498873 0.0009096667 0.09187847 -0.028698381
000130 92 81 6d be fa 63 28 3e 78 59 d4 3d cd a7 91 bc
       -0.23193958 0.16444388 0.10368627 -0.017780209
000140 73 5b d1 3c 61 10 00 be 31 b7 88 3b 36 93 74 3e
       0.025556302 -0.12506248 0.0041722287 0.23884282
000150 c1 f5 6d bc 44 b1 80 bd 75 6e 84 bd 8a 04 85 bd
       -0.014523924 -0.06283811 -0.064663805 -0.064950064
000160 cc 4a 3b 3c e9 19 3a bd 6b ea e5 bc d3 36 6d 3e
       0.011431407 -0.045434866 -0.02806588 0.23165445
000170 cf 04 00 3c 3f fb ee bb da a6 a7 bc 59 68 b2 3b
       0.007813646 -0.0072931345 -0.020465303 0.005444568
000180 31 33 34 bd 9e 09 24 bb e5 b9 a1 bc 54 60 e2 bb
       -0.043994132 -0.0025030146 -0.019741962 -0.006908456
000190 03 a9 20 bb f9 f6 dd 3d ca de 78 bd 03 d5 29 3b
       -0.0024514801 0.10838122 -0.060759343 0.0025914318
0001a0 c7 62 89 3d d3 0e 1f bc 05 56 ef bc 5c 27 b7 3c
       0.067082934 -0.009708124 -0.029215822 0.022357635
0001b0 51 c7 9a bd 6a d3 45 bd 41 ea c6 ba 5e ca 55 3b
       -0.07557548 -0.048297323 -0.0015176014 0.003262184
0001c0 55 0a 9c bd 96 24 e0 bd 99 dc 1e 3e c8 49 2c 3e
       -0.07619158 -0.10944478 0.15513839 0.1682502
0001d0 8e 38 8e be f5 3a eb bd 12 4e e9 3d 07 91 ba 3d
       -0.27777523 -0.114858545 0.11391844 0.09109693
0001e0 42 01 29 3e ec 74 78 3d f6 8d de bb 3f 18 d1 3c
       0.16504386 0.06065838 -0.0067918254 0.025524257
0001f0 a7 56 4d 3d 9e b3 9f 3d bc 95 33 bd d6 e2 59 3d
       0.050131466 0.07797931 -0.04384397 0.053194843
000200 06 1d 09 3e b7 4a 83 3e e0 48 87 bf 73 b8 af bd
       0.13389978 0.2564294 -1.0569115 -0.08580103
000210 6d 3a ad 3d 8d c2 5c 3c a3 b1 d4 3c 6a 6f fd 3c
       0.084584095 0.013474119 0.02596361 0.030936915
000220 45 82 6e 3d 8d d9 e2 3d e8 ef 6d bd 11 d5 b2 bf
       0.058229703 0.11076651 -0.05809012 -1.3971273
000230 61 ad 80 bf cb 52 61 bd 4a d2 85 3c ae 5e 25 bd
       -1.0052911 -0.0550106 0.016335625 -0.040373497
000240 8b 74 09 3e f2 cd 09 3e 30 f3 82 bd b4 bd 22 be
       0.13423364 0.13457468 -0.063940406 -0.15892678
000250 8a 89 1e bd e2 4c 3e bd 88 94 d6 bd 5e f2 ca bd
       -0.038705386 -0.04646004 -0.10477549 -0.09909509
000260 ad d8 78 3e 77 2a 9b 3a a5 d8 c4 bc da 31 36 3c
       0.24301405 0.0011838217 -0.024029085 0.011120284
000270 5d 2f 36 3d f7 6c da bc e0 e8 fa 3d e4 d5 69 3d
       0.044478763 -0.026663287 0.12251449 0.057088748
000280 49 0f d7 bc 32 ec 82 b8 58 d6 d9 bc 33 c4 00 3e
       -0.026252406 -6.242878e-05 -0.026591465 0.12574844
000290 77 9a d3 3e 17 ad fc b9 ac 5f b1 bc c9 0f cc bd
       0.41328785 -0.00048194148 -0.021652065 -0.09963948
0002a0 5e e0 d4 bd 5d 40 86 3d 52 73 d0 3c 2c d0 d4 3c
       -0.10394357 0.06555245 0.025445614 0.02597817
0002b0 a1 09 5f 3e 53 03 87 3d 43 72 88 bd f8 d6 69 bd
       0.21781017 0.06592431 -0.06662419 -0.057089776
0002c0 ef 63 03 bd e9 5d 69 3c f3 84 eb 3d 21 3e 1d 3e
       -0.032077726 0.014243581 0.114999674 0.15355732
0002d0 5f d5 76 bd 16 b0 d8 bd 84 ae 23 3e 1f 53 8e bc
       -0.06026208 -0.10580461 0.15984541 -0.01737362
0002e0 1f bb 9f 3e a8 4e 5c 3d fa e6 37 3d 0a e8 8a bd
       0.3119745 0.05378595 0.04489801 -0.06782539
0002f0 9b 8a 02 c0 08 31 fb bc 4d 7a 0a 3d 95 0a 92 bd
       -2.0397098 -0.030663028 0.03380804 -0.071309246
000300 11 4a 14 3d 49 ad ed bd a8 0f 8f 3c 7e 7d 23 3d
       0.036203448 -0.11605317 0.01746352 0.0399146
000310 2c ae 74 bd 44 a2 b7 bd 7a a0 10 3e ab 43 8a 3e
       -0.059736416 -0.089664966 0.14123717 0.27004752
000320 6a 5c a2 3d cb 16 80 bc 72 5b 16 ba 50 b4 7d 3b
       0.07927783 -0.015635869 -0.00057356723 0.003871221
000330 90 e6 c3 3c 9a 2b bd bf e7 84 81 3d f2 bc a3 bd
       0.023913652 -1.4778931 0.06324177 -0.07995023
000340 c6 06 05 be 42 28 22 bd e0 ff 45 3e 22 d3 60 bb
       -0.12990865 -0.039589174 0.1933589 -0.0034305532
000350 b5 c3 ee 3d c6 2a f7 bd 7e cd b0 3e 16 15 19 be
       0.11658422 -0.12068705 0.34531778 -0.1494945
000360 f5 f5 3c 3c 3e 8a b0 bd 53 38 1f 3d ad 4e 6c bc
       0.01153325 -0.086201176 0.038872074 -0.014423055
000370 9b 8e 3d bc 94 1d 4e 3d ec 45 2b bd 02 69 6f 3e
       -0.011569644 0.050321177 -0.04181473 0.23379901
000380 6f 21 19 3d 9d e7 d5 3e 94 8e ab bc 4d 92 3b 3a
       0.0373854 0.4177827 -0.02094201 0.00071552844
000390 c0 76 4d 3b 94 a2 01 bc b6 a5 c7 3c df e3 f9 bd
       0.0031351298 -0.007912297 0.02437101 -0.12201666
0003a0 53 4f 11 bd 9c 09 d2 bc d2 f9 39 bd 08 d1 c6 bd
       -0.03547604 -0.025639348 -0.045404263 -0.09707838
0003b0 e2 90 fd 3c ff d7 0c bd 6f 1d 04 3d f0 a1 2b 3c
       0.030952875 -0.034385677 0.032254633 0.010475621
0003c0 e6 18 0b b9 5d b4 29 bd 72 71 89 bf 45 e0 23 3e
       -0.00013265348 -0.041431773 -1.0737746 0.16003521
0003d0 6c 6c aa bc a3 58 80 bc e0 44 f1 bc cc d0 1d bc
       -0.020803653 -0.015667265 -0.029451787 -0.009632301
0003e0 ad c0 8c 3c 1f 82 f8 bc
       0.017181719 -0.030335484

l4.bias f4 [5]
000000 27 81 8d 3d 0c ff 56 be ba 82 71 be 25 07 f7 bb
       0.069093995 -0.2099573 -0.23585024 -0.0075386935
000010 2f 3f c0 3d
       0.09387051

exp_avg f4 [250, 7]
000000 ba 41 07 b5 12 50 7a 34 dc 5b 8e 35 31 7d 54 35
       -5.0387064e-07 2.3312194e-07 1.0606559e-06 7.915833e-07
000010 ab 6c fd 34 94 49 17 b5 5a a4 a3 b6 4e 79 f1 b5
       4.720399e-07 -5.6358954e-07 -4.8769116e-06 -1.7991204e-06
000020 c5 da 8e b5 62 41 c5 b5 b4 4b 8d b4 48 0c 47 35
       -1.0643495e-06 -1.4696673e-06 -2.6318378e-07 7.415115e-07
000030 e7 05 1c b5 cf 67 22 35 d1 1e 6f 35 a9 34 f2 35
       -5.812312e-07 6.0500764e-07 8.907928e-07 1.8045731e-06
000040 aa 99 80 b5 48 98 7b 35 03 c6 9c 35 39 b1 ea 35
       -9.581465e-07 9.3726385e-07 1.1680535e-06 1.7485937e-06
000050 51 42 ee b5 db ac fa 34 92 a6 a1 b4 fc aa 86 35
       -1.7751682e-06 4.6691898e-07 -3.0109783e-07 1.0033541e-06
000060 52 38 1e 34 a2 2e 97 b5 bb b6 7c b6 d9 01 aa 35
       1.4735386e-07 -1.1263949e-06 -3.765729e-06 1.2666525e-06
000070 8e d8 ac b4 3b e4 0a b6 08 8d 77 33 dd 75 ce 33
       -3.219506e-07 -2.069645e-06 5.7637436e-08 9.614062e-08
000080 78 c7 f7 b5 2b 7b 8e b5 4e c5 34 b6 42 e8 65 b5
       -1.8460987e-06 -1.0615671e-06 -2.6936937e-06 -8.564713e-07
000090 86 d4 0a 36 d2 05 98 34 97 6f 37 34 6c 0b c6 35
       2.0687307e-06 2.831644e-07 1.7083799e-07 1.4755474e-06
0000a0 a8 42 90 35 e2 3c 0c 34 bc 6a 88 b4 6b 8c ad 32
       1.0748236e-06 1.3060665e-07 -2.5409634e-07 2.0203705e-08
0000b0 c2 5b dd b4 72 8f 85 b4 38 2e 0a 35 73 41 20 35
       -4.123122e-07 -2.487755e-07 5.1476263e-07 5.9699886e-07
0000c0 96 fc 70 b5 5f 56 01 35 32 72 8a b5 c1 5f e4 b4
       -8.977453e-07 4.818193e-07 -1.0315036e-06 -4.253798e-07
0000d0 29 7c ca b3 12 cd 23 36 9d 8c 8c b5 18 b5 9f 35
       -9.4289426e-08 2.440826e-06 -1.0471737e-06 1.1899128e-06
0000e0 90 66 cd b4 be c1 25 b6 bd 2e 37 34 61 9c 8c 34
       -3.825885e-07 -2.4699689e-06 1.7060206e-07 2.6190813e-07
0000f0 aa dd c4 b4 21 cb ba 35 7e 1d 2b b6 fb dc 0b 34
       -3.6669127e-07 1.3917198e-06 -2.5498152e-06 1.3025776e-07
000100 86 11 00 35 60 2b c5 b4 64 8f ad b4 1a 2d aa 33
       4.7709216e-07 -3.672567e-07 -3.2328091e-07 7.924446e-08
000110 d0 bc 06 b5 a6 b2 c8 b4 8e b1 15 32 2c c0 f4 b5
       -5.019365e-07 -3.7382887e-07 8.713313e-09 -1.8235346e-06
000120 0b a0 93 b4 44 96 c6 b3 80 d7 87 b4 58 a8 7a b5
       -2.749733e-07 -9.247427e-08 -2.5302506e-07 -9.337723e-07
000130 29 ee 9a 35 ff f7 8d 35 7d bb 10 b5 f8 7a 95 34
       1.1543208e-06 1.0577495e-06 -5.391701e-07 2.7842884e-07
000140 c3 77 68 b4 c7 22 b0 b6 75 1f 24 35 49 bc be b6
       -2.1650253e-07 -5.2492574e-06 6.1140537e-07 -5.6843605e-06
000150 27 31 69 b3 c3 8d 18 35 f8 3a 9c b5 82 78 07 b4
       -5.4294244e-08 5.6830703e-07 -1.1640068e-06 -1.2616695e-07
000160 7e 51 a2 b4 67 17 34 b5 e5 af 50 b5 09 f4 09 35
       -3.0234145e-07 -6.708928e-07 -7.7742e-07 5.1391595e-07
000170 fc b4 45 35 b5 1e da 34 9c 8e db 35 0e fd 25 b6
       7.3651586e-07 4.0628007e-07 1.6358276e-06 -2.4734213e-06
000180 a3 c0 12 36 ec bd 57 35 12 1d 6d b4 1c 4b 29 b4
       2.1867825e-06 8.0370114e-07 -2.2082921e-07 -1.5766676e-07
000190 8b 3f 21 35 b8 43 00 35 ce c8 1f 35 f1 5b 76 b5
       6.006964e-07 4.778226e-07 5.9524325e-07 -9.1775934e-07
0001a0 4d 06 4b 35 ba 23 94 32 c5 46 f6 34 b1 84 8c 35
       7.563256e-07 1.7245714e-08 4.5872562e-07 1.0469431e-06
0001b0 72 ea 8b b4 77 e7 03 b4 18 61 36 b5 3d bf 9a b4
       -2.606135e-07 -1.2284532e-07 -6.7941573e-07 -2.882388e-07
0001c0 bb ba d7 34 fe 53 96 34 5b 0c 27 b4 2f eb 8b b4
       4.0182735e-07 2.800079e-07 -1.5557582e-07 -2.6061886e-07
0001d0 e9 3f d9 33 89 ec b8 b5 ae f2 78 b5 1c 7c f9 b4
       1.0116475e-07 -1.3777909e-06 -9.2740345e-07 -4.6470166e-07
0001e0 77 e9 f5 b4 f8 93 3e 35 20 68 0e 35 80 0a 09 35
       -4.5804674e-07 7.099584e-07 5.3050644e-07 5.1051757e-07
0001f0 cf d3 25 b4 36 9a 60 35 4a 58 04 34 2b 93 9c 35
       -1.5443878e-07 8.367091e-07 1.2325577e-07 1.1665737e-06
000200 90 c5 0f 35 61 a3 4d b4 14 a3 4b 35 c1 26 a7 33
       5.355914e-07 -1.915155e-07 7.5860703e-07 7.783593e-08
000210 22 1a 7b 35 7d e6 c8 34 fc 2b 03 b6 c9 81 21 b4
       9.3542815e-07 3.7420605e-07 -1.9546123e-06 -1.5041509e-07
000220 c4 68 24 b5 3f 08 eb b4 7e 30 e4 33 ac 63 11 b6
       -6.1247215e-07 -4.377816e-07 1.0625898e-07 -2.16647e-06
000230 0a 3e 5b 35 80 94 03 36 4b b7 48 b5 9b ab 2f b4
       8.1674136e-07 1.960696e-06 -7.477253e-07 -1.6360575e-07
000240 ee 6e 4d b6 0c a1 6a 34 fd 6f 00 35 ea 34 53 b6
       -3.061195e-06 2.1851537e-07 4.784668e-07 -3.147225e-06
000250 09 95 05 b6 66 7f 4d 35 07 c7 62 34 77 dd 06 b6
       -1.9905294e-06 7.655384e-07 2.1120296e-07 -2.0096466e-06
000260 eb 8d d0 b6 58 52 55 b6 eb ce 15 b5 a0 4f 59 35
       -6.2154045e-06 -3.1787404e-06 -5.580793e-07 8.095467e-07
000270 2f a7 f4 b4 0a c6 44 b3 d9 4e e9 34 f0 fc 6a b6
       -4.5570184e-07 -4.581492e-08 4.3457e-07 -3.5015946e-06
000280 2c 0e 0a 36 c1 f9 98 35 4e 4c 8f b5 9e aa 53 35
       2.0571852e-06 1.139757e-06 -1.0676538e-06 7.8851906e-07
000290 00 d1 50 33 58 d9 b0 31 53 cf f4 b3 26 27 89 35
       4.861886e-08 5.1469833e-09 -1.13998475e-07 1.0218689e-06
0002a0 02 54 ab 30 37 15 79 35 50 86 10 b5 a3 99 f0 32
       1.2465764e-09 9.27906e-07 -5.383963e-07 2.8009543e-08
0002b0 98 db 8b 36 99 57 d3 34 38 51 3d 36 cc 96 f4 b3
       4.168087e-06 3.9365548e-07 2.821047e-06 -1.1389565e-07
0002c0 b5 41 23 36 49 46 bd 33 e2 fd a9 b3 6b 86 9d b5
       2.432714e-06 8.813783e-08 -7.915857e-08 -1.1736532e-06
0002d0 e4 f6 18 b4 de a2 d5 b6 ab e3 41 b5 a2 88 af b5
       -1.4245921e-07 -6.366855e-06 -7.2229403e-07 -1.3078281e-06
0002e0 f1 f3 88 b5 d7 b1 6a b4 88 4a cf b2 df 3b df 33
       -1.0203786e-06 -2.1857646e-07 -2.4131865e-08 1.0395137e-07
0002f0 1a 1d d7 35 11 52 f1 b4 f3 e6 9a 32 4e 5e a9 b4
       1.6027218e-06 -4.494946e-07 1.8032983e-08 -3.154732e-07
000300 e8 f5 46 33 76 fd 86 35 a9 7b 9a 35 de 16 31 36
       4.6324118e-08 1.0057545e-06 1.1509884e-06 2.6388366e-06
000310 c3 f3 23 35 e8 f6 af b5 18 ca 52 b4 21 58 86 b4
       6.107695e-07 -1.3110375e-06 -1.9631295e-07 -2.5023567e-07
000320 95 f6 8b b6 bc 0b 61 b5 fd 37 cd b5 52 ec 27 35
       -4.1712287e-06 -8.383611e-07 -1.5289985e-06 6.255624e-07
000330 fa 6a 71 b5 4f 40 37 35 1f df 70 b5 68 5b 44 b5
       -8.993517e-07 6.8266394e-07 -8.973165e-07 -7.3148703e-07
000340 64 78 08 b6 5f 59 c1 35 87 9a a6 b4 47 50 54 b5
       -2.0335656e-06 1.4405631e-06 -3.1032343e-07 -7.9092973e-07
000350 cd 2f e7 b3 a1 65 77 35 27 9e bd b6 f3 51 55 b4
       -1.0765471e-07 9.216256e-07 -5.6510503e-06 -1.9866984e-07
000360 66 d9 77 b5 a5 14 03 35 49 8e 36 35 6c 39 fd b5
       -9.2331027e-07 4.8831345e-07 6.8007336e-07 -1.8866681e-06
000370 ce fc 09 b5 6e d4 9c 35 92 fb 04 b6 24 38 92 b5
       -5.1404356e-07 1.1684731e-06 -1.9815966e-06 -1.0894187e-06
000380 6b f8 bb 35 bb 77 c9 b4 ee b1 42 b4 e2 1c 45 b5
       1.4004885e-06 -3.7526283e-07 -1.8132388e-07 -7.343025e-07
000390 f2 25 1a b6 b6 87 2c 36 e6 1e 28 b5 8c ed 99 34
       -2.2969875e-06 2.5708991e-06 -6.262984e-07 2.867131e-07
0003a0 4f f8 c8 34 ea c2 a5 35 3b 58 b0 36 d9 ab a4 b5
       3.743357e-07 1.2350185e-06 5.25548e-06 -1.2268966e-06
0003b0 cc 40 8a 35 2c 6c 1e 35 dd bc 2d 32 e5 ba 22 b5
       1.030066e-06 5.9017e-07 1.0112868e-08 -6.062167e-07
0003c0 d1 49 1a 34 5c 49 80 b3 24 f8 9c 34 4f dd 52 b5
       1.4369222e-07 -5.9738085e-08 2.923781e-07 -7.855314e-07
0003d0 8d b1 60 34 4b d1 2e b5 ed 2c 0a b4 a2 2e 15 35
       2.0926218e-07 -6.512461e-07 -1.2868595e-07 5.5574685e-07
0003e0 2b 76 21 b4 bb 7b 25 35 ce f0 85 b5 76 c4 11 b5
       -1.5037283e-07 6.164734e-07 -9.979356e-07 -5.43026e-07
0003f0 c1 16 f4 b4 db d1 cf b5 0d 85 1e b5 a6 98 07 b5
       -4.5465097e-07 -1.5483778e-06 -5.90532e-07 -5.051355e-07
