ros_ws/src/primitive_library/src/neural_jsdf/JSDF/hand/NN_model/models/single_401_left.pt (torch, 505434 bytes, 24 tensors)

l1.weight f4 [250, 7]
-0.23400882 -0.09949279 0.027308514 -0.0029487233 0.7349511 0.73918605 -0.45377114 -0.19794522
-0.015147399 -0.037773926 0.49809802 0.43141806 0.2898231 0.92980987 -0.1372421 -0.06894161
0.18227302 -0.0051809982 0.5930755 -0.35325125 -0.053484373 -0.031079456 -0.023292031 0.40416268
0.034488954 0.73433083 0.12842156 0.5491059 0.1414593 0.052518204 0.2050376 -0.018117048
0.37950295 0.23005375 0.250427 0.08168677 -0.06736429 0.5619555 0.28219745 0.010456301
0.0024328046 -0.96636754 0.6854708 -0.34709 -0.030256521 -0.0237685 -0.71805555 0.24233589
0.098261386 -0.44236577 -0.16839014 -0.30622068 -0.04520588 0.046166994 -0.82644343 0.42627957
0.41552028 -0.20097947 -0.2221319 -0.016498154 0.041128684 -0.80462235 0.61887413 0.08300627
0.019288864 0.004544104 1.4203639e-05 -0.31804836 -0.22004436 0.55821943 0.51250595 0.37636352
0.011635185 0.008188075 -0.6464043 -0.36907813 0.13734148 -0.39117485 -0.32497627 0.15713297
-0.07033302 0.24190749 0.7968202 -0.7337739 0.2958466 -0.33777884 -0.049126357 0.006719483
-0.3222038 -0.68762404 0.20829396 -0.15435457 0.0039912574 -0.0076220836 -0.0058022947 -0.31579387
-0.46263918 -0.6288578 0.10539993 0.13511822 0.2630925 0.32230562 0.24552216 0.23078689
0.12500088 0.6340681 -0.40008983 -0.20145784 -0.0001853177 -1.0367584 0.29940653 0.5241432
-0.4972876 0.0044635604 -0.74387145 -0.39860275 0.09975109 0.5376347 0.49150938 0.09756723
0.00480308 -0.0009616234 0.0008931999 0.35437006 0.6729129 -0.43467826 -0.08058707 -0.37844798
-0.105240576 -0.022718517 0.5521206 -0.37308505 0.67724645 -0.35738125 0.112036735 -0.46557978
-0.5792942 0.7333638 0.084663525 -0.18516357 -0.30868763 -0.097226806 -0.020677462 0.03960955
-0.47044894 0.71791047 -0.13206226 -0.5044477 -0.0040474012 -0.15897188 0.0068273246 0.3328031
-0.47290093 -0.021852767 0.009994711 0.030350955 0.26921988 -0.029806685 -0.49816188 -0.25467888
-0.2373921 0.3455542 0.0965644 -0.16071877 -0.012254862 0.016290078 -0.46323103 0.3421332
0.12337134 0.40035743 0.044234846 0.045339566 -0.008484815 -0.91604084 -0.48621914 -0.45460346
0.3919172 -0.009967784 -0.058325242 -0.7332868 0.48144493 -0.8165611 -0.021877805 0.34552497
-0.72220993 -0.48787588 -0.5759831 0.28258413 0.8428543 0.47676367 -0.097940736 0.12205585
0.0018601628 0.06276416 -0.5311818 0.29994962 0.43224892 -0.18465258 -0.27868098 -0.15964785
-0.19224271 -0.59467214 0.27771598 -0.20900634 0.23339498 -0.41843674 -0.66811526 0.47140166
0.105736926 -0.14491236 0.42747122 -0.023955034 -0.28066975 0.04385262 0.30183876 -0.4616766
0.017607283 -0.264921 -0.04817517 -0.39146417 -0.11632077 -0.44993263 0.45895314 0.12428314
0.43875766 0.073580414 0.15062495 -0.04604314 0.7590148 -0.24098958 -0.12287176 -0.0046113646
-0.022530641 0.178294 0.6142178 0.0716592 0.012360445 0.19893014 -0.3695782 -0.24274556
-0.29535738 0.0035985534 0.11306881 -0.19495553 -0.16003397 0.09530348 0.089417085 0.17570518
0.005891356 -0.6342898 0.24200644 -0.7951039 0.27730164 -0.42464486 -0.41833332 -0.21436192
00000000: 02a0 6fbe e0c2 cbbd 1bb6 df3c 5e3f 41bb
00000010: c125 3c3f 4c3b 3d3f b154 e8be 27b2 4abe
00000020: cc2c 78bc d5b8 1abd b406 ff3e d4e2 dc3e
00000030: b263 943e 0508 6e3f 3189 0cbe 4231 8dbd
00000040: c7a5 3a3e 5dc5 a9bb ccd3 173f 59dd b4be
00000050: 6e12 5bbd 589a febc eece bebc 69ee ce3e
00000060: 4a44 0d3d 1bfd 3b3f f180 033e 3492 0c3f
00000070: b5da 103e 541d 573d 60f5 513e 346a 94bc
00000080: 364e c23e 3693 6b3e f837 803e 654b a73d
00000090: 4af6 89bd 51dc 0f3f 2f7c 903e e850 2b3c
000000a0: b06f 1f3b dd63 77bf 047b 2f3f c8b5 b1be
000000b0: 86dc f7bc 28b6 c2bc 7dd2 37bf e626 783e
000000c0: 443d c93d c47d e2be 776e 2cbe f5c8 9cbe
000000d0: cd29 39bd 9a19 3d3d cc91 53bf 5141 da3e
000000e0: 13bf d43e 90cd 4dbe 8b76 63be 2327 87bc
000000f0: 8d76 283d bbfb 4dbf 896e 1e3f 31ff a93d
00000100: ae03 9e3c b5e6 943b 2a4c 6e37 3cd7 a2be
00000110: 4f53 61be 78e7 0e3f 9733 033f b8b2 c03e
00000120: 81a1 3e3c 4727 063c c17a 25bf cff7 bcbe
00000130: 3fa3 0c3e 1248 c8be 4a63 a6be 77e7 203e
00000140: c20a 90bd 99b6 773e 69fc 4b3f 9bd8 3bbf
00000150: 3579 973e 59f1 acbe b838 49bd 1c2f dc3b
00000160: e5f7 a4be 2108 30bf 034b 553e 200f 1ebe
00000170: 18c9 823b acc2 f9bb 2d21 bebb bcaf a1be
00000180: 0bdf ecbe d3fc 20bf ebdb d73d 6e5c 0a3e
00000190: 0fb4 863e 3e05 a53e 296a 7b3e 6653 6c3e
000001a0: 3b00 003e 4952 223f 93d8 ccbe f74a 4ebe
000001b0: d751 42b9 80b4 84bf d04b 993e 402e 063f
000001c0: 7b9c febe 0f43 923b 5c6e 3ebf a915 ccbe
000001d0: 4d4a cc3d 6da2 093f 1ea7 fb3e 54d1 c73d
000001e0: 2863 9d3b 7415 7cba a125 6a3a fe6f b53e
000001f0: 0544 2c3f 268e debe d50a a5bd efc3 c1be
00000200: 5f88 d7bd 2f1c babc c757 0d3f 0105 bfbe
00000210: 0660 2d3f adfa b6be 8473 e53d 7960 eebe
00000220: a04c 14bf bbbd 3b3f 1264 ad3d 859b 3dbe
00000230: 4e0c 9ebe d91e c7bd c863 a9bc a03d 223d
00000240: afde f0be fbc8 373f 543b 07be 7c23 01bf
00000250: 10a0 84bb 86c9 22be c0b7 df3b 2b65 aa3e
00000260: 1220 f2be 9304 b3bc dbc0 233c 91a2 f83c
00000270: 30d7 893e 262d f4bc 130f ffbe 4565 82be
00000280: ea16 73be 7bec b03e 8ec3 c53d 7693 24be
00000290: 9ec8 48bc c572 853c 9e2c edbe 152c af3e
000002a0: 1daa fc3d a6fb cc3e 992f 353d fbb5 393d
000002b0: e503 0bbc a781 6abf b7f1 f8be c9c1 e8be
000002c0: 5fa9 c83e eb4f 23bc 73e6 6ebd afb8 3bbf
000002d0: f37f f63e 260a 51bf 1539 b3bc a6e8 b03e
000002e0: c0e2 38bf deca f9be a173 13bf deae 903e
000002f0: 4dc5 573f 5e1a f43e 2795 c8bd 6bf8 f93d
00000300: b5d0 f33a 7f8a 803d 88fb 07bf ff92 993e
00000310: bb4f dd3e 9115 3dbe 46af 8ebe ba7a 23be
00000320: 46db 44be 6f3c 18bf ca30 8e3e c205 56be
00000330: 18ff 6e3e 573d d6be 9a09 2bbf 8f5b f13e
00000340: 9a8c d83d e863 14be 82dd da3e 593d c4bc
00000350: f2b3 8fbe ce9e 333d 9c8a 9a3e e060 ecbe
00000360: 263d 903c baa3 87be 5453 45bd fe6d c8be
00000370: 9539 eebd 925d e6be e8fb ea3e 2988 fe3d
00000380: d8a4 e03e 54b1 963d 6d3d 1a3e bb97 3cbd
00000390: cb4e 423f f9c5 76be 30a4 fbbd ee1a 97bb
000003a0: 2e92 b8bc b492 363e 613d 1d3f 0fc2 923d
000003b0: 7783 4a3c 58b4 4b3e 5b39 bdbe 4b92 78be
000003c0: 1539 97be b5d5 6b3b 9f90 e73d 6ca2 47be
000003d0: f2df 23be 792e c33d 4e20 b73d 0fec 333e
000003e0: 470c c13b d160 22bf 89d0 773e ee8b 4bbf
000003f0: 7bfa 8d3e 0d6b d9be c92f d6be b181 5bbe

l1.bias f4 [250]
-0.008369096 -0.42695245 -0.2742493 -0.3035689 0.39363125 0.20792492 -0.50995445 -0.8787947
-0.43375027 0.08110741 0.3133763 -0.14476655 0.42317817 0.021024795 0.29112986 -0.11522361
-0.3978778 0.047550835 -0.09746598 -0.9242898 0.108805016 0.47392052 0.20331496 -0.2716747
-0.37376237 -0.4609653 0.46524784 0.61891097 -0.53329134 -0.18980072 0.34909844 0.29817724
-0.40566793 0.44889495 0.40611395 -0.030680517 -0.23751907 0.39955273 0.26483658 -0.4825577
0.26230454 0.27616617 -0.21543786 0.43043834 -0.27655077 -0.05530812 -0.11846033 0.3439039
0.27672523 0.30139977 0.37031016 -0.104911886 0.27886024 0.12378733 -0.068050824 -0.1385074
-0.4144069 0.02058113 -0.030779384 0.39420918 0.1767101 0.34040406 0.12169091 -0.060152393
-0.6358179 -0.0278104 0.029847769 -0.39802626 -0.47099328 -0.30896264 0.37278396 -0.022321118
0.39403206 -0.32826832 0.44322178 -0.7987708 -0.34150177 0.4790549 0.048850257 0.38279554
0.23838073 -0.12241547 0.50942814 -0.28273624 0.17944004 -0.045285493 -0.25716925 0.00057067076
0.0633728 -0.13426678 -0.6575939 0.5333487 0.3302784 0.3344613 -0.30485934 -0.1225654
0.044111747 -0.5828944 0.12770315 0.4350527 0.019671535 -0.016478594 0.3609991 0.16929486
-0.14574768 -0.034715332 0.14358248 -0.035019662 -0.48349434 0.4518771 0.029506745 -0.02505822
0.2873058 -0.116795465 -0.19420889 -0.2795312 -0.3500629 0.5394607 -0.18502745 0.44026554
-0.10275925 -0.37209076 0.38811836 0.3749368 -0.14897339 -0.22483474 0.42012313 -0.07398403
-0.11723585 0.06932278 -0.17441335 0.41353986 0.375634 0.264094 -0.68359816 0.23917969
-0.31273645 0.2272141 0.27317226 -0.3615312 0.48697385 -0.31878802 0.5271146 0.3837961
0.3504495 0.2587755 0.39969048 0.37347364 0.047439992 -0.2248354 0.24506497 -0.01855881
0.46806186 -0.46413693 0.22042692 0.07919571 -0.7172525 0.09370852 0.16853526 0.4136372
-1.0511374 -0.021764286 -0.105104096 0.59313726 0.4855628 -0.51651305 0.16960278 0.08001109
0.409085 -0.18709984 -0.994675 -0.27714407 0.53132063 0.23102364 -0.095675364 -0.31258428
0.30723366 0.1294686 -0.5385446 0.29077506 -0.46206787 -0.07964388 0.56647617 0.42170262
0.35502246 0.13106227 -0.021843743 -0.16568641 -0.091344774 -0.21322072 0.46083632 0.34401232
-0.0923003 0.13217914 0.23763435 0.06526803 -0.717856 -0.48809388 -0.15924759 0.4216654
0.2891851 -0.2868134 0.01317684 -0.30619016 -0.5033286 -0.49909413 0.43444178 -0.5658942
0.3600316 0.6336881 -0.12376193 0.35084715 0.07124789 -0.22008535 0.6210301 -0.004866164
-0.10034484 -0.034725882 0.2211972 -0.46814305 0.19491018 0.3230677 0.4854396 0.051051635
-0.6377856 -0.7225931 0.45804825 0.020144941 0.0065308046 -0.13292196 -0.23559088 0.440528
-0.38240525 0.45905468 -0.17959125 0.116481446 -0.0044890507 0.27287 0.20335144 0.43348226
-0.02312206 -0.41685376 -0.5655853 -0.051391304 0.254022 0.14884676 -0.16647562 -0.028088091
0.09898717 -0.18701755
00000000: 881e 09bc 8399 dabe 676a 8cbe 626d 9bbe
00000010: 098a c93e 45ea 543e 608c 02bf b1f8 60bf
00000020: 8414 debe a41b a63d dc72 a03e af3d 14be
00000030: cfaa d83e 313c ac3c f90e 953e 5bfa ebbd
00000040: a4b6 cbbe aac4 423d 3e9c c7bd 429e 6cbf
00000050: 2ad5 de3d b6a5 f23e cc31 503e f218 8bbe
00000060: c85d bfbe a503 ecbe f734 ee3e f370 1e3f
00000070: c885 08bf 1f5b 42be 08bd b23e b0aa 983e
00000080: b5b3 cfbe 8fd5 e53e 2bee cf3e b555 fbbc
00000090: 3338 73be 2d92 cc3e a998 873e ce11 f7be
000000a0: c84c 863e a765 8d3e be9b 5cbe 6a62 dc3e
000000b0: 1098 8dbe c48a 62bd 549b f2bd 2c14 b03e
000000c0: eeae 8d3e 1251 9a3e 4b99 bd3e 0bdc d6bd
000000d0: c5c6 8e3e 3684 fd3d 3b5e 8bbd e2d4 0dbe
000000e0: 242d d4be c299 a83c 0c25 fcbc c9d5 c93e
000000f0: 7ef3 343e 7149 ae3e 1539 f93d 5b62 76bd
00000100: f6c4 22bf a3d2 e3bc 4f83 f43c 19ca cbbe
00000110: 0826 f1be 5a30 9ebe 8add be3e c7da b6bc
00000120: 92be c93e c912 a8be f7ed e23e 3e7c 4cbf
00000130: 52d9 aebe af46 f53e 3517 483d c7fd c33e
00000140: 141a 743e f6b4 fabd e269 023f cec2 90be
00000150: 21bf 373e 487d 39bd b0ab 83be 1199 153a
00000160: 99c9 813d 3b7d 09be 1358 28bf 8a89 083f
00000170: 401a a93e 833e ab3e 8616 9cbe 9203 fbbd
00000180: 85ae 343d 9138 15bf 9dc4 023e 3abf de3e
00000190: 3326 a13c 1efe 86bc e0d4 b83e a25b 2d3e
000001a0: e13e 15be aa31 0ebd 4907 133e c770 0fbd
000001b0: 928c f7be 6f5c e73e 21b8 f13c e546 cdbc
000001c0: bf19 933e 7632 efbd b2de 46be b71e 8fbe
000001d0: 723b b3be 191a 0a3f d677 3dbe 7c6a e13e
000001e0: 7173 d2bd ae82 bebe 73b7 c63e b7f7 bf3e
000001f0: 7b8c 18be 143b 66be 611a d73e f084 97bd
00000200: 5919 f0bd 1af9 8d3d 6a99 32be 7fbb d33e
00000210: 1a53 c03e 5437 873e 4a00 2fbf 85eb 743e
00000220: fe1e a0be d0aa 683e 3cdd 8b3e 9e1a b9be
00000230: a354 f93e 2f38 a3be fcf0 063f ec80 c43e
00000240: 1e6e b33e 397e 843e 3ba4 cc3e f037 bf3e
00000250: 7050 423d 403b 66be 50f2 7a3e a508 98bc
00000260: cea5 ef3e 5ba3 edbe 98b7 613e 5c31 a23d
00000270: dc9d 37bf 41ea bf3d 8294 2c3e 41c8 d33e
00000280: ac8b 86bf 044b b2bc d140 d7bd d8d7 173f
00000290: b09b f83e 333a 04bf 5aac 2d3e dbdc a33d
000002a0: 9773 d13e 1a97 3fbe 05a3 7ebf d4e5 8dbe
000002b0: a104 083f 7691 6c3e 72f1 c3bd 0c0b a0be
000002c0: bb4d 9d3e 6b93 043e 0fde 09bf 78e0 943e
000002d0: 2994 ecbe 551c a3bd 9504 113f 68e9 d73e
000002e0: 81c5 b53e 3035 063e a6f1 b2bc b3a9 29be
000002f0: f812 bbbd 8856 5abe bdf2 eb3e 6222 b03e
00000300: f107 bdbd f859 073e 6b56 733e 3fab 853d
00000310: 69c5 37bf 71e7 f9be cd11 23be 87e4 d73e
00000320: 1210 943e 35d9 92be ace3 573c f5c4 9cbe
00000330: 25da 00bf 4489 ffbe 276f de3e 71de 10bf
00000340: 1056 b83e 6239 223f e576 fdbd 3da2 b33e
00000350: 6aea 913d 0e5e 61be d4fb 1e3f 5874 9fbb
00000360: 9881 cdbd ba3c 0ebd 8581 623e 72b0 efbe
00000370: 8996 473e 2169 a53e 8a8b f83e 851b 513d
00000380: eb45 23bf ddfb 38bf 4d85 ea3e 0107 a53c
00000390: 5c00 d63b b21c 08be bc3e 71be e38c e13e
000003a0: 9fca c3be 3709 eb3e c5e6 37be d38d ee3d
000003b0: e318 93bb 9eb5 8b3e 5c3b 503e 63f1 dd3e
000003c0: 796a bdbc db6d d5be 33ca 10bf b07f 52bd
000003d0: 2c0f 823e 496b 183e 9678 2abe ff18 e6bc
000003e0: c9b9 ca3d 8781 3fbe

l2.weight f4 [130, 250]
-0.08626473 0.079444066 -0.0035192056 0.12399029 0.026168413 0.095856495 -0.043638647 0.12534815
0.03913597 -0.031502403 0.11593058 -0.072585404 0.030368555 0.04911054 -0.009855487 0.0172168
0.024763022 0.087094136 -0.049175516 0.018909939 -0.0797229 0.09291145 0.034182563 0.08094002
0.073482074 0.1292248 0.0051201843 0.0591907 0.1283546 -0.045790426 0.09406421 0.004245282
-0.044960674 0.028403716 0.09263254 -0.08736259 0.02999414 0.117596306 -0.08003902 0.3547675
0.042075295 0.04884532 -0.06952054 0.016940732 0.0064542503 0.05660587 -0.07710303 -0.06825562
0.052933488 0.03297404 -0.061156683 0.03255882 0.07117654 0.016068602 -0.02034954 0.05521978
0.1073292 -0.007221467 0.1655568 0.07748392 -0.058651723 0.09965395 -0.053948134 -0.3772783
-0.06190171 -0.19373062 0.026226899 0.027778728 -0.026848784 0.04021776 -0.04910014 -0.053779725
-0.028426299 -0.0850655 0.09631756 -0.06303924 0.07508137 -0.00015619647 -0.13548546 -0.0092197815
0.08131852 -0.041230064 -0.01719319 -0.026032366 -0.28173435 -0.029953359 -0.9553033 -0.018588834
-0.0522203 0.16723426 0.092423156 0.051365416 0.014843779 0.099222496 0.022049818 -0.10514159
-0.07084701 -0.006546236 -0.054151494 -0.064355575 -0.29235443 -0.118904695 0.030471861 0.045339584
-0.029604621 -0.121856846 0.08544698 -0.14506851 0.05626357 0.08472808 0.1076184 -0.065108135
0.06879102 0.03956727 0.09299196 0.0021809197 -0.08589355 -0.13014612 -0.016551916 0.039439343
0.010929004 0.010746557 0.13057785 -0.044937443 -0.11639804 -0.04297604 0.023638504 -0.006873255
0.032043308 0.017217072 -0.084156625 0.07566843 -0.0030515061 -0.0688398 0.06451656 -0.043041773
-0.84011394 0.028086148 -0.064789504 -0.10402197 0.09282586 0.21357572 0.059558395 0.06825099
0.08496493 0.022622088 0.04097345 -0.14465185 -0.067395054 0.03880778 -0.0045866617 -0.078621194
-0.07769776 -0.008153452 0.053311303 -0.0090318695 0.02607731 0.088032074 0.04893291 0.016685685
-0.15283552 0.0028542448 -0.01691486 0.004929211 0.0314776 0.16166992 0.03472384 -0.017926764
0.06507798 0.0059029767 0.069508195 0.22855401 -0.0043503707 -0.004773947 -0.27770427 0.09453929
-0.022524165 0.017412432 0.010646484 0.1270449 0.020423135 -0.6029165 0.027614357 0.024884518
0.04987936 -0.03460017 -0.08340755 -0.15281445 0.045569494 -0.06765892 -0.090634204 0.0733489
-0.3356013 0.076277584 0.08851744 0.038880344 0.00014296253 -0.10600054 0.046149723 0.093505874
0.09970793 -0.034749072 0.056417953 0.114088595 0.0010264763 0.08701948 0.13077693 -0.1074486
0.00106934 0.051370237 -0.7403521 0.07422808 0.0127578145 -0.15445141 -0.042349044 -0.12584098
0.067194834 -0.05219556 0.1539791 -0.09818409 -0.060925722 -0.045103062 0.09449273 0.0324146
-0.030269533 -0.076356955 0.024577929 -0.24710904 0.05011291 -0.15608288 0.03049565 -0.04961018
-0.12580399 0.048552494 -0.38643453 -0.08675751 -0.029394219 0.010220041 -0.025135929 0.035826836
0.16346338 -0.06338593 0.039115857 -0.006523976 -0.029936545 0.032115716 -0.022232104 -0.04004076
-0.0364064 -0.029826522 0.03677963 -0.05925683 0.051937714 0.015010626 -0.025340738 -0.04189875
00000000: 90ab b0bd 92b3 a23d 79a2 66bb 9fee fd3d
00000010: 245f d63c 6950 c43d 70be 32bd 445b 003e
00000020: 0a4d 203d aa08 01bd 036d ed3d a8a7 94bd
00000030: 7ac7 f83c 2228 493d e978 21bc 3f0a 8d3c
00000040: d2db ca3c 695e b23d 446c 49bd 04e9 9a3c
00000050: c345 a3bd 5c48 be3d 0403 0c3d e2c3 a53d
00000060: c57d 963d 8253 043e 38c7 a73b f371 723d
00000070: 636f 033e be8e 3bbd bda4 c03d 021c 8b3b
00000080: af28 38bd e9ae e83c 21b6 bd3d 28eb b2bd
00000090: 45b6 f53c 55d6 f03d 7feb a3bd 16a4 b53e
000000a0: 2557 2c3d 0812 483d c960 8ebd 4ac7 8a3c
000000b0: 2d7e d33b 8fdb 673d 32e8 9dbd 9ac9 8bbd
000000c0: c9d0 583d c90f 073d 6e7f 7abd 665c 053d
000000d0: 01c5 913d 4da2 833c 14b4 a6bc 232e 623d
000000e0: 69cf db3d 0ea2 ecbb b987 293e e4af 9e3d
000000f0: ca3c 70bd 5f17 cc3d b8f8 5cbd 9f2a c1be
00000100: a68c 7dbd 5261 46be cbd9 d63c 3790 e33c
00000110: fbf1 dbbc 61bb 243d 3a1d 49bd 2148 5cbd
00000120: 45de e8bc d236 aebd 2442 c53d b81a 81bd
00000130: 43c4 993d acc8 23b9 b3bc 0abe 910e 17bc
00000140: 538a a63d dbe0 28bd bcd8 8cbc d441 d5bc
00000150: 7c3f 90be bf60 f5bc c28e 74bf 9c47 98bc
00000160: f4e4 55bd 753f 2b3e 5a48 bd3d 8b64 523d
00000170: 5233 733c 2a35 cb3d d2a1 b43c 7954 d7bd
00000180: 3d18 91bd cf81 d6bb f5cd 5dbd dbcc 83bd
00000190: 7baf 95be 4e84 f3bd 20a0 f93c 00b6 393d
000001a0: 6485 f2bc 1590 f9bd d4fe ae3d d78c 14be
000001b0: a174 663d ea85 ad3d 0967 dc3d 6a57 85bd
000001c0: 4ee2 8c3d 4a11 223d 9272 be3d c3ed 0e3b
000001d0: f5e8 afbd 0645 05be e297 87bc 268b 213d
000001e0: 910f 333c 5412 303c 33b6 053e 5310 38bd
000001f0: 1862 eebd a507 30bd 89a5 c13c 0b39 e1bb
00000200: d83f 033d d10a 8d3c 4f5a acbd 0df8 9a3d
00000210: c7fb 47bb e2fb 8cbd 4221 843d 924c 30bd
00000220: b511 57bf ec14 e63c 5cb0 84bd 7809 d5bd
00000230: 7c1b be3d 98b3 5a3e 81f3 733d 2dc7 8b3d
00000240: 1802 ae3d f551 b93c c7d3 273d 9d1f 14be
00000250: 6b06 8abd e8f4 1e3d b54b 96bb 2604 a1bd
00000260: 0120 9fbd 0e96 05bc f45c 5a3d 68fa 13bc
00000270: 15a0 d53c 294a b43d e06d 483d 6bb0 883c
00000280: ea80 1cbe 480e 3b3b 0891 8abc 3885 a13b
00000290: a8ee 003d cd8c 253e 963a 0e3d 26db 92bc
000002a0: 9b47 853d c26d c13b 505a 8e3d 100a 6a3e
000002b0: 8e8d 8ebb c56e 9cbb 412f 8ebe d19d c13d
000002c0: 9984 b8bc 84a4 8e3c 976e 2e3c 0f18 023e
000002d0: 6b4e a73c bc58 1abf 8137 e23c 9eda cb3c
000002e0: 4d4e 4c3d e8b8 0dbd 94d1 aabd 647b 1cbe
000002f0: 14a7 3a3d c390 8abd 6d9e b9bd f337 963d
00000300: efd3 abbe 6c37 9c3d a248 b53d ff40 1f3d
00000310: 36e8 1539 d016 d9bd 7e07 3d3d 0280 bf3d
00000320: ac33 cc3d 0b55 0ebd 8316 673d 48a7 e93d
00000330: d48a 863a 4537 b23d 63ea 053e 030e dcbd
00000340: 1929 8c3a 9969 523d b787 3dbf e404 983d
00000350: 2706 513c 8328 1ebe 3176 2dbd 75dc 00be
00000360: 729d 893d 03cb 55bd b2ac 1d3e bd14 c9bd
00000370: 408d 79bd fdbd 38bd 6885 c13d 2cc5 043d
00000380: d0f7 f7bc 0961 9cbd a757 c93c 270a 7dbe
00000390: 3243 4d3d 31d4 1fbe 03d2 f93c 0b34 4bbd
000003a0: c3d2 00be fbde 463d bfda c5be ecad b1bd
000003b0: 25cc f0bc f571 273c dde9 cdbc 29bf 123d
000003c0: f262 273e 7cd0 81bd f337 203d 14c7 d5bb
000003d0: 7c3d f5bc c58b 033d 1a20 b6bc c801 24bd
000003e0: e11e 15bd c056 f4bc 3da6 163d 4ab7 72bd
000003f0: a4bc 543d 21ef 753c 6197 cfbc 069e 2bbd

l2.bias f4 [130]
0.03353889 -0.009173283 0.0006880397 0.051162325 0.023813384 -0.0117722545 0.1358639 0.010307101
0.055781577 0.060068864 -0.0072001647 -0.013808311 -0.030259693 -0.07370505 -0.0073287 0.00018350082
0.101986334 -0.0051276926 0.050049692 0.059077382 0.06431582 -0.037560243 0.035719663 -0.023566656
0.057309315 0.013032814 0.122184835 0.1512678 -0.0031776258 0.0290483 0.09842002 -0.078848094
0.08440601 -0.02904245 0.07209276 0.0559365 -0.0587791 -0.010338874 -0.035649657 0.05155432
-0.014048842 0.19801934 0.04458069 -0.017071262 0.025166899 0.067232765 0.0848965 -0.02537178
-0.07342075 0.030036878 0.022832355 -0.0127392085 -0.0606775 0.03355283 0.013427787 0.071072325
0.08936302 0.040773895 0.0942681 0.017201908 0.07533913 0.02220939 -0.012516444 -0.0630423
-0.027597053 -0.044839546 -0.029088408 -0.048296325 -0.009928311 0.0470132 0.062770925 -0.083253
-0.044392064 -0.039715674 0.09096759 0.056057114 -0.04639608 -0.033455767 -0.028102139 -0.02118945
0.055538144 0.08232674 -0.08394006 0.02389083 -0.022824472 0.05017306 -0.11002213 -0.07395091
0.05797852 -0.078283966 -0.01343472 0.044391572 0.022893466 0.07724279 0.028956946 0.02620293
0.07626609 0.036781948 0.05376764 0.023530332 0.08056428 0.099270575 -0.07688306 -0.0555179
0.08267463 0.04464263 0.06533108 0.08168056 0.05422109 0.02327139 -0.04088501 0.06652932
-0.0004916943 0.03212421 0.053630374 0.0025426187 -0.02551603 0.050462473 -0.17923701 0.039438188
0.022780444 0.0012482122 -0.00092300936 0.05964466 0.059285186 0.05367843 0.06432842 -0.011152861
-0.0057229847 0.0033303841
00000000: 1360 093d 8a4b 16bc 905d 343a 968f 513d
00000010: 4914 c33c 6ae0 40bc e81f 0b3e 1ddf 283c
00000020: 397b 643d c50a 763d 5cef ebbb 413c 62bc
00000030: 2de3 f7bc acf2 96bd 9725 f0bb 206a 4039
00000040: 36de d03d 3406 a8bb e800 4d3d 20fb 713d
00000050: 03b8 833d c5d8 19bd c84e 123d dc0e c1bc
00000060: 2cbd 6a3d 9587 553c 0b3c fa3d f2e5 1a3e
00000070: b73f 50bb b3f6 ed3c 6f90 c93d 1c7b a1bd
00000080: 0fdd ac3d 6fea edbc 5ea5 933d ac1d 653d
00000090: 5bc2 70bd 6164 29bc 6005 12bd 9f2a 533d
000000a0: 1d2d 66bc 95c5 4a3e 3e9a 363d 08d9 8bbc
000000b0: d02a ce3c 55b1 893d 37de ad3d 7bd8 cfbc
000000c0: 9e5d 96bd e60f f63c eb0a bb3c 1db8 50bc
000000d0: f888 78bd b16e 093d 3900 5c3c 5e8e 913d
000000e0: f603 b73d 8702 273d a20f c13d 04eb 8c3c
000000f0: 674b 9a3d 77f0 b53c c511 4dbc 521c 81bd
00000100: 3713 e2bc aca9 37bd d04a eebc 5ed2 45bd
00000110: 5baa 22bc ea90 403d 0b8e 803d 8d80 aabd
00000120: 74d4 35bd e7ac 22bd 374d ba3d 259c 653d
00000130: d109 3ebd ea08 09bd 7536 e6bc 7f95 adbc
00000140: f77b 633d ec9a a83d c4e8 abbd b4b6 c33c
00000150: 63fa babc 4482 4d3d 4853 e1bd 9373 97bd
00000160: e27a 6d3d 5853 a0bd 4d1d 5cbc f0d3 353d
00000170: 148b bb3c 7831 9e3d 1e37 ed3c 87a7 d63c
00000180: 6531 9c3d aba8 163d 753b 5c3d afc2 c03c
00000190: e3fe a43d 5f4e cb3d de74 9dbd bd66 63bd
000001a0: 5151 a93d 31db 363d 4dcc 853d 2348 a73d
000001b0: ef16 5e3d a4a3 be3c 0a77 27bd 8640 883d
000001c0: 0ce5 00ba ad94 033d 86ab 5b3d 10a2 263b
000001d0: fe06 d1bc bdb1 4e3d e889 37be f089 213d
000001e0: 0e9e ba3c 0d9b a33a 1cf6 71ba f64d 743d
000001f0: 06d5 723d eadd 5b3d 9ebe 833d 7dba 36bc
00000200: e087 bbbb 9342 5a3b

l3.weight f4 [50, 130]
-0.045425877 0.09957441 0.13093986 -0.065247096 -0.037637714 0.13229342 0.09461784 0.12434059
0.020554941 0.06456895 0.12139647 0.0017036702 0.048739318 0.025162792 -0.031524923 0.036872
-0.029670337 0.09145282 0.10747983 -0.03577434 0.08458832 0.20472811 0.07072608 0.09178818
-0.05396214 0.0010141724 -0.0818292 -0.049516965 0.05959691 -0.07068463 0.010080622 0.10727698
-0.012235549 0.011577442 0.06305944 0.008749034 -0.09910245 0.105068944 0.03520647 -0.044486918
0.118806094 -0.041756976 0.08092331 0.010122236 0.09213491 -0.0611737 -0.027157169 -0.04260461
0.1278978 0.14277771 -0.022701276 0.047044463 0.11627099 -0.03754134 0.06388333 -0.09589829
0.080888495 0.016781628 0.081086494 -0.08696085 0.12472511 -0.044503123 -0.025024146 0.08091697
0.09719366 -0.056006 -0.016178029 0.10207784 0.22569326 -0.045372143 -0.015253026 0.09152347
0.0062404666 0.08865636 0.10267673 0.15814388 0.051466852 0.10121904 -0.13616754 0.03406333
-0.05509337 -0.14620094 -0.013626482 -0.01885784 0.041336685 -0.0095085865 0.056554977 0.19815406
-0.070288025 -0.06743818 -0.024494566 -0.030081816 0.029013278 -0.022242201 -0.09345303 0.077302754
-0.03884676 0.09755239 0.07353329 0.092161395 0.03890472 0.13027678 0.21123587 -0.05916132
0.08883676 -0.13627174 -0.036613915 0.12115517 -0.040314917 -0.039065365 0.077012956 0.08212432
-0.03315471 -0.040275652 0.049881157 -0.037946686 0.107358925 0.11310663 0.16681223 -0.026573522
0.07053451 -0.09485181 -0.042682905 0.085275985 0.060865793 -0.019339167 -0.09423067 -0.063643605
0.0022599127 0.06109273 0.007283988 0.057722107 0.06478638 -0.075519 0.07330735 0.08069237
0.1851903 0.014629614 0.065011345 -0.017186724 0.19945958 -0.079476185 0.08961869 -0.053747088
0.024921536 0.05568229 -0.07526188 0.08100581 0.060461473 0.049940668 -0.08390169 0.17170258
0.06527479 -0.021836547 0.057224628 0.04406467 -0.032321863 0.050856464 0.0007908389 -0.09018567
-0.14087453 0.07133986 -0.30954114 -0.0785337 0.06449772 -0.041444004 0.023226999 0.101133555
-0.11974838 0.00554906 0.009639128 0.12569952 -0.04792478 0.093807176 -0.09043528 -0.002310273
0.11849837 -0.011409905 0.048965413 0.09993745 -0.0601326 -0.0335273 0.06864722 -0.0419459
0.05586339 -0.0998232 0.020309294 0.015541152 0.1569468 -0.06313701 0.10826092 -0.0018266074
-0.21287817 -0.01340866 0.011359495 0.09319005 -0.002829407 0.017240621 0.403776 -0.007942255
0.09345218 -0.035294358 -0.06567952 0.060822878 0.14350076 0.16729094 0.1144625 -0.004418811
-0.11542124 0.010208242 0.095901646 -0.044118717 0.10630414 0.03980656 -0.05326442 -0.020068834
0.30168846 0.0047859093 -0.07030449 -0.12999368 0.061558206 0.009172553 -0.054794874 -0.021808203
0.02441182 0.0776331 0.074693196 0.080480635 -0.08887844 0.15269835 -0.04543079 0.100845836
-0.09877717 0.031044519 0.14072354 -0.002817649 -0.071610264 -0.030246394 0.033231042 0.024888055
0.037625182 0.06671327 -0.016044501 -0.05225001 0.02800206 -0.09552956 -0.025294742 0.21950652
0.31512502 -0.037268136 0.060680043 -0.17405735 0.070615165 0.025440052 0.043804266 0.0833039
00000000: 7c10 3abd abed cb3d 1915 063e 45a0 85bd
00000010: 012a 1abd ed77 073e 00c7 c13d 47a6 fe3d
00000020: d662 a83c ba3c 843d b69e f83d b04d df3a
00000030: e1a2 473d 3322 ce3c 4720 01bd 1807 173d
00000040: 350f f3bc 9e4b bb3d 631e dc3d 1d88 12bd
00000050: a43c ad3d 3fa4 513e d6d8 903d 71fb bb3d
00000060: 6807 5dbd fbed 843a 1196 a7bd 4dd2 4abd
00000070: e41b 743d 1ac3 90bd 3129 253c 09b4 db3d
00000080: 9d77 48bc 50af 3d3c 4f25 813d 1c58 0f3c
00000090: 3af6 cabd 632e d73d a934 103d ea37 36bd
000000a0: 9c50 f33d 5d09 2bbd 1fbb a53d bcd7 253c
000000b0: 3ab1 bc3d 4691 7abd b678 debc 2c82 2ebd
000000c0: a4f7 023e 5234 123e 07f8 b9bc b2b1 403d
000000d0: 7c1f ee3d f3c4 19bd 43d5 823d 5366 c4bd
000000e0: dea8 a53d a079 893c ad10 a63d 8818 b2bd
000000f0: e16f ff3d e848 36bd 70ff ccbc ccb7 a53d
00000100: 780d c73d 8c66 65bd c987 84bc 300e d13d
00000110: 221c 673e 24d8 39bd d4e7 79bc a870 bb3d
00000120: d47c cc3b 7791 b53d 2d48 d23d 78f0 213e
00000130: e8ce 523d ee4b cf3d 816f 0bbe fe85 0b3d
00000140: 96a9 61bd b3b5 15be 9c41 5fbc c27b 9abc
00000150: a850 293d e7c9 1bbc 31a6 673d e6e8 4a3e
00000160: 2bf3 8fbd 071d 8abd d4a8 c8bc 246e f6bc
00000170: 41ad ed3c 4735 b6bc 4d64 bfbd e850 9e3d
00000180: c81d 1fbd 8cc9 c73d 9f98 963d 1dbf bc3d
00000190: 8e5a 1f3d 4767 053e 374e 583e 2453 72bd
000001a0: 0cf0 b53d d28a 0bbe 79f8 15bd 3420 f83d
000001b0: 4121 25bd 0103 20bd f8b8 9d3d cc30 a83d
000001c0: 3ccd 07bd 15f8 24bd 2f50 4c3d fc6d 1bbd
000001d0: ffde db3d 73a4 e73d d3d0 2a3e b7b0 d9bc
000001e0: 6674 903d aa41 c2bd 45d4 2ebd 2da5 ae3d
000001f0: 694e 793d 2c6d 9ebc 02fc c0bd 9457 82bd
00000200: 0b1b 143b 5f3c 7a3d 85ae ee3b 046e 6c3d
00000210: b9ae 843d b5a9 9abd 2a22 963d 0b42 a53d
00000220: 87a2 3d3e 0cb1 6f3c ab24 853d 2ccb 8cbc
00000230: 223f 4c3e 69c4 a2bd 018a b73d e825 5cbd
00000240: 4028 cc3c 1d13 643d e722 9abd 60e6 a53d
00000250: 73a6 773d 968e 4c3d a6d4 abbd cdd2 2f3e
00000260: caae 853d 8fe2 b2bc 5f64 6a3d 287d 343d
00000270: ee63 04bd de4e 503d 4d50 4f3a 44b3 b8bd
00000280: 6a41 10be a21a 923d 2d7c 9ebe 47d6 a0bd
00000290: 6117 843d 30c1 29bd 8c46 be3c 1c1f cf3d
000002a0: a33e f5bd e4d4 b53b 6fed 1d3c 60b7 003e
000002b0: c64c 44bd fa1d c03d 2236 b9bd f367 17bb
000002c0: 46af f23d 9cf0 3abc f58f 483d 01ac cc3d
000002d0: 9a4d 76bd ec53 09bd ea96 8c3d 77cf 2bbd
000002e0: 03d1 643d 1b70 ccbd ad5f a63c 51a0 7e3c
000002f0: a9b6 203e fa4d 81bd e7b7 dd3d c66a efba
00000300: bcfc 59be ffaf 5bbc 2d1d 3a3c 6dda be3d
00000310: 936d 39bb 343c 8d3c babb ce3e 3b20 02bc
00000320: db63 bf3d d190 10bd fc82 86bd 6921 793d
00000330: ddf1 123e 514e 2b3e 516b ea3d accb 90bb
00000340: f961 ecbd 7840 273c 1568 c43d d4b5 34bd
00000350: fcb5 d93d 340c 233d cb2b 5abd 6567 a4bc
00000360: e976 9a3e 1ed3 9c3b cdfb 8fbd 101d 05be
00000370: 7524 7c3d 7a48 163c 9770 60bd 1ea7 b2bc
00000380: 4cfb c73c 1afe 9e3d bff8 983d 08d3 a43d
00000390: e605 b6bd f55c 1c3e a315 3abd 4388 ce3d
000003a0: af4b cabd 1351 fe3c d519 103e 4ea8 38bb
000003b0: 67a8 92bd 49c7 f7bc 461d 083d 09e2 cb3c
000003c0: dd1c 1a3d f8a0 883d c26f 83bc 1b04 56bd
000003d0: 9364 e53c 01a5 c3bd eb36 cfbc 51c6 603e
000003e0: 1158 a13e 79a6 18bd a38b 783d 173c 32be
000003f0: af9e 903d a867 d03c 1a6c 333d 3c9b aa3d

l3.bias f4 [50]
0.06898788 -0.04721208 -0.09304051 0.075789995 -0.10886937 0.00068028 -0.08071125 -0.029700374
-0.032919493 -0.008349027 0.06922351 0.08677823 -0.049058504 0.03251121 0.01700037 -0.033975564
-0.076787114 -0.036895525 0.06263147 0.08857891 0.0152284885 -0.08485861 -0.07159055 0.057930097
-0.04611221 0.029885445 -0.039117303 -0.107414104 0.025170732 0.07547711 -0.10324816 -0.033175003
0.024170922 -0.03969152 -0.054340035 0.056026988 -0.0012408398 0.06378078 0.07381464 -0.002939309
0.03655732 0.03051771 -0.02830609 -0.06837962 0.046783186 0.04416214 0.005982982 0.05367733
-0.073022924 -0.039108567
00000000: 8549 8d3d 7461 41bd 068c bebd c937 9b3d
00000010: e7f6 debd d154 323a f14b a5bd 334e f3bc
00000020: 97d6 06bd 5bca 08bc 0ec5 8d3d c9b8 b13d
00000030: 92f1 48bd 792a 053d 5c44 8b3c f629 0bbd
00000040: 9042 9dbd c31f 17bd ee44 803d dc68 b53d
00000050: e980 793c 5aca adbd 119e 92bd 1c48 6d3d
00000060: 28e0 3cbd 52d2 f43c 7739 20bd edfb dbbd
00000070: da32 ce3c be93 9a3d c573 d3bd 83e2 07bd
00000080: 1902 c63c 9393 22bd a893 5ebd 8e7c 653d
00000090: ada3 a2ba 7f9f 823d 212c 973d 6ca1 40bb
000000a0: 21bd 153d 4700 fa3c 2ce2 e7bc 9d0a 8cbd
000000b0: ba9f 3f3d 5ce3 343d e40c c43b c3dc 5b3d
000000c0: 0b8d 95bd 4e30 20bd

l4.weight f4 [5, 50]
-0.07651858 0.04154192 -0.018685952 -0.0063419687 0.0356266 0.14285989 -0.006835681 -0.7519801
0.03116401 -0.007240541 -0.15163012 -0.0011080728 -0.0884994 0.0016568322 -0.0034258643 0.010671807
0.04217348 -0.07961201 -0.946628 -0.0020619205 -0.10165299 -0.06789234 -0.033615574 -0.06346278
-0.07768781 -0.002667352 0.16975062 -0.06575671 -0.0049281768 0.011357313 -0.013585161 0.102682866
-3.3529628e-05 0.15271787 0.1388823 0.1552864 0.17918986 0.024738017 -0.015826715 0.011894447
-0.02255675 -0.6268482 0.007700168 -0.04443516 -0.05041418 0.05228577 -0.10313619 0.051468037
-0.060876667 -0.024629252 0.07864285 0.035078764 0.103902064 -0.046308935 -0.08946573 0.046019465
0.010328012 -0.026619604 -0.047750868 0.030075494 0.32312799 0.023205845 0.03428096 -0.023743503
0.14878301 -0.15232696 0.048556436 0.0029649648 0.035771757 -0.19251965 -0.049776644 0.097290605
-1.1510872 -0.09028353 -0.121999785 0.024505127 -0.41044587 0.13812582 -0.08046001 -0.09355869
0.018560607 0.103253864 0.020068338 0.09799629 0.06836426 0.04057376 -0.05921143 0.09842777
-0.010977761 -0.07111277 0.016009225 0.007174431 -0.03689831 0.018055214 0.12965025 -1.5839032
0.12135777 -0.022618068 0.07947686 0.059574336 0.17619394 -0.06122396 0.117908515 -0.6623558
0.24114095 0.10708782 0.028617483 -0.011871667 0.14787975 -0.23339328 -0.5017526 -0.051621642
0.20751956 0.06714945 -0.56912935 -0.25913134 -0.039342184 0.0078544505 0.00941553 -0.098383464
0.23372051 0.051689662 -0.05113935 -0.04040246 -0.11136995 0.011821606 -0.29344526 0.083486386
0.24310558 -0.15854046 -0.050121635 0.06676985 -0.74199307 0.054817025 0.17927498 0.1681573
0.10581819 -0.17231168 0.03361628 -0.057484016 -0.035619564 0.008510764 -0.09186275 -0.06686786
-0.13559845 0.31721923 0.18374904 -0.07001425 0.25756982 -0.37958664 0.20646259 0.21637662
0.22372702 -0.65143937 -0.298329 0.08059587 0.16980353 -0.010148037 -0.23113967 0.061323635
-0.023243485 0.028908834 0.08339174 -0.060213767 0.6224227 -0.08683832 -0.11119651 -0.10659478
0.011147168 -0.11590995 -0.06683548 0.027553186 -0.0043788054 0.25547415 -0.058642954 0.08107335
0.46484378 -0.019494098 0.08918026 0.1870928 0.17536083 -0.21665387 -0.012074545 -0.14741196
0.17641875 0.14287584 0.022710962 0.011218966 0.061200466 0.23141111 -1.7446613 -0.0020568948
-0.22355154 0.09142 0.14410697 0.014001691 0.026939994 -0.16660817 -0.40480503 -0.5116344
-0.05073253 0.11161453 0.19576275 -0.016968714 0.23056488 -0.097947836 0.57524854 0.020576628
-0.0023524966 0.022147886 -0.09019552 0.2417053 0.033822086 -0.5604397 0.05785267 -0.074661866
0.14470778 0.10343046 -0.008825458 -0.0559111 -0.0771069 0.16196379 0.0013535215 0.15996824
-0.13238373 0.24343741 -0.004096992 -0.12000845 -0.019141804 -0.009089414 -0.9586157 0.047282647
0.011849763 0.15934521 0.1768315 -0.17443818 -0.004892143 0.09545149 0.20679145 0.19253898
0.030795313 -0.003467722 -0.15000434 -0.106579706 -0.18435204 0.018525783 -0.039875776 -0.20318967
-0.21701841 0.1954029
00000000: c6b5 9cbd dc27 2a3d 4813 99bc 4ad0 cfbb
00000010: 33ed 113d dd49 123e d9fd dfbb c581 40bf
00000020: aa4b ff3c 0f42 edbb ed44 1bbe c13c 91ba
00000030: 2c3f b5bd 102a d93a 7784 60bb ced8 2e3c
00000040: 19be 2c3d 9f0b a3bd 3656 72bf 4921 07bb
00000050: 712f d0bd 240b 8bbd 7cb0 09bd c6f8 81bd
00000060: c91a 9fbd bece 2ebb 1bd3 2d3e 74ab 86bd
00000070: 8b7c a1bb 0614 3a3c 4c94 5ebc 654b d23d
00000080: 2aa2 0cb8 1362 1c3e 2937 0e3e 6603 1f3e
00000090: 8c7d 373e 62a7 ca3c 07a7 81bc ede0 423c
000000a0: efc8 b8bc 2079 20bf b151 fc3b a401 36bd
000000b0: 197f 4ebd 9b29 563d 1139 d3bd 26d0 523d
000000c0: d059 79bd 49c3 c9bc 810f a13d c0ae 0f3d
000000d0: 9bca d43d 70ae 3dbd cf39 b7bd e87e 3c3d
000000e0: d236 293c 5b11 dabc 6a96 43bd e260 f63c
000000f0: 0871 a53e 2f1a be3c 316a 0c3d bc81 c2bc
00000100: 935a 183e 99fb 1bbe 1de3 463d db4f 423b
00000110: 6885 123d df23 45be 98e2 4bbd 4c40 c73d
00000120: d356 93bf 92e6 b8bd 06db f9bd fabe c83c
00000130: f625 d2be db70 0d3e 38c8 a4bd b39b bfbd
00000140: 6a0c 983c c376 d33d 5b66 a43c 47b2 c83d
00000150: 9002 8c3d ac30 263d af87 72bd 8094 c93d
00000160: 11dc 33bc 92a3 91bd c725 833c 7d17 eb3b
00000170: af22 17bd 87e8 933c 09c3 043e 57bd cabf
00000180: 6c8a f83d 8749 b9bc c4c4 a23d 3804 743d
00000190: 2f6c 343e fac5 7abd 057a f13d 2690 29bf
000001a0: a7ed 763e dc50 db3d 366f ea3c 6181 42bc
000001b0: ca6d 173e a6fe 6ebe dc72 00bf 3771 53bd
000001c0: 0280 543e a785 893d 76b2 11bf ddac 84be
000001d0: 4525 21bd f4af 003c 9843 1a3c 457d c9bd
000001e0: 6e54 6f3e 8ab8 533d 7f77 51bd 0d7d 25bd
000001f0: ee15 e4bd 69af 413c 753e 96be e9fa aa3d
00000200: abf0 783e 6e58 22be 584c 4dbd a2be 883d
00000210: 42f3 3dbf d187 603d dc93 373e 6d31 2c3e
00000220: 35b7 d83d 7972 30be 39b1 093d 5c74 6bbd
00000230: d2e5 11bd bb70 0b3c 8a22 bcbd 04f2 88bd
00000240: 52da 0abe 8f6a a23e b528 3c3e a263 8fbd
00000250: 31e0 833e 2e59 c2be ee6a 533e d591 5d3e
00000260: b218 653e bbc4 26bf 94be 98be 730f a53d
00000270: fae0 2d3e f443 26bc e1af 6cbe 7e2e 7b3d
00000280: 1f69 bebc 38d2 ec3c 4ac9 aa3d b6a2 76bd
00000290: 1857 1f3f 4ad8 b1bd ffba e3bd 5d4e dabd
000002a0: 9da2 363c 3262 edbd 0ae1 88bd 38b7 e13c
000002b0: 157c 8fbb 82cd 823e 9833 70bd c909 a63d
000002c0: 0100 ee3e 16b2 9fbc 24a4 b63d 4195 3f3e
000002d0: ca91 333e 83da 5dbe 50d4 45bc 29f3 16be
000002e0: 1ea7 343e 0b4e 123e 570c ba3c c1cf 373c
000002f0: 57ad 7a3d 09f7 6c3e 1051 dfbf f8cc 06bb
00000300: b2ea 64be 693a bb3d c790 133e 5967 653c
00000310: 43b1 dc3c 559b 2abe 9b42 cfbe 79fa 02bf
00000320: eacc 4fbd 2996 e43d 0876 483e f901 8bbc
00000330: 3319 6c3e e098 c8bd 7d43 133f 5190 a83c
00000340: 582c 1abb 7c6f b53c 6eb8 b8bd 9881 773e
00000350: 0789 0a3d fa78 0fbf ecf6 6c3d 52e8 98bd
00000360: 472e 143e 59d3 d33d a798 10bc 0a03 65bd
00000370: 39ea 9dbd d6d9 253e a568 b13a b7ce 233e
00000380: 9a8f 07be a847 793e 0f40 86bb fdc6 f5bd
00000390: 46cf 9cbc c4eb 14bc d767 75bf 73ab 413d
000003a0: 8225 423c 642b 233e 5113 353e ec9f 32be
000003b0: 454e a0bb 127c c33d 23c1 533e f028 453e
000003c0: 7446 fc3c b942 63bb bd9a 19be 7646 dabd
000003d0: c8c6 3cbe 62c3 973c c854 23bd f410 50be
000003e0: 133a 5ebe b317 483e

l4.bias f4 [5]
-0.0865607 0.04705389 0.11284361 -0.10750184 0.067461066
00000000: bc46 b1bd 94bb 403d 8d1a e73d ed29 dcbd
00000010: 0729 8a3d

exp_avg f4 [250, 7]
-1.4651673e-07 1.04234296e-07 -8.963883e-08 1.6165913e-08 -1.02847544e-07 1.3863126e-07 3.713154e-08 -5.1988057e-08
1.2585039e-07 -2.8058713e-07 -3.8526062e-07 -2.7160075e-07 6.325563e-08 -1.2423125e-07 3.2127394e-07 1.3130018e-07
9.135495e-08 3.0892502e-07 -4.936651e-07 9.080096e-07 -9.393365e-08 3.603927e-08 1.04775935e-07 -7.2535514e-08
7.9915665e-08 -7.8373255e-08 9.8010894e-08 1.9178741e-07 2.5221277e-07 2.5465158e-07 2.1229067e-07 -3.510373e-08
4.1396837e-07 -2.6616362e-07 4.836811e-07 -5.7615196e-08 -4.999124e-08 9.300155e-08 4.341459e-08 -5.130956e-08
7.757572e-09 2.8794545e-07 -7.0497386e-08 1.4981845e-08 -7.9150674e-08 -2.6757396e-08 3.5145487e-08 -3.191761e-08
-3.7083545e-08 1.5964819e-08 4.171944e-08 -1.1477273e-08 -7.4032114e-09 -1.299266e-07 6.261573e-08 -8.392034e-08
-3.6911725e-08 2.4156876e-08 1.8278708e-07 5.5494915e-09 3.3191803e-08 -6.1478906e-09 4.5772865e-08 -1.5619564e-07
-4.7121114e-07 -1.5125545e-07 -1.5289149e-07 -5.585422e-08 8.49709e-07 3.300078e-08 -2.2915891e-07 -4.0854013e-07
7.595254e-08 1.551391e-07 -1.0098153e-07 6.0057886e-07 -2.7949847e-07 1.0618561e-07 1.1056788e-07 4.9493156e-08
2.6850113e-08 3.9984872e-08 -8.598063e-08 -6.1849987e-09 7.893215e-08 -8.971838e-08 -2.6245663e-08 8.708957e-08
3.2179432e-07 3.7060587e-08 1.06742934e-08 3.1741034e-09 -2.7188596e-08 3.2920713e-09 2.3337645e-08 8.173649e-08
2.3853516e-07 7.796482e-08 1.5933105e-07 6.60776e-08 1.7724751e-07 2.5076756e-07 9.028718e-07 -7.390108e-08
4.0929817e-07 -1.13319636e-07 1.3410647e-07 -3.5580943e-08 -2.455158e-08 5.0584188e-08 -1.8545882e-07 -6.919374e-08
9.089398e-08 -3.6605105e-08 3.309508e-07 5.12746e-07 -3.6874582e-07 1.9638186e-07 -1.2722724e-07 6.121872e-08
6.0619065e-08 1.3214091e-07 4.1652854e-08 8.032045e-07 -6.3245324e-07 1.0502504e-07 1.2534638e-08 1.4525734e-08
1.8405962e-07 1.1282484e-08 -2.833516e-07 -1.2661758e-07 -1.336874e-07 1.8305908e-08 3.0161218e-08 1.9270214e-08
4.5506603e-09 -1.0143235e-07 -1.021098e-08 -2.7435524e-08 1.540347e-07 -1.8489205e-09 -2.4468646e-08 -7.366751e-08
7.826984e-07 -3.569612e-07 -9.983684e-08 -1.3515498e-07 5.415073e-08 -2.1477263e-07 9.91506e-09 1.2203694e-07
-1.3408358e-07 1.5169407e-07 1.100899e-07 -4.4334392e-08 1.7224824e-07 -6.494233e-08 -7.2740015e-08 -3.2262875e-07
5.113213e-08 -4.941256e-07 -2.8854714e-07 5.903505e-07 1.8206109e-07 -3.5415349e-07 5.3595227e-07 -3.277754e-07
5.3339356e-08 -8.280773e-09 1.4272867e-07 8.025508e-08 -7.771904e-08 2.0616635e-07 2.9153739e-08 4.6633815e-08
-6.918252e-08 -5.9479044e-09 1.3795239e-08 1.2850016e-07 3.7346407e-08 3.091516e-09 -3.6633907e-08 -1.0194609e-07
2.5610495e-07 6.0100824e-08 3.1850016e-07 -1.3556946e-07 1.5980005e-08 4.969104e-08 -1.289299e-07 7.133313e-08
1.6190908e-08 -1.380784e-07 6.30845e-08 8.67767e-08 -9.390426e-08 1.2420435e-07 7.871323e-08 1.724036e-07
-6.352848e-08 2.0577428e-07 -8.231527e-09 -5.7031517e-08 1.3022981e-07 -1.4081759e-07 -2.7956162e-07 5.1052e-07
-2.4422644e-07 -2.9679093e-08 1.0770844e-08 -7.7733276e-08 -3.040003e-07 -1.1408317e-07 5.3144936e-07 -1.3977511e-07
2.8466886e-07 5.4464547e-08 -1.4042637e-07 2.4238818e-07 -3.478189e-08 1.05805995e-07 3.189895e-08 -2.7966742e-08
-3.0150435e-08 -2.0742268e-08 -7.093042e-08 2.1693252e-08 -6.6134724e-08 2.30567e-07 -4.561918e-08 -2.8091746e-08
2.7413216e-09 5.6748867e-08 2.551576e-07 7.0544655e-07 -2.7060184e-07 7.1234064e-07 -2.0556796e-07 9.946511e-10
-1.939811e-07 9.7255274e-08 3.2592214e-07 -1.9878604e-07 3.3657847e-07 3.5222985e-08 4.9878714e-08 -4.601982e-08
-6.6079984e-08 2.1488187e-07 -2.4790867e-07 -4.3076454e-09 8.4041596e-10 2.80527e-07 1.2043789e-07 6.34598e-08
00000000: 3652 1db4 69d7 df33 787f c0b3 38dd 8a32
00000010: 09dd dcb3 acda 1434 8f7a 1f33 7949 5fb3
00000020: 7e21 0734 9aa3 96b4 d1d5 ceb4 86d0 91b4
00000030: 26d7 8733 6d64 05b4 8e7b ac34 85fb 0c34
00000040: ea2e c433 55da a534 6884 04b5 f2bd 7335
00000050: 92b8 c9b3 99c9 1a33 2e01 e133 d2c4 9bb3
00000060: 1a9e ab33 274e a8b3 0f7a d233 1fee 4d34
00000070: dc67 8734 0cb7 8834 04f2 6334 f6c4 16b3
00000080: 613f de34 40e5 8eb4 50d6 0135 9474 77b3
00000090: f3b5 56b3 25b8 c733 d976 3a33 755f 5cb3
000000a0: 2a46 0532 ec96 9a34 5964 97b3 6db1 8032
000000b0: 8bf9 a9b3 23d8 e5b2 dff2 1633 c915 09b3
000000c0: ca45 1fb3 0223 8932 022f 3333 952d 45b2
000000d0: 565f feb1 f481 0bb4 5d77 8633 b237 b4b3
000000e0: df88 1eb3 8881 cf32 2144 4434 d8ad be31
000000f0: c68e 0e33 6b3d d3b1 cc97 4433 bbb6 27b4
00000100: c4fa fcb4 c868 22b4 7e2a 24b4 5de4 6fb3
00000110: 8f17 6435 bebc 0d33 b90e 76b4 5455 dbb4
00000120: 5a1b a333 5094 2634 2fdb d8b3 7737 2135
00000130: fa0d 96b4 2808 e433 5671 ed33 4d92 5433
00000140: 06a4 e632 d5bb 2b33 5aa4 b8b3 d383 d4b1
00000150: 6981 a933 33ab c0b3 d372 e1b2 ff05 bb33
00000160: 13c3 ac34 8c2c 1f33 0a62 3732 6b1f 5a31
00000170: 5b8c e9b2 bb3a 6231 0678 c832 1c87 af33
00000180: 0610 8034 9d6d a733 9614 2b34 8be6 8d33
00000190: 6d51 3e34 3ba1 8634 e15c 7235 8cb3 9eb3
000001a0: 83bd db34 215a f3b3 e8fe 0f34 a9d1 18b3
000001b0: 7fe5 d2b2 e741 5933 8822 47b4 a997 94b3
000001c0: 7e31 c333 bd37 1db3 88ad b134 a3a3 0935
000001d0: 0af8 c5b4 09dd 5234 f59b 08b4 5977 8333
000001e0: af2d 8233 9ee2 0d34 cce5 3233 cb9b 5735
000001f0: dbc5 29b5 208a e133 ec57 5732 db8c 7932
00000200: eca1 4534 e4d4 4132 8c1f 98b4 60f4 07b4
00000210: b68b 0fb4 1e3f 9d32 9c8a 0133 a687 a532
00000220: 085c 9c31 06d3 d9b3 5d6c 2fb2 5bab ebb2
00000230: bc64 2534 1b1d feb0 1f2f d2b2 2433 9eb3
00000240: a01a 5235 60a4 bfb4 e265 d6b3 1e1f 11b4
00000250: 5b93 6833 409c 66b4 e556 2a32 4209 0334
00000260: 9df8 0fb4 59e1 2234 906a ec33 2e6a 3eb3
00000270: 3cf3 3834 6c76 8bb3 3f35 9cb3 c235 adb4
00000280: 5f9c 5b33 0da4 04b5 9ee9 9ab4 9478 1e35
00000290: 927c 4334 7c22 beb4 5cde 0f35 1cf9 afb4
000002a0: 3e17 6533 3a43 0eb2 f540 1934 b258 ac33
000002b0: 7ee6 a6b3 935e 5d34 c06d fa32 6c4a 4833
000002c0: 7e91 94b3 525e ccb1 1a00 6d32 dbf9 0934
000002d0: cf66 2033 8672 5431 6857 1db3 75ed dab3
000002e0: cc7e 8934 c710 8133 54fe aa34 0d91 11b4
000002f0: 6744 8932 e06b 5533 fb6f 0ab4 ce2f 9933
00000300: 2f14 8b32 b442 14b4 1279 8733 ff59 ba33
00000310: 6aa8 c9b3 085d 0534 0e09 a933 f11d 3934
00000320: 276d 88b3 cef2 5c34 a36a 0db2 d1f2 74b3
00000330: 4cd5 0b34 a533 17b4 a816 96b4 ab0a 0935
00000340: 3a1e 83b4 04f1 feb2 ac0a 3932 52ee a6b3
00000350: 7c35 a3b4 e3fd f4b3 eca8 0e35 1715 16b4
00000360: 97d4 9834 67ec 6933 1bc8 16b4 9421 8234
00000370: 1863 15b3 7637 e333 4401 0933 843b f0b2
00000380: c17e 01b3 bb2c b2b2 6952 98b3 f757 ba32
00000390: f305 8eb3 c691 7734 d2ee 43b3 674e f1b2
000003a0: d761 3c31 0abc 7333 98fc 8834 eb5d 3d35
000003b0: 3c47 91b4 ad37 3f35 17ba 5cb4 2db4 8830
000003c0: 1e49 50b4 a7da d033 66fa ae34 e471 55b4
000003d0: feb2 b434 1548 1733 3a3a 5633 54a7 45b3
000003e0: dbe7 8db3 47ba 6634 4f18 85b4 7302 94b1
000003f0: 0403 6730 569b 9634 b751 0134 6547 8833

exp_avg_sq f4 [250, 7]
2.8434453e-11 8.4993655e-13 4.1719093e-12 1.3117837e-12 8.560461e-11 4.014268e-12 4.93709e-12 9.871061e-13
8.6992284e-13 1.2621328e-11 1.3332276e-11 5.5237436e-11 1.7610853e-13 7.5483814e-11 3.5815007e-11 3.6281451e-13
3.5163498e-12 1.09539565e-11 2.3355187e-10 1.888816e-10 6.9611087e-13 1.4750915e-12 2.481914e-13 4.3035354e-12
4.983964e-12 4.643491e-12 3.8335134e-12 2.5800874e-11 2.7680741e-11 1.0123766e-12 6.900448e-11 1.3093982e-12
3.6669437e-10 1.077409e-10 4.98654e-11 3.0633815e-13 2.520167e-12 1.6133076e-11 2.590572e-12 1.5586787e-11
1.2915086e-12 2.112096e-11 1.483493e-12 3.912861e-13 2.1093474e-12 1.5781346e-13 3.4848524e-12 6.167978e-13
9.6906824e-14 1.432366e-12 1.1974375e-13 8.7053715e-13 2.2656304e-13 4.2302897e-12 3.5568187e-12 6.856815e-13
1.342669e-13 4.152421e-12 1.8405338e-11 4.25049e-12 4.99133e-12 7.456621e-12 1.2246871e-11 2.0903006e-10
2.2793177e-11 2.2035818e-10 1.480075e-11 9.7024715e-11 8.961948e-10 9.9790856e-11 2.6835943e-11 3.3891584e-11
1.06216815e-11 1.3942354e-12 1.6162401e-11 8.4331354e-11 1.2733163e-11 2.5992771e-12 6.906171e-12 6.1918396e-13
7.564392e-13 7.53649e-12 2.6324641e-12 3.6169657e-12 3.1744538e-12 3.5481032e-12 2.4271362e-12 1.6265603e-12
1.9554687e-10 2.4975928e-11 1.8652881e-11 1.4257082e-11 3.755071e-12 2.668223e-12 3.954175e-13 1.6348364e-11
1.3089882e-11 4.9615013e-12 2.425425e-11 5.5691246e-12 6.9636776e-11 5.5288153e-11 1.1393239e-10 2.4354902e-12
4.614361e-11 5.4694313e-13 1.6021896e-12 2.3381479e-13 2.6533819e-14 1.7149605e-12 6.4683757e-12 2.2832682e-13
4.0668332e-12 2.1567546e-12 2.6879327e-11 4.2647504e-11 3.549137e-11 2.5840465e-11 1.1767167e-12 2.0287156e-11
4.0191145e-12 1.525612e-11 3.862564e-12 8.559896e-10 3.1132122e-10 1.9085705e-11 1.5722589e-12 4.625926e-12
1.25793265e-11 2.4357673e-12 3.0089178e-11 2.6881533e-12 1.1558325e-11 8.268844e-14 1.0134611e-13 1.4941886e-12
1.6236636e-12 7.4676924e-13 3.3190874e-12 1.0385144e-12 9.830646e-12 1.8182628e-12 1.5173926e-11 3.9165897e-12
1.6724253e-10 2.4747863e-11 6.417328e-12 1.8586048e-11 3.0418712e-12 2.7229205e-11 2.8312292e-13 2.3905669e-11
8.979831e-11 1.1472084e-11 2.0185317e-11 5.30335e-13 1.1302112e-10 1.4355448e-12 1.2198677e-11 7.399449e-11
2.4822719e-11 9.668794e-11 1.3754059e-11 1.9241779e-10 1.1594145e-11 1.7209424e-10 1.1289355e-10 1.9865649e-11
3.0079775e-12 1.2270727e-12 4.7604906e-12 6.7648496e-13 8.802873e-12 4.7500645e-12 1.3215738e-12 1.5782716e-12
3.2834038e-13 2.321455e-13 3.12211e-13 2.2541973e-12 7.2886846e-14 1.436457e-12 1.3485662e-13 1.5075032e-12
2.4761129e-11 2.4130294e-12 4.2530996e-11 3.1652068e-12 3.4653514e-13 1.2226073e-12 1.076239e-12 1.3891087e-12
3.0357786e-13 5.9026346e-11 3.7475925e-12 6.1203304e-12 1.8023659e-12 3.5002448e-12 7.335797e-12 3.8447496e-12
2.3317952e-13 2.7486008e-12 4.4041207e-12 6.714416e-13 5.812433e-12 1.8507201e-11 3.5951506e-11 3.6997513e-11
2.0643477e-11 4.3690618e-13 2.4350387e-12 1.2898002e-13 1.4283433e-11 6.3132216e-12 1.3163415e-10 1.9939465e-11
1.8562471e-11 3.256681e-11 8.284448e-13 8.6176524e-11 6.1086097e-12 6.548946e-11 3.1553846e-11 1.1039056e-12
1.0034481e-11 5.5201384e-13 8.143282e-12 1.0878934e-12 4.530264e-12 1.3287058e-11 2.5022272e-13 5.5703825e-13
6.2225236e-13 1.5111275e-12 2.5612077e-11 6.7000315e-11 1.5526412e-11 5.3098876e-11 4.0580084e-11 2.2389406e-11
4.6959194e-12 3.720323e-12 3.796059e-11 1.149176e-10 3.9279614e-11 3.4232452e-12 3.1944848e-12 3.0473506e-12
4.218946e-13 4.8626023e-11 4.9492396e-11 3.1562166e-12 2.6008815e-13 1.07823386e-11 6.9633297e-12 2.169968e-12
00000000: b21c fa2d 623c 6f2b 38c9 922c fd9d b82b
00000010: 1c3f bc2e 503d 8d2c 5ab5 ad2c 3fec 8a2b
00000020: 8cdc 742b 6809 5e2d 3c8b 6a2d d3ef 722e
00000030: d447 462a 9cfd a52e 1d84 1d2e 153f cc2a
00000040: ed70 772c 3cb4 402d 8165 802f 72ad 4f2f
00000050: 13f0 432b c699 cf2b 26b8 8b2a cd6a 972c
00000060: 8f5b af2c d960 a32c 38e1 862c 67f2 e22d
00000070: 7d7b f32d b67a 8e2b 12be 972e 0b48 b82b
00000080: a597 c92f bcec ec2e 734f 5b2e fb73 ac2a
00000090: 4b57 312c 75e8 8d2d 994b 362c 531a 892d
000000a0: 80c3 b52b 2cc8 b92d 78c8 d02b 4546 dc2a
000000b0: a06e 142c a2ae 312a 8539 752c f79c 2d2b
000000c0: fb36 da29 6d96 c92b c9d1 062a d008 752b
000000d0: 5a16 7f2a 10d7 942c f349 7a2c 8f00 412b
000000e0: cd2b 172a af19 922c 23e5 a12d 038d 952c
000000f0: e79d af2c a32d 032d 0173 572d bbd4 652f
00000100: ac7d c82d 5049 722f 5330 822d 0f5c d52e
00000110: 1a58 7630 4271 db2e 2c0d ec2d 880e 152e
00000120: cddb 3a2d a038 c42b 7e2a 8e2d 5572 b92e
00000130: 1101 602d 6ae8 362c 42fd f22c e848 2e2b
00000140: 30eb 542b 5595 042d 423e 392c 7685 7e2c
00000150: e061 5f2c f2ac 792c 66cb 2a2c 03eb e42b
00000160: 8d01 572f cab0 db2d 8e12 a42d 30d0 7a2d
00000170: ac1e 842c 6fc2 3b2c ab99 de2a 3ecd 8f2d
00000180: 9647 662d 3b91 ae2c b757 d52d 37f2 c32c
00000190: 0522 992e ed28 732e 3c8a fa2e e461 2b2c
000001a0: 16f1 4a2e 68f3 192b f77c e12b 43a0 832a
000001b0: d2fe ee28 f75b f12b f395 e32c 5d89 802a
000001c0: c716 8f2c a3c4 172c dd6e ec2d d290 3b2e
000001d0: bb17 1c2e 8e4b e32d b09b a52b 9d72 b22d
000001e0: f768 8d2c ba31 862d e2e6 872c ea4a 6b30
000001f0: 9126 ab2f 30e1 a72d 9946 dd2b a3c2 a22c
00000200: 404c 5d2d e266 2b2c 6755 042e 7729 3d2c
00000210: 1156 4b2d a432 ba29 0e36 e429 d149 d22b
00000220: a582 e42b 6532 522b 5d8f 692c 6d28 922b
00000230: 4bf1 2c2d d2e5 ff2b a578 852d 81cd 892c
00000240: 96e2 372f 3caf d92d 27ca e12c 0f7c a32d
00000250: 7b0d 562c b882 ef2d 5062 9f2a c846 d22d
00000260: f477 c52e acd1 492d 4b8d b12d aa46 152b
00000270: 3c89 f82e f408 ca2b f599 562d 32b7 a22e
00000280: cb57 da2d 799e d42e c6f6 712d cb90 532f
00000290: 63f7 4b2d 3938 3d2f 6b41 f82e 77bd ae2d
000002a0: e8aa 532c f4b1 ac2b b07e a72c e169 3e2b
000002b0: 9edc 1a2d c720 a72c b7fe b92b 3a1f de2b
000002c0: d6d6 b82a b1af 822a 59c2 af2a 02a0 1e2c
000002d0: 6820 a429 d129 ca2b c6d5 172a 8729 d42b
000002e0: 1bcd d92d 46cd 292c a50d 3b2e 4cbb 5e2c
000002f0: fa14 c32a 1211 ac2b 9977 972b ea7f c32b
00000300: 2ee6 aa2a e1cc 812e 50db 832c 0957 d72c
00000310: 13a9 fd2b ce4e 762c 7e0d 012d 6d46 872c
00000320: b644 832a 646a 412c cbf4 9a2c 77fe 3c2b
00000330: be81 cc2c 83ca a22d cc1d 1e2e 7fb7 222e
00000340: fa94 b52d d1f4 f52a c259 2b2c f637 112a
00000350: dd46 7b2d 7220 de2c b8bb 102f af63 af2d
00000360: f846 a32d f83a 0f2e bd2f 692b 1281 bd2e
00000370: 77ed d62c 4a03 902e 79c6 0a2e 645c 9b2b
00000380: 4987 302d ca60 1b2b 1542 0f2d 7e1b 992b
00000390: fe64 9f2c 97bf 692d e5dc 8c2a d6ca 1c2b
000003a0: 0226 2f2b 1bac d42b 4549 e12d d355 932e
000003b0: 5f92 882d 0588 692e 1d79 322e 76f0 c42d
000003c0: 1539 a52c b1e5 822c d3f3 262e dcb4 fc2e
000003d0: eac0 2c2e b4e3 702c b9ca 602c 3070 562c
000003e0: 6b81 ed2a 09dc 552e 7cab 592e 5819 5e2c
000003f0: a76a 922a 56af 3d2d 1900 f52c abb2 182c
