motion_planning/NN_model/models/single_101_left.pt (torch, 505434 bytes, 24 tensors)

l1.weight f4 [250, 7]
0	0xbd9af444	-0.07566121
1	0x3ed83906	0.42231005
2	0x3d8a2633	0.06745567
3	0x3d20b44f	0.039234456
4	0xbebe80a7	-0.3720753
5	0x3e914a3c	0.2837695
6	0x3f0bc599	0.54598385
7	0x3d213b55	0.039363224
8	0xbe05f9b7	-0.1308354
9	0x3d881e21	0.06646372
10	0xbbdace24	-0.006677406
11	0x3eaf6a8e	0.34260982
12	0x3f0ef1c8	0.5583768
13	0xbe97199a	-0.2951172
14	0xbe0386c5	-0.12844379
15	0x3f159d49	0.58443123
16	0x3eae4a1d	0.3404092
17	0xbd25ee05	-0.040510196
18	0xbed7c720	-0.42144108
19	0x3e33dcdb	0.17564718
20	0x3ee8f954	0.45502722
21	0xbb15a18d	-0.0022831887
22	0x3d75255b	0.059850078
23	0xbc103790	-0.00880231
24	0x3ad1059c	0.0015947106
25	0xbf354a17	-0.7081618
26	0xbbd474a1	-0.00648363
27	0xbf306d51	-0.68916804
28	0x3e31b47c	0.17354006
29	0x3d96e99c	0.07368776
30	0xbce363b2	-0.0277575
31	0x3bb8e939	0.0056430367
32	0x3eab246a	0.3342622
33	0xbdac19ef	-0.08403384
34	0x3eaad912	0.33368737
35	0xbebf1f4b	-0.37328562
36	0x3e8800c6	0.2656309
37	0x3e0b04db	0.13576071
38	0x3cc643fa	0.024202336
39	0x3e21508c	0.15753382
40	0x3ef49277	0.47767994
41	0x3e900937	0.2813203
42	0xbee6e9c2	-0.45100218
43	0xbe01f28d	-0.12690182
44	0x3b4232cc	0.0029632328
45	0xbc097286	-0.008389121
46	0x3f0ef00e	0.55835044
47	0x3ed1eb7c	0.40999973
48	0xbb8c787f	-0.004286825
49	0xbe84fc2f	-0.2597365
50	0x3e4be6ad	0.19912215
51	0x3dfd05f7	0.12354653
52	0x3d2c5041	0.042068724
53	0x3e201678	0.15633571
54	0xbe9ec77c	-0.3101157
55	0xbd74e3bd	-0.0597875
56	0x3ecb5448	0.3971274
57	0xbee2a921	-0.4426966
58	0xbe8b2d25	-0.2718288
59	0xbd8129e0	-0.06306815
60	0x3d9c6d47	0.076380305
61	0x3f0cda16	0.5502027
62	0x3d99a595	0.075022854
63	0xbe9ef88d	-0.31049004
64	0xbf0f31ed	-0.55935556
65	0xbe5bad89	-0.21452917
66	0xbc5cb83c	-0.013471659
67	0xbd88235a	-0.06647368
68	0x3f0ebaff	0.55754083
69	0xbed96f6c	-0.4246782
70	0x3e1dfe4d	0.1542904
71	0xbecad7f7	-0.39617893
72	0xbeb219b4	-0.34785235
73	0xbc9980fe	-0.018738266
74	0xbec93a2f	-0.39302203
75	0x3d7e6246	0.06210544
76	0x3e341520	0.17586184
77	0x3df8aa67	0.12141877
78	0x3eafd33e	0.34340852
79	0x3e1cbcbd	0.15306373
80	0xbcaa1d46	-0.020765912
81	0xbf248164	-0.64259934
82	0xbe8429a8	-0.2581303
83	0xbe93e320	-0.2888422
84	0x3eeb2ed4	0.45934165
85	0x3e6d35c2	0.23165038
86	0xbe7b06af	-0.24514268
87	0x3d21954d	0.039449025
88	0x3ef80e08	0.48448205
89	0x3bdafa06	0.006682637
90	0xbe0d5833	-0.13803177
91	0xbd018eeb	-0.031630438
92	0xbe475030	-0.19464183
93	0xbeabaf27	-0.33532068
94	0xbadf88b5	-0.0017054292
95	0x3f1707a4	0.58996034
96	0xbe729dfd	-0.2369308
97	0x3ebfc67c	0.3745612
98	0xbe53ab7b	-0.20670883
99	0xbea6cc32	-0.32577664
100	0xbece4a60	-0.4029112
101	0x3d0d13dc	0.034442768
102	0x3f1fbfe4	0.62402177
103	0x3d3835d2	0.044973202
104	0x3ea89ded	0.32932988
105	0xbce13645	-0.027491698
106	0x3e7be51a	0.24599114
107	0x3bbdcca2	0.0057922164
108	0xbc93b137	-0.018028839
109	0xbeaffc26	-0.34372061
110	0x3e06b5fd	0.1315536
111	0xbf0c5cad	-0.5482891
112	0x3d10688a	0.035255946
113	0xbe8fc194	-0.28077376
114	0xbbc0aa62	-0.005879686
115	0xb9de206d	-0.000423673
116	0x3ebbda7c	0.36690128
117	0x3c457fa5	0.012054359
118	0x3e323520	0.17403078
119	0x3c6c3bb5	0.014418532
120	0xbe93f25c	-0.28895843
121	0x3ba848ef	0.0051356475
122	0x3c09bffe	0.008407591
123	0x3d7d082d	0.061775375
124	0xbbaca0e9	-0.0052682054
125	0x3f05f391	0.5232478
126	0xbd1b6ff8	-0.03794858
127	0xbd352179	-0.044221375
128	0x3d512d65	0.051068682
129	0x3b2b96f2	0.00261825
130	0xbdded55f	-0.10880541
131	0x3e951ede	0.29125112
132	0xbf1046ee	-0.5635823
133	0xbeb495b0	-0.35270452
134	0xbea656d9	-0.32488135
135	0x3d77a9c8	0.06046465
136	0x3ca325a5	0.019915411
137	0x3ed5f25d	0.4178647
138	0x3ee2951c	0.44254386
139	0x3dd57494	0.10422626
140	0xbf35c97f	-0.71010584
141	0xbd631850	-0.055443108
142	0xbdddda60	-0.10832667
143	0xbcac13f8	-0.021005616
144	0x3ee8e62d	0.4548811
145	0xbe79299a	-0.24332276
146	0xbd977763	-0.07395818
147	0x3dc63df8	0.09679788
148	0xbe01d56d	-0.12679072
149	0x3e231b06	0.15928277
150	0x3d296efa	0.0413656
151	0x3f224daf	0.63399786
152	0xbddf8422	-0.10913874
153	0xbdfc0608	-0.12305838
154	0x3c652010	0.013984695
155	0xbf19f37c	-0.6013715
156	0x3ec60132	0.38672787
157	0x3ca0cc77	0.019628746
158	0x3ede82f1	0.43459275
159	0xbcd9beda	-0.026580263
160	0xbd9edfb1	-0.077575095
161	0x3de78b49	0.113058634
162	0xbeb46a5a	-0.3523739
163	0xbd2eb86b	-0.042656343
164	0xbb7c5ed5	-0.0038508673
165	0xbdd41781	-0.103560455
166	0x3cc11d36	0.0235735
167	0x3f062420	0.5239887
168	0xbea853d6	-0.32876462
169	0x3e20d050	0.15704465
170	0xbdf02e54	-0.117275864
171	0xbd06e298	-0.03293094
172	0xbeb1391d	-0.34613886
173	0x3f1afe28	0.6054406
174	0x3e9739d1	0.29536298
175	0x3e7ad7d5	0.24496396
176	0x3d8f9fdc	0.07012913
177	0xbe27cb96	-0.16386256
178	0xbb8c0a49	-0.004273687
179	0xbe14d757	-0.1453527
180	0x3d2253da	0.03963075
181	0x3e882c5f	0.26596352
182	0x3eba816f	0.36426875
183	0x3ed94309	0.42433956
184	0x3e923ed5	0.28563562
185	0xbb983daa	-0.004646023
186	0x3e5194ab	0.20466869
187	0x3e9d6998	0.30744624
188	0x3c965e44	0.018355496
189	0xbe1437e5	-0.14474447
190	0xbd9d8d21	-0.07692934
191	0xbcf9ad4b	-0.03047814
192	0x3e36bc30	0.17845225
193	0x3dd4587c	0.103684396
194	0x3e9fddbd	0.3122386
195	0xbd853452	-0.0650412
196	0x3810a7f1	3.4488683e-05
197	0x3c102f33	0.008800316
198	0xb8980649	-7.2490955e-05
199	0xba45dde5	-0.00075480185
200	0xbe53506a	-0.20636144
201	0x3c998dfe	0.018744465
202	0xbf08931f	-0.5334949
203	0x3e2ed3c5	0.17072971
204	0xbeaa08ff	-0.33209988
205	0xbe4202d2	-0.18946388
206	0xbe67f402	-0.22651675
207	0x3e312537	0.17299353
208	0xbec142e2	-0.3774634
209	0xbea3bc5f	-0.31979653
210	0xbe06581f	-0.13119553
211	0x3e993092	0.2991987
212	0xbd38e640	-0.04514146
213	0x3b7e6264	0.003881597
214	0x3f02d26e	0.5110234
215	0x3e87521a	0.26429826
216	0xbe5b8256	-0.21436438
217	0xbeaf0985	-0.3418695
218	0x3e030638	0.12795341
219	0x3c4cb5d8	0.012494527
220	0x3dd48308	0.10376555
221	0xbef0ee16	-0.47056645
222	0xbe961f33	-0.29320678
223	0x3bc68a88	0.0060589947
224	0xbd45d11c	-0.048295125
225	0x3dd12f26	0.10214071
226	0x3e68ff0d	0.22753544
227	0xbb16c13e	-0.0023003365
228	0xbdaad255	-0.08340899
229	0xbedc3df8	-0.43016028
230	0xbf038eea	-0.51389945
231	0x3e8dbe9b	0.27684483
232	0x3ed952d8	0.42446017
233	0x3e525495	0.20540078
234	0xbb237fc9	-0.0024947992
235	0x3da1c7bb	0.07899424
236	0x3ba3072b	0.0049752197
237	0x3eba3d06	0.36374682
238	0x3e1e73dd	0.15473886
239	0x3ee42297	0.4455764
240	0x3e743912	0.23849896
241	0xbcd25cf0	-0.025679082
242	0xbeeb5c67	-0.45968935
243	0x3e3ef3b4	0.18647653
244	0x3de5a900	0.11213875
245	0x3de72411	0.11286176
246	0x3e221941	0.15829946
247	0x3ce7663a	0.028246988
248	0xbca195e2	-0.01972479
249	0xbe8bb124	-0.27283585
250	0xbeb4b187	-0.35291693
251	0xbe906802	-0.28204352
252	0xbe302043	-0.17199807
253	0x3d74c890	0.059761584
254	0xbebec987	-0.37263128
255	0xbda48168	-0.08032495

l1.bias f4 [250]
0	0x3db4b94f	0.08824407
1	0x3e914dea	0.28379756
2	0xbe31253c	-0.1729936
3	0xbea4bcb8	-0.3217523
4	0xbddb5633	-0.107098006
5	0xbe25d584	-0.16194731
6	0x3eb09842	0.34491163
7	0x3ec107c8	0.3770125
8	0xbdf2499b	-0.118304454
9	0x3edad52e	0.42740768
10	0xbcbcc186	-0.023041498
11	0xbe8ad955	-0.27118936
12	0x3dadd418	0.08487719
13	0xbeec8bc6	-0.4620039
14	0xbe72f8dd	-0.23727746
15	0x3d07950b	0.033101123
16	0x3e38d81d	0.1805119
17	0x3eccb5cc	0.3998245
18	0x3e82c05b	0.2553738
19	0x3e90da4d	0.2829155
20	0xbf3ade0b	-0.7299506
21	0xbdae3a89	-0.085072584
22	0xbeb4b145	-0.35291496
23	0xbcf7bbf1	-0.030240985
24	0x3f09dabf	0.53849405
25	0x3eca5e94	0.39525282
26	0x3ed13f8b	0.40868792
27	0x3d81806e	0.06323324
28	0xbe3a69fc	-0.18204492
29	0x3e389855	0.1802686
30	0x3d50c25c	0.050966606
31	0x3e6489b7	0.22318159
32	0x3e1ce0d8	0.15320146
33	0xbdbf0b7d	-0.09328363
34	0x3dd8cd78	0.10586065
35	0x3edf6553	0.43631992
36	0x3dc137ba	0.09434457
37	0xbe925933	-0.2858368
38	0x3efd4904	0.4946977
39	0xbbcdd5d4	-0.006281594
40	0xbd88d83b	-0.06681868
41	0xbf00f825	-0.5037864
42	0x3ec18165	0.37794033
43	0x3ee8749f	0.45401475
44	0x3c5bf0c9	0.013424107
45	0x3e0d48eb	0.13797347
46	0x3e8c9046	0.27453822
47	0x3eaae7d8	0.33380008
48	0x3d1ca343	0.038241636
49	0x3e293668	0.1652466
50	0xbe66bf00	-0.22533798
51	0xbe3869fe	-0.18009183
52	0xbe80f817	-0.25189278
53	0x3eab870a	0.33501464
54	0x3bdeab6e	0.0067953384
55	0x3eb56c1d	0.35434046
56	0xbca89411	-0.020578416
57	0x3ec10ce3	0.37705144
58	0xbe987bbf	-0.2978191
59	0x3ed5653a	0.41678792
60	0x3eba4f7d	0.3638877
61	0xbeed8852	-0.46393067
62	0xbd396013	-0.04525764
63	0x3e923ca5	0.28561893
64	0x3df75464	0.12076643
65	0xbedd7a64	-0.4325744
66	0x3d9bf0ae	0.076142654
67	0xbe7cb1b6	-0.24677166
68	0x3e66d3ef	0.22541784
69	0x3d91cf72	0.07119645
70	0x3eb6a7b8	0.35674834
71	0xbc621f7d	-0.013801453
72	0xbe4888e9	-0.19583477
73	0x3e953406	0.29141253
74	0x3ebb8c99	0.36630705
75	0xbe45a1ad	-0.19299956
76	0xbeef6bde	-0.46761984
77	0x3de846a4	0.11341599
78	0xbe99f798	-0.30071712
79	0x3e5e5e50	0.21715665
80	0xbe81eecf	-0.2537751
81	0x3f01327d	0.50467664
82	0x3ecbc470	0.39798307
83	0x3ed6b6f8	0.4193647
84	0xbdfef2ee	-0.12448679
85	0xbeb60838	-0.35553145
86	0xbe021480	-0.12703133
87	0xbd4bf696	-0.04979571
88	0x3e7d1e4a	0.24718586
89	0x3d8d1074	0.06887904
90	0xbe5aeb53	-0.21378832
91	0x3ef50421	0.47854713
92	0x3e5e77ca	0.21725383
93	0x3e171230	0.14753032
94	0xbd46f270	-0.04857105
95	0x3cb91a25	0.022595474
96	0x3e8898db	0.2667912
97	0x3e959e76	0.2922246
98	0xbe78ba5b	-0.24289839
99	0x3e9b938f	0.30386016
100	0x3e96e1c1	0.29469112
101	0x3e30f526	0.17281017
102	0xbe725961	-0.23666908
103	0x3ec5aae0	0.3860693
104	0xbf0f454a	-0.559651
105	0x3eb7fa7e	0.35933298
106	0xbf587ac7	-0.84562343
107	0xbecb12ea	-0.39662868
108	0xbe735b33	-0.23765258
109	0x3e844762	0.2583571
110	0x3e1e5045	0.15460308
111	0x3ebd2cb4	0.36948168
112	0xbe6072b6	-0.21918759
113	0x3e252a81	0.16129495
114	0xbe887548	-0.26651978
115	0x3e81bad2	0.25337845
116	0x3d09a115	0.033600885
117	0x3d48b0e2	0.048996814
118	0x3e9f487e	0.31109995
119	0x3eae97f7	0.34100315
120	0xbe108df7	-0.14116655
121	0x3e7b205a	0.2452406
122	0x3d8cb933	0.068712614
123	0x3f0549d7	0.52065796
124	0x3cc3b98f	0.023892192
125	0x3ed312d1	0.41225293
126	0x3e14b388	0.1452161
127	0xbe0a3f88	-0.13500798
128	0x3cca3550	0.024683625
129	0xbe2b7f24	-0.16747719
130	0xbf3006c3	-0.6876032
131	0x3e20ae85	0.15691574
132	0xbd7115b8	-0.058858603
133	0x3d9829bf	0.074298374
134	0x3eacd478	0.3375585
135	0x3ecad4d7	0.3961551
136	0xbcafdeb8	-0.021468505
137	0x3e7d9dc7	0.24767219
138	0x3eb430bc	0.3519343
139	0x3ed8ba37	0.4232957
140	0x3e070527	0.13185559
141	0x3e29995b	0.16562407
142	0x3e3b283a	0.18277064
143	0xbde0712c	-0.10959086
144	0xbd00ce45	-0.031446714
145	0xbf2c5b4e	-0.6732682
146	0xbd554d84	-0.052075878
147	0x3ea7cfc5	0.32775703
148	0x3e8d7370	0.27627134
149	0x3ea4d5c6	0.32194346
150	0xbecac123	-0.39600477
151	0xbdd25778	-0.102705896
152	0xbc9f4045	-0.019439826
153	0x3e778228	0.24170744
154	0x3dd30518	0.10303706
155	0x3e8b20d3	0.2717348
156	0x3e933761	0.28753188
157	0x3ed801da	0.42188913
158	0xbe326146	-0.1741992
159	0x3db3b45f	0.087746374
160	0xbe41e7dd	-0.18936105
161	0x3bf9abaf	0.007619343
162	0xbe5862fe	-0.21131513
163	0x3e4a1f9c	0.1973862
164	0xbc616f49	-0.013759443
165	0xbe18182f	-0.14852975
166	0xbdfe87e1	-0.124282606
167	0xbecee12b	-0.40406165
168	0x3ed62fbe	0.418333
169	0xbf148758	-0.5801902
170	0xbc4bde21	-0.012443096
171	0x3f0be370	0.5464392
172	0x3dce06d9	0.100599
173	0x3ecf5024	0.4049083
174	0x3e3c73cc	0.18403548
175	0x3e486cd0	0.19572759
176	0xbeca94c8	-0.39566636
177	0x3da3e785	0.08003143
178	0x3df533f4	0.119728
179	0x3ebd2f24	0.36950028
180	0x3eaa60ea	0.33277065
181	0xbefc09f3	-0.4922634
182	0xbe878f59	-0.26476553
183	0x3ebed449	0.37271336
184	0x3da2c873	0.07948389
185	0x3eae4c00	0.34042358
186	0xbde08d9d	-0.109645106
187	0xbe850a74	-0.25984538
188	0x3e9a4660	0.30131817
189	0x3e39feaf	0.1816356
190	0xbcb8f6f7	-0.0225787
191	0x3e03a7ac	0.1285693
192	0x3e9ca788	0.30596566
193	0xbe9f0b07	-0.310631
194	0x3d94b9ed	0.07262025
195	0xbebd84ca	-0.37015373
196	0x3e862f79	0.26208094
197	0x3ef4dd6c	0.4782518
198	0x3cc37efe	0.023864266
199	0x3e9391d7	0.28822204
200	0x3dc5e9c4	0.09663728
201	0xbe38caaa	-0.1804606
202	0xbd3c7416	-0.046009146
203	0xbf1e8f8f	-0.61937803
204	0x3f03ee6b	0.5153567
205	0xbeaec7c2	-0.34136778
206	0x3e2f8d83	0.17143826
207	0x3dac47ab	0.08412107
208	0x3e25cc79	0.16191281
209	0x3ebb603a	0.36596853
210	0xbce94206	-0.028473865
211	0xbf004b52	-0.5011493
212	0xbe99ecd9	-0.30063513
213	0xbbcc901e	-0.006242766
214	0x3b201f9c	0.0024432903
215	0x3eac40d5	0.33643213
216	0xbb61daad	-0.0034462616
217	0x3e62f1a5	0.22162493
218	0x3def6987	0.116900496
219	0x3ece6bf8	0.4031675
220	0xbe0c0a72	-0.1367586
221	0xbe696c8d	-0.22795315
222	0xbee04d73	-0.4380909
223	0x3ddc39c1	0.10753203
224	0x3db76dc1	0.08956481
225	0xbd5448b1	-0.051827136
226	0x3dd9b9b3	0.106311224
227	0xbeb3848f	-0.35062072
228	0xbe98766e	-0.29777855
229	0xbbee616b	-0.0072747967
230	0xbd46e3ee	-0.048557214
231	0xbdabf268	-0.08395845
232	0x3e78cf31	0.24297787
233	0xbec49387	-0.38393804
234	0x3dbd1826	0.092331216
235	0x3daee8d4	0.08540502
236	0x3db06701	0.086133964
237	0xbdc7af3b	-0.097502194
238	0x3eb8d72d	0.36101666
239	0x3d85b16a	0.0652798
240	0x3d868241	0.06567813
241	0x3e35f663	0.1776977
242	0x3ce7ebc9	0.028310673
243	0x3d32cea9	0.043654118
244	0x3d95a060	0.0730598
245	0x3eda153e	0.42594332
246	0x3e8c4597	0.27396843
247	0x3edee403	0.43533334
248	0xbe98a858	-0.29815936
249	0xbe6a234e	-0.2286503

l2.weight f4 [130, 250]
0	0x3debbcdb	0.11510631
1	0xbdeff875	-0.11717311
2	0xbd7848b1	-0.0606162
3	0xbd198d9c	-0.037488565
4	0x3dd28985	0.10280136
5	0x3db8db87	0.090262465
6	0xbcb601dc	-0.022217683
7	0xbd517b9d	-0.051143277
8	0xbdc007d2	-0.093764916
9	0xbcc02030	-0.023452848
10	0x3b63a743	0.0034737147
11	0xbc7090d3	-0.014682966
12	0x3d0331d1	0.03202993
13	0xbe3d0eec	-0.18462723
14	0xbda0d4e9	-0.078531094
15	0xbd10f978	-0.035394162
16	0x3c9f8d32	0.019476507
17	0x3df62aae	0.12019859
18	0xbd922a86	-0.07137017
19	0xbd6bc827	-0.057563927
20	0xbddb1364	-0.10697058
21	0x3dd32a2a	0.103107765
22	0x3d8bb5c4	0.068217784
23	0xbd97a36e	-0.074042186
24	0xbd5c7c97	-0.053829756
25	0x3d3e33ed	0.04643624
26	0x3c9c0503	0.019045359
27	0xbdf249f6	-0.11830513
28	0x3cd0b667	0.025477601
29	0xbc4aa94a	-0.012369463
30	0x3cc3f4d5	0.023920456
31	0x3d008034	0.031372264
32	0xbdb6b552	-0.08921303
33	0x3dfc876f	0.123305194
34	0xbd9e2b3a	-0.077230886
35	0x3d99e868	0.07515031
36	0x3cadc98d	0.021214271
37	0x3c7f0e53	0.01556738
38	0x3beda250	0.007252015
39	0xbc1bb081	-0.009502531
40	0xbdbc2b85	-0.09187988
41	0xbb8fc1b1	-0.0043871035
42	0x3db9716a	0.09054835
43	0xbd83fdeb	-0.064449154
44	0xbcc41d6e	-0.023939814
45	0x3d82b6d8	0.06382531
46	0x3b206135	0.0024472002
47	0x3b928549	0.0044714552
48	0x3e02bb33	0.12766723
49	0xbcddffe5	-0.02709956
50	0x3db7aa62	0.08968045
51	0x3c8562b1	0.016282411
52	0x3d641628	0.055685192
53	0xbca4d406	-0.020120632
54	0x3ce74cf0	0.028234929
55	0xbc134f85	-0.008991127
56	0x3c21963a	0.009862477
57	0xbd22f29d	-0.039782155
58	0x3d53f7d7	0.05175003
59	0xbcb4e5a5	-0.02208216
60	0x3db964ae	0.09052406
61	0x3e25c060	0.16186666
62	0x3e76bf1d	0.24096341
63	0xbb8a19a6	-0.0042144833
64	0xbe25364e	-0.16133997
65	0x3d758fe5	0.05995168
66	0xbc6df6f1	-0.014524207
67	0xbd926b3e	-0.07149361
68	0x3c3e60f0	0.011619791
69	0xbdb0bbf5	-0.086296
70	0xbd831d8b	-0.06402119
71	0x3dc3d8a3	0.095628045
72	0xbd797be4	-0.060909167
73	0x3da458cb	0.080247484
74	0xbcba0406	-0.022706997
75	0xbd9309e2	-0.07179619
76	0x3db647b7	0.08900397
77	0xbc8c90e5	-0.017158935
78	0xbce7bca4	-0.028288193
79	0x3d45ad4e	0.04826098
80	0x3e56a7c2	0.20962432
81	0xbda3a522	-0.07990481
82	0xbc72c2c4	-0.014816944
83	0xbd273926	-0.040825985
84	0xbdfc6bda	-0.123252586
85	0xbe4a99de	-0.19785258
86	0xbe7014da	-0.23445454
87	0x3c651a99	0.013983392
88	0xbb900369	-0.004394938
89	0x3bf1085f	0.0073557342
90	0xbb8a97c8	-0.0042295195
91	0x39161c67	0.00014315695
92	0xbbb6db09	-0.0055803102
93	0x3e44faad	0.1923625
94	0xbd366576	-0.044530354
95	0x3d1df149	0.038560186
96	0xbdc110be	-0.094270214
97	0xbdc89b13	-0.09795203
98	0xbdd7a432	-0.10529365
99	0x3d86c3c7	0.0658031
100	0x3d8bb8f6	0.06822388
101	0xbdc7f94f	-0.09764349
102	0x3c806eb3	0.015677786
103	0xbc3b14b5	-0.011418511
104	0xbe1f31ea	-0.15546384
105	0x3dc5b36e	0.09653364
106	0xbe8a50c9	-0.2701476
107	0xbd558eab	-0.052138012
108	0xbf070286	-0.52738225
109	0xbaee27fe	-0.0018169878
110	0x3d8beeca	0.06832655
111	0x3ccef99f	0.025265513
112	0x3d767bc5	0.06017663
113	0x3a573ad2	0.0008210364
114	0x3cf9f851	0.030513914
115	0x3c844d18	0.016150042
116	0xbcac264d	-0.021014357
117	0xbc10d1cb	-0.008839081
118	0xbc9a5dbd	-0.018843526
119	0x3d874834	0.066055685
120	0x3d184f08	0.037184745
121	0x3de6dcfd	0.11272619
122	0x3db1bc25	0.08678464
123	0xbdda2d75	-0.106532015
124	0x3d9efbf1	0.07762898
125	0x3dc98086	0.09838967
126	0x3c1d11ff	0.00958681
127	0x3d6ad1f5	0.057329137
128	0xbe04c3e5	-0.12965353
129	0x3dae33ed	0.08505998
130	0xbe1cc355	-0.15308888
131	0x3d5e640d	0.054294635
132	0x3e294f3c	0.16534132
133	0x3d83e992	0.064410344
134	0x3e00c6c0	0.12575817
135	0xbb9c3f19	-0.004768264
136	0xbdd67465	-0.10471419
137	0x3d9557ba	0.07292123
138	0xbb8588a8	-0.0040751286
139	0xbc99ccbd	-0.018774385
140	0x3d1873ec	0.037219927
141	0xbbb0f00d	-0.00539971
142	0xbd5581d5	-0.05212577
143	0xbc8369cc	-0.016041659
144	0xbd2d8606	-0.042364143
145	0xbe7764d7	-0.24159561
146	0xbc29a6fa	-0.010354752
147	0xbd741f28	-0.059600025
148	0x3de76279	0.11298079
149	0x3d069775	0.032859284
150	0x3db26176	0.087099954
151	0x3d9d4ab1	0.07680262
152	0x3d61793f	0.05504727
153	0x3c2640da	0.010147298
154	0x3dcedabb	0.10100313
155	0x3caae500	0.020861149
156	0x3ccef85e	0.025264915
157	0xbcd4e2bf	-0.025987027
158	0x3e0d3514	0.13789779
159	0xbcad1683	-0.021128898
160	0x3d453cae	0.04815357
161	0xbc74900c	-0.014926922
162	0xbb09dbc6	-0.0021035536
163	0x39c3c373	0.0003733892
164	0x3ddcd351	0.10782493
165	0xbc4ac86a	-0.012376884
166	0xbd57eba3	-0.052714955
167	0xbe11dd88	-0.14244664
168	0xbc6ea6a5	-0.014566098
169	0xbd6558ff	-0.055993076
170	0x3dbb5360	0.09146762
171	0x3c8535ff	0.016261099
172	0x3cbae1a3	0.02281267
173	0x3de3c36a	0.11121257
174	0x3c77c9ec	0.0151238255
175	0xbd6cdc2f	-0.05782717
176	0x3dcbaab0	0.099446654
177	0x3d3a524a	0.045488633
178	0x3d84838a	0.064704016
179	0x3ddef628	0.10886794
180	0x3d29d3e2	0.041461833
181	0xbbc05f02	-0.005870701
182	0xbd89b12e	-0.067232475
183	0xbad774ad	-0.001643797
184	0x3d46580f	0.048423823
185	0x3cdd60c9	0.02702369
186	0x3e14b1ba	0.14520922
187	0x3dc5c9e9	0.09657652
188	0x3d1f7b30	0.03893584
189	0x3c39984b	0.011327813
190	0xbbc08676	-0.005875404
191	0xbd8e5df6	-0.069515154
192	0xbd154cd8	-0.036450237
193	0xbe698883	-0.22805981
194	0x39d21027	0.00040066356
195	0xbd945016	-0.07241838
196	0xbda7caf0	-0.08193004
197	0x3de00e9e	0.10940288
198	0xbdc2dc30	-0.09514654
199	0x3c7cf33c	0.015438851
200	0xbdcca5d5	-0.099925674
201	0xbd2fad4a	-0.04288987
202	0x3e0b35fd	0.13594814
203	0x3d9ca48a	0.07648571
204	0xbd1b525e	-0.03792035
205	0x3d22967d	0.039694298
206	0xbcd610db	-0.026131084
207	0xbdd34f6b	-0.10317882
208	0x3ddeb3cd	0.10874138
209	0x3d22704e	0.039657883
210	0x3ddba684	0.1072512
211	0xbcaa947d	-0.020822758
212	0x3d6958db	0.056969505
213	0xbc065ed3	-0.008201319
214	0x3d140f9a	0.03614769
215	0x3db1d32d	0.08682857
216	0xbc30a9f2	-0.010782706
217	0x3de59100	0.11209297
218	0xbbb13d5c	-0.005408926
219	0xbdd8546a	-0.10562976
220	0x3d23989c	0.03994046
221	0x3d3f8295	0.046755392
222	0xbdf0cf8e	-0.11758338
223	0x3c3a0146	0.011352843
224	0x3d45d4f5	0.048298795
225	0x3d902801	0.0703888
226	0xbd8c5149	-0.068514414
227	0xbd585576	-0.052815877
228	0x3c762228	0.015022792
229	0xbd81b7cd	-0.06333885
230	0x3d86765f	0.06565546
231	0x3d259cda	0.04043279
232	0xbc9e0fea	-0.019294698
233	0x3d99bbd8	0.075065315
234	0x3ceac641	0.028658988
235	0xbe13973b	-0.14413159
236	0xbd3a95a6	-0.045552872
237	0xbd895a7c	-0.06706712
238	0x3d1f464e	0.038885407
239	0xbd88acbe	-0.06673573
240	0xbda84466	-0.08216171
241	0x3db5ae8c	0.08871183
242	0xbc04aed7	-0.008098326
243	0xbd373a7a	-0.044733502
244	0x3de9b074	0.11410609
245	0xbcb9a61b	-0.022662213
246	0xbcc9348f	-0.024561195
247	0x3bd178be	0.0063925674
248	0x3e886c71	0.26645234
249	0xbc1d0f70	-0.0095862
250	0xbc8268ac	-0.015919052
251	0x3da5aa76	0.080891535
252	0x3d0887eb	0.033332746
253	0x3d81a10b	0.06329545
254	0x3c9f4c3e	0.019445535
255	0xbd2b60a0	-0.041840196

l2.bias f4 [130]
0	0xbce6c70e	-0.028171089
1	0xbc101d74	-0.008796085
2	0xbd4b8c1a	-0.049694158
3	0xbdbc2cb1	-0.09188212
4	0xbd01fa7f	-0.031733032
5	0x3c4aa76e	0.01236902
6	0xbd6a3812	-0.05718238
7	0x3e1b36cc	0.15157622
8	0xbd4a70e3	-0.049424063
9	0x3d3bb319	0.045825098
10	0x3d440a61	0.04786146
11	0x3d8d1f3c	0.06890723
12	0x3d8f2520	0.06989503
13	0x3d0e6480	0.034763813
14	0x3dbfbd8b	0.09362324
15	0xbbe4593b	-0.006968645
16	0xbca2ea01	-0.019886972
17	0xbd43e358	-0.047824234
18	0x3d8b750a	0.06809433
19	0xbc967849	-0.018367903
20	0x3cc94bb2	0.024572227
21	0xbd0117a1	-0.031516675
22	0xbd6edf5d	-0.058318485
23	0x3da048c3	0.07826378
24	0x3dd674ec	0.1047152
25	0x3c8840ad	0.016632402
26	0x3ab63475	0.0013901131
27	0xbd0efec4	-0.034910932
28	0x3da92d30	0.08260572
29	0x3c2e6d6b	0.010646204
30	0x3d97f98b	0.074206434
31	0xbd804079	-0.06262297
32	0x3cabd061	0.020973386
33	0x3b15b905	0.0022845876
34	0xb9fbb696	-0.00048010488
35	0xbd91fa4d	-0.07127819
36	0x3d78116f	0.0605635
37	0x3dc57c6a	0.09642871
38	0x3d821792	0.06352152
39	0x3d29e569	0.04147855
40	0x3c93e82e	0.018055048
41	0x3c80abc0	0.015706897
42	0xbbdba8af	-0.0067034583
43	0x3bc69cd1	0.0060611744
44	0xbc66d26a	-0.014088253
45	0x3da742c8	0.081670344
46	0xb8407975	-4.5889483e-05
47	0x3d890c6e	0.06691824
48	0x3b1a1477	0.0023510733
49	0x3d1611f6	0.036638223
50	0xbd2cfe62	-0.042234786
51	0xbd79c9bb	-0.0609834
52	0x3e03201d	0.12805219
53	0x3d6f75da	0.058462
54	0xbbbbaafe	-0.005727171
55	0x3d6b5682	0.057455547
56	0x3dc7a9a1	0.09749151
57	0xbd07b8d7	-0.03313526
58	0x3d2ef8fc	0.04271792
59	0xbb943bce	-0.004523731
60	0xbaba5dc3	-0.0014218617
61	0x3dd15c7b	0.102227174
62	0x3d242115	0.040070612
63	0x3cb8e972	0.022572253
64	0xbd70211a	-0.058625318
65	0x3d735a93	0.05941255
66	0xbce977ee	-0.02849957
67	0x3ca2e726	0.01988561
68	0xbc80b22d	-0.01570996
69	0xbd6bcd59	-0.05756888
70	0x3ca96244	0.02067674
71	0x3d9ce4f7	0.07660859
72	0x3cf4bc73	0.029875016
73	0x3c1bf32b	0.009518425
74	0x3c0337f0	0.008008942
75	0x3cb8c364	0.022554107
76	0xbdb89d03	-0.090143226
77	0xbd64c3df	-0.05585086
78	0xbc903e6b	-0.017607888
79	0x3d9a0ea9	0.075223275
80	0xbcdf2e98	-0.027243897
81	0x3d45089e	0.04810392
82	0x3d731fd2	0.059356518
83	0x3d89aa2d	0.067219116
84	0xbd7bae33	-0.061445426
85	0xbc7b2688	-0.015329011
86	0x3d971b8f	0.07378303
87	0x3cee7f53	0.029113447
88	0x3da3173c	0.07963416
89	0x3d1a26b0	0.03763455
90	0xbba7ae34	-0.005117202
91	0xbd861f6b	-0.06548961
92	0x3d672fef	0.056442197
93	0xbd25df44	-0.040496126
94	0xbd41923e	-0.047258608
95	0xbcad5633	-0.021159267
96	0x3ae9f6de	0.0017850061
97	0x3cf41a2e	0.02979764
98	0x3c4015e4	0.011723969
99	0x3da0171e	0.07816909
100	0xbcb4975f	-0.022044836
101	0x3dfe56bb	0.12418886
102	0xbd0ccb72	-0.034373708
103	0xbc96e9b8	-0.018421993
104	0xbd002583	-0.031285774
105	0x3bb080a2	0.005386428
106	0x3cc5e3aa	0.02415641
107	0xbd1f9a67	-0.03896561
108	0x3d026133	0.031830978
109	0x3dba8651	0.0910765
110	0xbd590071	-0.052978937
111	0x3db278ee	0.08714472
112	0xbd6a258a	-0.057164706
113	0x3d66c4a8	0.05633989
114	0x3d5739ff	0.052545544
115	0xbc93c47f	-0.018038033
116	0x3d6f139c	0.05836831
117	0xbc31003d	-0.0108032795
118	0x3dbe0bb6	0.092795774
119	0x3d0fe86d	0.035133768
120	0xbd789e1e	-0.060697667
121	0x3ca36d9e	0.01994973
122	0xbba59645	-0.005053314
123	0xbdc57659	-0.09641714
124	0x3c207995	0.009794612
125	0xbe427d82	-0.1899319
126	0xbd6657c6	-0.05623605
127	0xbe17c856	-0.14822516
128	0x3d2656fd	0.040610302
129	0x3c89df3e	0.016830083

l3.weight f4 [50, 130]
0	0xbcf1fb84	-0.029538877
1	0x3dccaa4a	0.099934176
2	0x3d60af4b	0.054854672
3	0x3da9f22d	0.082981445
4	0x3d95e7a8	0.073195755
5	0x3da2010e	0.079103574
6	0x3ccf1c70	0.025282115
7	0xbd0f5d73	-0.03500123
8	0xb9cc2c7a	-0.0003894305
9	0x3cbdc437	0.023164852
10	0x3d6554d6	0.05598911
11	0x3cf2fb81	0.029660942
12	0x3d75588f	0.05989891
13	0x3dbdf030	0.09274328
14	0x3da204db	0.07911082
15	0x3b2c178d	0.0026259155
16	0xbd815b67	-0.06316262
17	0x3dc4db2e	0.09612118
18	0xbd95f23a	-0.07321592
19	0x3d8af588	0.067851126
20	0x3cc25f9b	0.023727229
21	0x3d9d31fa	0.07675548
22	0x3db17386	0.086646125
23	0xbd7f2d7c	-0.062299237
24	0xbd915387	-0.0709601
25	0x3d338107	0.043824222
26	0xbbe45db1	-0.0069691767
27	0x3dad7eeb	0.08471473
28	0x3c3dc1ad	0.01158182
29	0x3dcc7075	0.09982387
30	0x3d725580	0.05916357
31	0x3d995024	0.07485989
32	0x3d35ebb2	0.04441423
33	0x3c93abb2	0.018026207
34	0xbd565405	-0.05232622
35	0x3d6e3b57	0.05816206
36	0x3cbb4daa	0.022864182
37	0x3d1726ca	0.036902227
38	0xbc73ad8d	-0.014872921
39	0x3d4ad6c8	0.049521238
40	0xbd39195c	-0.0451902
41	0x3cf0c262	0.029389564
42	0x3c97654a	0.018480916
43	0x3c071bdd	0.008246389
44	0xbdcf0a83	-0.10109427
45	0x3d83fbe9	0.064445324
46	0x3d902304	0.07037929
47	0xbd9a384a	-0.075302675
48	0x3d236f34	0.039900973
49	0x3d710080	0.058838367
50	0xbd774ee4	-0.06037797
51	0xbd114cf8	-0.035473794
52	0x3d38aa0a	0.045084037
53	0xbd909a11	-0.07060636
54	0xbc687b72	-0.014189588
55	0x3d2d7eca	0.042357244
56	0xbcbb8041	-0.022888305
57	0x3daab1e1	0.08334709
58	0x3dc2d275	0.09512798
59	0x3d11e384	0.035617366
60	0x3cd95620	0.026530325
61	0x3d123096	0.035690866
62	0xbd9f3803	-0.07774355
63	0xbd3cac77	-0.046062913
64	0xbe10f93e	-0.14157578
65	0xbdb63fc3	-0.0889888
66	0x3d7a2ac5	0.061075944
67	0x3d8e15f9	0.06937785
68	0x3d2614bd	0.04054712
69	0x3d19e7ac	0.037574455
70	0xbd582b0b	-0.052775424
71	0x3cc13809	0.02358629
72	0x3d82c0ea	0.06384452
73	0x3dab2f4d	0.08358631
74	0x3cb68b41	0.022283198
75	0xbd922934	-0.07136765
76	0x3c5eefc4	0.013606969
77	0x3d3dbce8	0.046322733
78	0x3daa9e6e	0.08330999
79	0x3c11c4d6	0.008897027
80	0x3dc0ac7a	0.09407897
81	0x3da806ac	0.082043976
82	0x3b6b516a	0.003590668
83	0xbd4802c6	-0.04883077
84	0xbe20fbb8	-0.15721023
85	0xbdaf1dd4	-0.08550611
86	0x3d8bdd66	0.06829338
87	0x3d4928ab	0.04911105
88	0x3d6435e5	0.05571546
89	0x3b8146fc	0.0039452296
90	0x3c910d96	0.017706674
91	0xbd900e89	-0.07034022
92	0x3dbcd61c	0.092205256
93	0xbd254191	-0.040345732
94	0x3d8c1bfe	0.068412766
95	0x3d348854	0.044075325
96	0x3b9b53ad	0.0047401995
97	0x3bdf63d1	0.006817319
98	0xbd66604b	-0.056244176
99	0x3d50ff8c	0.05102496
100	0xbda2be1c	-0.07946417
101	0xbd5708a7	-0.052498486
102	0xbd8742fd	-0.06604574
103	0xbd510ffc	-0.051040635
104	0x3dc80d2e	0.09768139
105	0xbda2cad0	-0.0794884
106	0x3dae3408	0.08506018
107	0xbbd6ae13	-0.006551513
108	0x3d9a270e	0.0752698
109	0x3da4fd67	0.08056145
110	0x3d5fd207	0.054643657
111	0xbe019370	-0.12653899
112	0xbe162d3a	-0.1466569
113	0x3d9758db	0.07389995
114	0xbcef1f53	-0.029189741
115	0xbd82c787	-0.06385713
116	0x3d84b4a5	0.06479768
117	0xb9f16354	-0.00046041107
118	0xbdae4150	-0.08508551
119	0x3d859371	0.06522263
120	0x3dcc2027	0.0996707
121	0xbd804d0c	-0.062646955
122	0x3a0efe1a	0.0005454734
123	0x3d20e824	0.039283887
124	0x3d3399ff	0.043848034
125	0x3d4a4df5	0.049390752
126	0x3d150193	0.036378454
127	0x3e132045	0.14367779
128	0xbd7e0789	-0.062018905
129	0xbd807890	-0.062729955
130	0xbdae3d00	-0.085077286
131	0x3c9b0059	0.018921064
132	0xbc8fcc9a	-0.017553616
133	0xbd55218c	-0.052033946
134	0xbca02e70	-0.019553393
135	0x3a327d80	0.0006808862
136	0x3d8bb505	0.06821636
137	0x3d9a1393	0.07523265
138	0x3d4993f5	0.04921337
139	0x3daa03ad	0.08301482
140	0x3cbac4b9	0.022798883
141	0xbd86d603	-0.06583788
142	0xbd236bc4	-0.039897695
143	0x3d0950ad	0.033524204
144	0x3d7fe96b	0.062478464
145	0xbcda1b1f	-0.02662426
146	0x3dab6ce2	0.08370377
147	0x3d0a7a27	0.0338079
148	0x3d6ebc50	0.058285058
149	0x3dee8cea	0.11647971
150	0x3c7e9367	0.015538073
151	0x3d3c6d54	0.0460027
152	0x3dcda971	0.10042084
153	0xbba81708	-0.0051296987
154	0xbc225cdc	-0.009909835
155	0xbd89e6de	-0.067334875
156	0xbe014008	-0.12622082
157	0x3dd02189	0.10162646
158	0x3dc1e095	0.09466664
159	0xbd6b5b4c	-0.057460114
160	0x3d902da6	0.07039957
161	0x3d6ea182	0.058259495
162	0x3d18de67	0.037321474
163	0xbce4b969	-0.027920442
164	0x3e7262a2	0.23670438
165	0x3dc21ba5	0.09477929
166	0x3dca1e8f	0.0986911
167	0xbd875ea4	-0.06609848
168	0x3d910a6a	0.070820644
169	0x3d90faa8	0.07079059
170	0xbd751dae	-0.059842758
171	0xbc97a301	-0.018510344
172	0xbd151e58	-0.03640589
173	0x3ce6cf80	0.028175116
174	0xbc50b685	-0.012738829
175	0xbe04ce3e	-0.129693
176	0x3da76ef8	0.081754625
177	0x3d71a9f2	0.058999963
178	0x3de46054	0.11151186
179	0xbcb5b849	-0.0221826
180	0xbd7d20ce	-0.061798863
181	0xbd850e44	-0.064968616
182	0xbd874569	-0.06605036
183	0x3d19aa42	0.037515886
184	0xbdac3c7a	-0.084099725
185	0x3db7e466	0.089791104
186	0xbcfd4e7d	-0.030921215
187	0x3db5ab7b	0.08870598
188	0x3d1582e0	0.036501765
189	0x3d63e220	0.05563557
190	0x3d9865c2	0.07441284
191	0xbd8515c5	-0.06498293
192	0x3d78f38d	0.060779143
193	0xbcb250b9	-0.021767007
194	0xbdffd1a6	-0.12491159
195	0xbd0a1a5e	-0.033716552
196	0xbd35c994	-0.044381693
197	0x3cbb49b2	0.02286229
198	0xbcdb3688	-0.026759401
199	0x3dcde470	0.100533366
200	0x3d2d22a6	0.04226937
201	0xba9719ed	-0.0011528112
202	0x3cb81bd2	0.022474203
203	0x3d71a16f	0.058991846
204	0x3d06172e	0.03273695
205	0x3d75e1ae	0.060029678
206	0xbc62201c	-0.013801601
207	0xbd3d8685	-0.046270866
208	0x3d6d3dd6	0.0579203
209	0xbc7fb9db	-0.015608276
210	0xbcee258a	-0.029070634
211	0xbd13f603	-0.036123287
212	0xbdae8ca5	-0.085229196
213	0xbcf59319	-0.029977368
214	0x3dbfbcd7	0.0936219
215	0xbd9323e0	-0.07184577
216	0x3da91cfc	0.082574815
217	0x3e0cd859	0.13754405
218	0x3daf1303	0.08548548
219	0xbd802477	-0.06256955
220	0x3c79d887	0.015249378
221	0x3d7a7f58	0.0611566
222	0xbd63d886	-0.055626415
223	0x3d957052	0.07296814
224	0xbb4f7b55	-0.0031659205
225	0xbc948095	-0.018127719
226	0x3d723a86	0.059137844
227	0x3d7ce1ed	0.061738897
228	0x3cab0445	0.02087606
229	0xbdab26f9	-0.08357043
230	0x3da11dab	0.07866987
231	0xbda83941	-0.08214045
232	0x3d70ec82	0.0588193
233	0x3d72e3b3	0.059299182
234	0x3c06fc43	0.008238855
235	0x3e4fbb7c	0.20286363
236	0x3d6b5b9a	0.057460405
237	0x3d8e835f	0.06958651
238	0x3d04491e	0.032296292
239	0x3daa1bd9	0.08306093
240	0xbd0a356c	-0.033742353
241	0x3d857c68	0.06517869
242	0xbd9bb980	-0.07603741
243	0xbbb59139	-0.0055409935
244	0xbd023233	-0.031786155
245	0x3d303b22	0.043025143
246	0xbd8ec09f	-0.06970333
247	0x3dbdf913	0.09276023
248	0xbd946b84	-0.072470695
249	0xbbf5c11c	-0.007499827
250	0x3cfd3035	0.030906776
251	0x3d69b5ae	0.05705803
252	0x3d0e043e	0.034672014
253	0x3df60e7f	0.12014484
254	0x3cc42bcb	0.023946663
255	0x3dd6009b	0.10449334

l3.bias f4 [50]
0	0xbd68351a	-0.056691267
1	0xbd761b14	-0.060084417
2	0x3c59e14c	0.013298344
3	0x3d527028	0.05137649
4	0xbd541634	-0.051778987
5	0xbd0e551c	-0.034749135
6	0x3d05d408	0.032672912
7	0xbd7d0702	-0.06177426
8	0x3d9aee39	0.075649686
9	0x3d07f366	0.033191107
10	0x3d6015b0	0.054708183
11	0x3c495b56	0.012289843
12	0x3ddb937d	0.107214905
13	0xbda8d9a1	-0.082446344
14	0x3d558968	0.052132994
15	0xbd3684f4	-0.044560388
16	0x3cca562c	0.024699293
17	0x3d567130	0.052354038
18	0x3d981c69	0.07427294
19	0x3d9f342a	0.077736214
20	0xbc10b341	-0.0088318
21	0xbb693e28	-0.0035590027
22	0x3dc9b475	0.098488726
23	0xbcc441be	-0.02395713
24	0x3d559f48	0.052153856
25	0xbd5aa027	-0.05337539
26	0x3bd9676e	0.006634644
27	0x3db3b417	0.08774584
28	0x3d382910	0.044961035
29	0xbd68320a	-0.056688346
30	0x3d234342	0.039859064
31	0x3c1d77e0	0.0096111
32	0x3daa3416	0.08310716
33	0xbd930678	-0.07178968
34	0xbd42f230	-0.04759425
35	0x3d924f57	0.07144039
36	0x3bb3866f	0.005478672
37	0x3da094c9	0.078408785
38	0x3cd2acd5	0.025717178
39	0x3d512b46	0.05106666
40	0xbc0d496e	-0.008623464
41	0xbd2ce932	-0.04221458
42	0xbcd8c82e	-0.02646264
43	0xbbb3b8a5	-0.005484658
44	0x3c86d87f	0.016460655
45	0x3c9cc743	0.019137984
46	0x3d2bd56f	0.041951593
47	0xbc8c96ef	-0.017161814
48	0xbd817c07	-0.063224845
49	0xbc26d259	-0.010181987

l4.weight f4 [5, 50]
0	0x3dbb5545	0.09147123
1	0x3d144295	0.03619631
2	0xbc344fc6	-0.011005348
3	0xbdad9461	-0.08475567
4	0xbd7e6d0a	-0.062115707
5	0xbd9aa444	-0.075508624
6	0xbb2ea1cf	-0.0026646738
7	0x3d021e7e	0.03176736
8	0xbcaaf89c	-0.0208705
9	0x3df628cc	0.120195
10	0x3dc1e8a2	0.09468199
11	0x391dd8ef	0.00015053501
12	0xbc04f7a8	-0.0081156865
13	0x3d6eb40f	0.058277186
14	0xbb223078	-0.0024748128
15	0x3d88deeb	0.06683143
16	0x3be38026	0.0069427667
17	0xbd0b6bea	-0.03403846
18	0x3d03a2df	0.032137748
19	0x3d698174	0.05700822
20	0xbd557df7	-0.052122083
21	0xbcb39c7d	-0.021925205
22	0x3c2f438e	0.010697259
23	0x3e0b9987	0.13632785
24	0xbb68aef6	-0.0035504675
25	0x3bbea829	0.005818386
26	0xbe75b404	-0.23994452
27	0xbe2396c2	-0.15975478
28	0xbc6da71f	-0.014505177
29	0xbbcee8cc	-0.0063143726
30	0x3dfe1c85	0.124077834
31	0x3cb4e9a4	0.022084065
32	0x3db70ba9	0.08937771
33	0xbcca9d60	-0.024733245
34	0x3c962436	0.018327814
35	0xbcf70e01	-0.030158045
36	0x3dde0ff4	0.108428866
37	0xbf9a3992	-1.2048819
38	0x3c9be387	0.019029392
39	0x3dc811c2	0.09769012
40	0x3cd4d561	0.025980653
41	0xbd9dc665	-0.077038564
42	0xbc407923	-0.011747631
43	0xbe1e0b93	-0.15434103
44	0x3dcea85c	0.10090706
45	0x3c0e5513	0.008687275
46	0xbc0afc62	-0.008483024
47	0x3db1b3c3	0.08676865
48	0x3da8d997	0.08244627
49	0xbbbf2217	-0.0058329212
50	0x3d71c2e0	0.059023738
51	0x3e1bc9a1	0.15213634
52	0xbcb871ba	-0.022515167
53	0xbe0f43c9	-0.13990702
54	0xbde909e9	-0.11378843
55	0xbe865445	-0.26236168
56	0xbf00f4ab	-0.50373334
57	0x3e2d86c9	0.16945948
58	0xbd11678c	-0.03549914
59	0xbce7bef0	-0.028289288
60	0xbd84f9d8	-0.064929664
61	0x3d83fe77	0.0644502
62	0x3cc9b43b	0.024622073
63	0x3e2884d8	0.16456926
64	0x3ba9594f	0.005168117
65	0xbd877844	-0.06614736
66	0x3dd39249	0.10330636
67	0xbcd8e0a6	-0.026474308
68	0xbf1a2ea2	-0.60227406
69	0x3ccde3a6	0.025132965
70	0xbd854001	-0.065063484
71	0xbf523882	-0.82117474
72	0xbd7e8302	-0.062136658
73	0xbe7b5435	-0.24543841
74	0xbcdcda44	-0.026959546
75	0x3d9c08b3	0.07618847
76	0x3ec98ed6	0.39366788
77	0x3d1b0ed8	0.037855953
78	0xbeacee2c	-0.3377546
79	0xbd190dbf	-0.037366625
80	0xbd682bff	-0.056682583
81	0x3e37da50	0.17954373
82	0xbdb5fb0f	-0.08885776
83	0x3e29e8f9	0.16592778
84	0x3e1b58ad	0.15170546
85	0x3da58c44	0.08083394
86	0x3cba8086	0.022766363
87	0xbc6bca1f	-0.014391451
88	0x3d46c027	0.048523095
89	0xbde4af99	-0.11166305
90	0x3dda85f4	0.10670081
91	0xbde54a2a	-0.11195786
92	0xbedf684f	-0.4363427
93	0xbea84ab1	-0.32869485
94	0x3bb1dfaa	0.005428274
95	0xbcb31c03	-0.021863943
96	0x3d1065ec	0.03525345
97	0x3dca6b82	0.09883787
98	0x3d862485	0.06549934
99	0x3ddcd485	0.107827224
100	0x3e1f1152	0.15533951
101	0x3c870b8f	0.016485004
102	0xbc66eb43	-0.014094177
103	0xbe0e2a76	-0.13883385
104	0xbe1aaca5	-0.15104921
105	0x3c42d17a	0.011890763
106	0xbf0fd137	-0.5617861
107	0x3e5dd6ae	0.21663925
108	0x3dcfb97b	0.101427995
109	0x3bf80b73	0.007569724
110	0xbda9f760	-0.08299136
111	0xbe2e5bc8	-0.170272
112	0xbd9af147	-0.07565551
113	0x3d834e93	0.06411471
114	0xbd8e6702	-0.06953241
115	0x3c8d1706	0.017222892
116	0xbe9e0a9a	-0.30867463
117	0x3e4a2793	0.19741659
118	0xbd807081	-0.062714584
119	0xbdcc8d30	-0.09987867
120	0x3e1d5298	0.15363538
121	0xbd55112a	-0.052018322
122	0xbe0570ba	-0.13031283
123	0x3e9644ac	0.29349267
124	0x3dc6dfee	0.0971068
125	0x3e19d9c7	0.15024482
126	0x3d7e1129	0.062028084
127	0x3df3593d	0.11882255
128	0x3d80d7c9	0.06291158
129	0xbf4bd1b3	-0.7961685
130	0xbcd08a72	-0.02545664
131	0x3e0b97ef	0.13632177
132	0xbcc464a5	-0.023973772
133	0x3e318a81	0.17337991
134	0x3dd08eed	0.10183511
135	0x3c57d286	0.013172751
136	0x3d96caae	0.07362877
137	0xbbffc0d9	-0.0078049717
138	0x3d082f4f	0.033248242
139	0xbd34e02b	-0.044159096
140	0x3e2f00e6	0.17090186
141	0xbe08e99b	-0.13370363
142	0x3ed41cee	0.41428322
143	0x3bd31053	0.006441155
144	0xbe176abb	-0.14786808
145	0xbdee0a2e	-0.11623035
146	0xbf86c43d	-1.0528637
147	0xbe0ed911	-0.13949992
148	0xbe0809ff	-0.13285063
149	0x3cc7c856	0.02438752
150	0x3e06597a	0.1312007
151	0xbd98e0c3	-0.07464745
152	0xbf9621a0	-1.1729012
153	0x3c211475	0.0098315375
154	0xbdb133ce	-0.08652459
155	0x3e3b69d8	0.18302095
156	0xbe4004ad	-0.18751784
157	0x3d8068b3	0.0626997
158	0x3e05ea79	0.13077725
159	0xbd9ca0ad	-0.07647834
160	0xbd785614	-0.060628965
161	0xbe19e909	-0.15030302
162	0xbe75dd1e	-0.24010131
163	0x3cb3cb89	0.021947639
164	0xbe78cfca	-0.24298015
165	0x3e34b494	0.1764701
166	0xbc9d97b8	-0.019237384
167	0x3d51d8cb	0.05123214
168	0x3b4f7cd4	0.0031660097
169	0x3ccb3e02	0.024809841
170	0x3e166edd	0.14690728
171	0x3c3de2da	0.01158973
172	0x3e823f35	0.25438848
173	0xbd8b6d1d	-0.06807921
174	0x3ec7c346	0.3901617
175	0xbd311409	-0.043231998
176	0xbcf3f23b	-0.02977859
177	0xbc711d43	-0.014716449
178	0xbcb3c8c6	-0.021946322
179	0x3f169c62	0.5883237
180	0xbe05cc77	-0.13066278
181	0xbc92accb	-0.01790466
182	0x3da8ec63	0.08248212
183	0x3d682fb9	0.056686137
184	0x3e141564	0.14461285
185	0x3e1d5a0c	0.15366381
186	0xbccbd148	-0.024880067
187	0x3b2a5797	0.002599215
188	0xbd45df46	-0.048308633
189	0x3bb7bc07	0.0056071314
190	0x3c55064f	0.013001992
191	0x3c394c85	0.011309748
192	0x3d129b24	0.035792485
193	0xba8d20e5	-0.001076725
194	0x3e253879	0.16134824
195	0xbf488c7d	-0.7833937
196	0xbda77a6e	-0.081776485
197	0x3d813691	0.06309236
198	0xbd3a6d46	-0.045514368
199	0x3c683019	0.014171624
200	0x3d211188	0.03932336
201	0xbc8c17ca	-0.017101187
202	0x3cd974a5	0.026544878
203	0x3e35516f	0.17706846
204	0x3d0b71d2	0.034044094
205	0x3ea16b70	0.3152728
206	0x3cb31244	0.021859296
207	0xbd88146d	-0.06644521
208	0x3d6548a7	0.05597749
209	0x3dfdb409	0.123878546
210	0xbe3a6ac5	-0.18204792
211	0xbda54107	-0.080690436
212	0xbc33a297	-0.010964057
213	0xbd933423	-0.07187679
214	0xbf94a641	-1.1613237
215	0x3e1ad6ba	0.15120974
216	0xbc77a8f5	-0.015115966
217	0x3ccd75b6	0.025080543
218	0xbc1f7ce0	-0.009734362
219	0x3e0bcc60	0.13652182
220	0x3d109099	0.03529415
221	0xbc42a6f8	-0.011880629
222	0x3c8b0684	0.01697088
223	0xbd9db80b	-0.07701119
224	0xbf5a9715	-0.8538678
225	0xbc4511e6	-0.012028193
226	0x3e4dbef0	0.20092368
227	0xbb5732b3	-0.0032836616
228	0xbc3259c1	-0.010885657
229	0xbb5fc549	-0.003414469
230	0x3d985e61	0.07439876
231	0x3d877377	0.0661382
232	0x3e012e22	0.12615255
233	0xbdb90899	-0.09034843
234	0x3e1c2e89	0.15252127
235	0xbdbe306d	-0.0928658
236	0x3e162a27	0.14664517
237	0xbb2e7569	-0.0026620275
238	0x3e651eec	0.22375077
239	0xba4cbdaf	-0.00078102475
240	0xbd4d2a6f	-0.050089296
241	0x3e11ce0b	0.14238755
242	0x3cc57dd2	0.024107847
243	0xbd91341c	-0.07090017
244	0xbd1f697d	-0.03891896
245	0x3d05179f	0.03249323
246	0x3bca5962	0.006175206
247	0xbc7a3cce	-0.015273286
248	0x3d934194	0.071902424
249	0xbac0ca44	-0.0014708717

l4.bias f4 [5]
0	0x3df61b4d	0.12016926
1	0x3de638bc	0.1124129
2	0xbd85ebca	-0.06539114
3	0x3d8982c0	0.06714392
4	0xbd9a44c4	-0.07532647

exp_avg f4 [250, 7]
0	0xb3e6549f	-1.0725602e-07
1	0xb4af42a6	-3.2644783e-07
2	0x31b0fb71	5.1508597e-09
3	0x33229446	3.7853418e-08
4	0x33f058b3	1.1192005e-07
5	0x32d03dc6	2.4242478e-08
6	0xb4125246	-1.362724e-07
7	0x33c00c31	8.942914e-08
8	0x341ca51b	1.4588697e-07
9	0x340184a4	1.2062316e-07
10	0xb3f67237	-1.1476043e-07
11	0xb2838e9e	-1.5315262e-08
12	0xb4aada37	-3.182374e-07
13	0x34c4dbfc	3.6667905e-07
14	0xb3290948	-3.935682e-08
15	0x33d9f30a	1.01490585e-07
16	0x349cd6e9	2.9213632e-07
17	0xb199b007	-4.472898e-09
18	0x32837ea9	1.5308006e-08
19	0x325ec6d4	1.2967309e-08
20	0xb41ab29a	-1.4407343e-07
21	0xb2a85d29	-1.9600138e-08
22	0x32369933	1.0628628e-08
23	0x3340786b	4.4813003e-08
24	0xb29854c6	-1.773368e-08
25	0x33ff71d6	1.18950695e-07
26	0x32fa4fa8	2.9140054e-08
27	0x3437e789	1.7127435e-07
28	0xb31ff44f	-3.724227e-08
29	0x31adb507	5.055543e-09
30	0x33f14a8b	1.1235996e-07
31	0x3234e76c	1.0529998e-08
32	0xb4fb6e55	-4.683267e-07
33	0x345cae8f	2.05526e-07
34	0xb3f2de51	-1.1309442e-07
35	0x353164e9	6.608448e-07
36	0xb5386013	-6.868515e-07
37	0xb2f57f65	-2.8579686e-08
38	0x340ec0d1	1.3294927e-07
39	0xb565948d	-8.552532e-07
40	0xb50b84e1	-5.19749e-07
41	0xb423c1a2	-1.5251001e-07
42	0x3387c663	6.322514e-08
43	0x339642f9	6.9971016e-08
44	0xb40b404b	-1.2968773e-07
45	0x329472a7	1.7281605e-08
46	0x32e88a3a	2.7071213e-08
47	0xb52fc4ee	-6.547915e-07
48	0xb3af98b9	-8.1768526e-08
49	0xb48ad847	-2.5861866e-07
50	0x35d0b04e	1.5548519e-06
51	0x34298deb	1.5790981e-07
52	0xb34a532f	-4.7107445e-08
53	0x359813e7	1.1330675e-06
54	0xb44f8646	-1.9327226e-07
55	0x33aee477	8.144064e-08
56	0x341d3000	1.4639227e-07
57	0xb3d55e1e	-9.935705e-08
58	0xb39e5bbe	-7.374136e-08
59	0x2f7fab0c	2.3252883e-10
60	0xb3f367fd	-1.13344846e-07
61	0x341fd50b	1.4885534e-07
62	0x340e2daf	1.32414e-07
63	0x33dae139	1.0192384e-07
64	0x34236265	1.5216354e-07
65	0xb4d9babb	-4.0555264e-07
66	0xb440cd18	-1.7956006e-07
67	0x353f4a96	7.126158e-07
68	0xb4c0f275	-3.5939198e-07
69	0x355bea31	8.192465e-07
70	0x3388c61d	6.36903e-08
71	0xb498773c	-2.839896e-07
72	0xb4383adb	-1.7157747e-07
73	0x32ac723f	2.0075388e-08
74	0xb424d402	-1.5350818e-07
75	0xb453ae2c	-1.971427e-07
76	0x343580c0	1.6903778e-07
77	0x319d2025	4.572956e-09
78	0x34a7e367	3.127163e-07
79	0x337623c9	5.7308885e-08
80	0x32e563aa	2.670443e-08
81	0xb308029b	-3.1667337e-08
82	0x336e141d	5.5431986e-08
83	0xb32352d4	-3.8026727e-08
84	0xb3acff5e	-8.055825e-08
85	0xb43bfd78	-1.7507944e-07
86	0x318deb9a	4.130425e-09
87	0x338eeedf	6.655841e-08
88	0xb4a7ced3	-3.1256658e-07
89	0x3329366d	3.939788e-08
90	0xb3d482c1	-9.895803e-08
91	0x33293a9b	3.940168e-08
92	0x3457cd00	2.0098014e-07
93	0x33707442	5.598509e-08
94	0xb2d879ff	-2.5201187e-08
95	0xb483b43c	-2.453179e-07
96	0x32f9f8a4	2.9100484e-08
97	0xb3f0ddd0	-1.1216218e-07
98	0x33245525	3.8261664e-08
99	0x34a2f376	3.0351993e-07
100	0x34717600	2.2487802e-07
101	0x327939d1	1.45068535e-08
102	0xb50ba080	-5.2015093e-07
103	0xb422d96c	-1.5166523e-07
104	0xb349e853	-4.7010257e-08
105	0x3290eb1b	1.687072e-08
106	0x31961853	4.36834e-09
107	0x33b6d3b9	8.5135476e-08
108	0x32dd35e8	2.57523e-08
109	0x34a8d10e	3.1444546e-07
110	0xb43bb139	-1.7480205e-07
111	0xb4994589	-2.8549064e-07
112	0x33e77902	1.0778787e-07
113	0xb49fa676	-2.9737174e-07
114	0xb5726580	-9.029973e-07
115	0x331cbbcc	3.649238e-08
116	0x35a015d8	1.1927286e-06
117	0xb2a85a29	-1.9598774e-08
118	0x35c97328	1.5009182e-06
119	0xb34320b0	-4.5431705e-08
120	0xb49d024d	-2.9245203e-07
121	0xb487af2e	-2.527317e-07
122	0x33681795	5.4038157e-08
123	0x347466dd	2.2761692e-07
124	0xb2c248f1	-2.2617742e-08
125	0x33bf1b41	8.899088e-08
126	0xb3a80989	-7.824844e-08
127	0xb45e5477	-2.0706089e-07
128	0xb3c63b30	-9.2308596e-08
129	0xb47d4b45	-2.3589844e-07
130	0xb5534ec7	-7.871826e-07
131	0xb482281f	-2.424358e-07
132	0x35b077ab	1.314785e-06
133	0x33c53b60	9.1843276e-08
134	0x34c69dd0	3.6995198e-07
135	0x3446b64f	1.850651e-07
136	0xb39a36a6	-7.181124e-08
137	0xb52d8dfd	-6.465414e-07
138	0xb53fe4c7	-7.148596e-07
139	0xb4bc753a	-3.5103022e-07
140	0x33910d69	6.754528e-08
141	0xb1c5561a	-5.743243e-09
142	0xb202029f	-7.567592e-09
143	0x33134bd3	3.4295066e-08
144	0xb4019cc3	-1.2071091e-07
145	0xb3887f80	-6.3561856e-08
146	0xb347ed5e	-4.6549182e-08
147	0xb34826b3	-4.6601325e-08
148	0xb4b4c30f	-3.3669536e-07
149	0xb3b0a3cd	-8.225434e-08
150	0x33c472f1	9.147869e-08
151	0xb59cd39e	-1.1684494e-06
152	0x340a1cd6	1.2862742e-07
153	0xb399d230	-7.1628506e-08
154	0xb2b4d57b	-2.1051838e-08
155	0xb3c2eddd	-9.077096e-08
156	0x33185d62	3.547519e-08
157	0x335b3441	5.1037436e-08
158	0x3254ac13	1.2379149e-08
159	0x32109e3c	8.4178815e-09
160	0x33afd31f	8.187475e-08
161	0x3180aadc	3.7447148e-09
162	0x33c88bb2	9.338636e-08
163	0x338065a4	5.978953e-08
164	0x33367ce3	4.248876e-08
165	0xb423f69d	-1.5270275e-07
166	0xb42329fd	-1.5195833e-07
167	0xb4e9231e	-4.3425183e-07
168	0x32d28e2f	2.4511875e-08
169	0xb3c609d1	-9.221879e-08
170	0xb406de36	-1.2560562e-07
171	0x3206b464	7.840843e-09
172	0x34c437e3	3.6548508e-07
173	0xb5053d8f	-4.963594e-07
174	0xb312a097	-3.413933e-08
175	0x33b186c6	8.26672e-08
176	0xb44fec7c	-1.936441e-07
177	0xb485a27c	-2.4891403e-07
178	0xae9b5b44	-7.064796e-11
179	0x34f5841b	4.5730926e-07
180	0x34b3a5d6	3.346201e-07
181	0x34f4a77d	4.5570405e-07
182	0x347b9927	2.3431913e-07
183	0x34d063d0	3.8815642e-07
184	0x3410b538	1.3476972e-07
185	0xb3352e80	-4.2184638e-08
186	0x34dbd88c	4.0949487e-07
187	0x3530292e	6.5625034e-07
188	0x33a834bb	7.832701e-08
189	0xb35ede28	-5.1890453e-08
190	0xb3e6556f	-1.072575e-07
191	0xb3852816	-6.200587e-08
192	0x341d71bb	1.466314e-07
193	0x3424fb56	1.5365126e-07
194	0x303cbadb	6.865954e-10
195	0x336475fa	5.3192686e-08
196	0x330de314	3.3035647e-08
197	0xb353c5ba	-4.9307097e-08
198	0x33c88ca7	9.33881e-08
199	0x32c83181	2.3305576e-08
200	0xb45e3ed2	-2.0698215e-07
201	0xb0f0ab59	-1.7510998e-09
202	0x34e9be5b	4.3538134e-07
203	0xb287c97c	-1.5807693e-08
204	0x342c87e0	1.606818e-07
205	0x34a7c0ae	3.1246367e-07
206	0x347fc6eb	2.3821092e-07
207	0xb48ead50	-2.6575663e-07
208	0x3389b403	6.4123036e-08
209	0xb39bbc7e	-7.2520365e-08
210	0x31f7a584	7.207463e-09
211	0xb49f6202	-2.9687368e-07
212	0xb23c785d	-1.0970408e-08
213	0x338cde44	6.559688e-08
214	0xb589b6e7	-1.0260527e-06
215	0xb47d2675	-2.3576452e-07
216	0xb417f0ef	-1.4150622e-07
217	0x33b14a83	8.2557584e-08
218	0x30ad152d	1.2593425e-09
219	0x33cc15a7	9.503429e-08
220	0x32bde494	2.2106441e-08
221	0x3419ed25	1.4335508e-07
222	0x3502cc24	4.872584e-07
223	0xb40c2e7c	-1.3055427e-07
224	0xb37ddfe9	-5.9109798e-08
225	0x34951b40	2.777324e-07
226	0x349457ec	2.763112e-07
227	0xb281ca1e	-1.5109489e-08
228	0x34232da8	1.5197168e-07
229	0x32339f4a	1.0455389e-08
230	0xb3d0a4be	-9.715721e-08
231	0x346f98d1	2.2314204e-07
232	0x34f1cdab	4.503939e-07
233	0x33815918	6.023237e-08
234	0x3397d77e	7.070683e-08
235	0xb42c688a	-1.605678e-07
236	0x3427063a	1.5555352e-07
237	0x338e522b	6.6273365e-08
238	0x31cefad3	6.0239045e-09
239	0x339494a2	6.918823e-08
240	0x330b1ab3	3.2387742e-08
241	0xb27bcc96	-1.465664e-08
242	0x33f703f6	1.1502554e-07
243	0xb2fbfbd5	-2.9334766e-08
244	0xb316a47c	-3.5074194e-08
245	0xb34e7bdd	-4.8075766e-08
246	0x334c4cf9	4.7567458e-08
247	0xb46a543b	-2.1823591e-07
248	0xb4130fad	-1.3696145e-07
249	0x354b54da	7.574687e-07
250	0x34b21190	3.3167862e-07
251	0x3519e7e2	5.7334375e-07
252	0x31ca6442	5.8903717e-09
253	0xb302a454	-3.041744e-08
254	0x3451e17d	1.9546674e-07
255	0x31caf8b9	5.9072502e-09
