motion_planning/NN_model/models/single_401.pt (torch, 505434 bytes, 24 tensors)

l1.weight f4 [250, 7]
00000000: 6d51 703e 6906 19be 6d99 a83e 04e6 7e3e
00000010: fa75 0cbf 36e2 76be 3e06 283f ca48 8d3c
00000020: fa31 123e 8456 02bf 96fa afbe dafe 50be
00000030: f628 33be 5335 a43d 2121 a53e 2a0c 26be
00000040: 275f 563e e5fb 133e 3414 15bf e40d 9c3e
00000050: 80f8 383d 73c3 eebe 16fc 953e fa61 943d
00000060: 9e14 0a3e 3a9a cf3e 1b88 8abf 5fdd e13e
00000070: 1c8c 333e 3da3 e0be a254 a63e 3a0a 9c3b
00000080: 196f 58be f63b d53e 5746 463f c91c b33d
00000090: a42b fabd 41ae f03d ca31 6e3b e4ce 643e
000000a0: 3ebc 9bbf 9ca8 71be 546d 723d a8a6 313e
000000b0: 1bf6 953d 63f4 76bc e4ad 11be 5f93 c5be
000000c0: fb96 dabe fe11 ba3d 7fcf f43c 7673 d5bc
000000d0: 6f13 c4bb 638e 9a3e b5c3 9cbf f51b 51bf
000000e0: 8890 873d 9553 00be ee11 61be 43fc f2be
000000f0: c256 523e 12d9 073f 6a6b b23d 670e 923e
00000100: 2484 043e d32a ce3e e468 2dbc 1da1 11bd
00000110: 2407 123f cfe7 fc3d aa73 ccbe c30e f0bd
00000120: 3eb9 4bbe 306b ae3d 2e5e 6a3e 59ea 8fbf
00000130: 57ae 91be 8414 76be eb63 d1bc eb15 223c
00000140: 8032 ddba 7d2f 243f 20be 2ebf e26b 82be
00000150: 288f 93be 8c96 c13d 1d1f 893d e91b 9e3c
00000160: 182d 8abe fb59 d23e 163f 3a3e 1bd0 113e
00000170: 432f 0f3e c198 4ebb 6902 2a3c 5c36 1e3f
00000180: 9520 ac3e 34ce 103f 1a31 8cbd 0a13 293b
00000190: 1f42 8fbb 2d35 353a 0463 2b3f e165 733e
000001a0: cfb1 cdbe d9bd 773e b51a aa3e 4eb5 d53e
000001b0: a1c9 1c3d 4b6a 22bc cca5 4d3f 502e 063f
000001c0: 1de4 a03e 54c1 77be 43c0 b9be bcb7 36bd
000001d0: e7f8 a8be 93de 553e 3ce6 a43e 419c 2f3d
000001e0: 0783 c6be a97b 40be 7453 d2bc 82f3 9b3e
000001f0: 9f13 203d 1dd2 5cbf 69d3 16be 92d1 d53d
00000200: 86e6 0dbe f441 113f 5742 3c3d ddca c6be
00000210: 1325 c53e 498a b8be e192 dc3d 3ed7 efbd
00000220: 9884 a73c 371c 473f e38b 3ebe 0cbc 30bf
00000230: cec9 0d3e 7010 d93b 755f 2b3e b950 9f3e
00000240: f0a9 753e 96a7 983e 63f5 953e 6c6a 403d
00000250: 3795 a7bd c772 4c3e 3847 67bb fda5 84be
00000260: 705f b83e 2543 513f aefe 18bf c41f 9e3d
00000270: 5ae0 bfbc ae65 833a 56e3 4b3e dcd2 a2bf
00000280: 25b9 0fbf a535 8ebe 2110 9dbe a4ba ab3e
00000290: ea36 b33d 0f42 063f f059 c5be a79e edbe
000002a0: e3f4 2d3e 87ef 863c 35ef 023f 594b 3ebd
000002b0: 98b6 883e 2162 243f 9534 a1be 3aaa c63e
000002c0: ae11 84be eb62 4c3d 18fe 08be bda3 28bf
000002d0: 9489 663d 6654 fd3e e3d4 d33c 66c1 15be
000002e0: 1e09 25be 19bf 4e3d a29d efbe b4a9 d33e
000002f0: dc33 78b9 b524 423d b11b bf3c 9441 9cbc
00000300: 03d9 d5bd 4055 cd3d 816f 963e 9d77 913d
00000310: 2e80 1cbe 5e96 803e 78eb 963d 0cbb e63c
00000320: df66 4f3e 95af ddbd 75d6 6abe df04 b5be
00000330: db93 81be f0d7 f73d 6173 923c c95d 583e
00000340: 4781 f7be 7102 f1bd e6f2 d5be c385 5bbd
00000350: 8ed1 a3be f4fc e43a 491c f23e da64 44bf
00000360: ca3e 033e 685e 503e ad35 73be c7e0 f4bc
00000370: 4b40 a5bb afc0 e93d 80a9 ff3e 3c6e 2bbf
00000380: 76f1 f23d 9c2a 30be d4d9 973d 2d02 68bc
00000390: a243 36be 8cf2 4abf 316c a93e b503 82be
000003a0: b79b 303e c140 973e 1072 26bc 0eca 55bf
000003b0: e5fa 8a3e 914c 833e d838 e1bc 76f5 51be
000003c0: da08 9f3e 7293 613e b910 ccbd 93c3 aebc
000003d0: 055e 27bf f2c5 363e 8e13 773e e531 7b3d
000003e0: 0ea8 c8ba 17c8 9ebe c22c 9dbe 88c7 9ebe
000003f0: 2b45 12be 6881 943e 6822 693e 4820 233e
0.23468561 -0.14943852 0.32929555 0.24892431 -0.5486752 -0.2410973 0.65634525 0.017246623
0.14276877 -0.5091326 -0.3437087 -0.20409718 -0.17496094 0.08017983 0.32251838 -0.16215578
0.20934735 0.14451559 -0.5823395 0.30479348 0.045158863 -0.4663349 0.2929389 0.0724525
0.13484427 0.40547353 -1.0822786 0.44114205 0.17533916 -0.4387454 0.32486445 0.0047619613
-0.2113613 0.4164731 0.7745108 0.08745725 -0.12215355 0.11751986 0.0036345595 0.22344548
-1.2166822 -0.23599476 0.059186295 0.1734873 0.073223315 -0.015072915 -0.1422649 -0.38588998
-0.42693314 0.09085463 0.029884098 -0.026056033 -0.005983762 0.30186757 -1.2247225 -0.81683284
0.06619364 -0.12531884 -0.21979496 -0.47458085 0.20540908 0.530656 0.08711894 0.28526613
0.12941033 0.40267047 -0.01058409 -0.03555404 0.57042146 0.123489015 -0.39931995 -0.117215656
-0.19894883 0.08516538 0.22887489 -1.1243392 -0.28453323 -0.24031264 -0.02556034 0.009892921
-0.0016876012 0.6413496 -0.6825886 -0.25472933 -0.28820157 0.09452543 0.066953875 0.019300418
-0.2698753 0.41084275 0.18188128 0.14239542 0.13982873 -0.0031524154 0.010376551 0.61801696
0.33618608 0.5656464 -0.06845303 0.0025798702 -0.004371896 0.0006912526 0.6694796 0.23769332
-0.4017472 0.24193515 0.332235 0.41739887 0.038278226 -0.0099130375 0.8033111 0.5241442
0.31424037 -0.24194843 -0.36279497 -0.044608817 -0.33002397 0.20885687 0.32206905 0.042873625
-0.3877184 -0.18797173 -0.02567456 0.3045922 0.039081212 -0.8625811 -0.14729084 0.10440363
-0.13857469 0.5674126 0.045961704 -0.38826647 0.38504848 -0.36043003 0.107702024 -0.11710976
0.020448968 0.7777743 -0.1860805 -0.69036937 0.13846514 0.006624274 0.16735633 0.31116274
0.23990607 0.29815358 0.29288778 0.04697649 -0.08182757 0.19965659 -0.0035290252 -0.2590789
0.36010313 0.8174308 -0.5976361 0.077209026 -0.023422409 0.001002481 0.1991094 -1.2720599
-0.56141883 -0.27775303 -0.30676368 0.33540833 0.087507084 0.5244455 -0.3854518 -0.46410105
0.16987948 0.016471637 0.5114625 -0.046458576 0.26701808 0.6421223 -0.3148543 0.38801748
-0.2579474 0.049899023 -0.13378179 -0.65874845 0.05628355 0.49478453 0.025858348 -0.14624557
-0.16116759 0.050475214 -0.46799952 0.4134041 -0.00023670442 0.047398288 0.023328634 -0.019074239
-0.10441782 0.10026026 0.29381946 0.071028925 -0.15283272 0.2511472 0.07369131 0.028165363
0.20254086 -0.10824505 -0.22933371 -0.3535528 -0.25308117 0.12101734 0.017877283 0.21129526
-0.48340818 -0.11768044 -0.4178688 -0.053594362 -0.31995815 0.0017470405 0.47287205 -0.7671639
0.12816921 0.20348513 -0.23750944 -0.029892338 -0.0050430647 0.114137046 0.49934006 -0.6696508
0.11862461 -0.17203754 0.07414594 -0.014160675 -0.17799237 -0.7927635 0.33090356 -0.25393453
0.172469 0.2954159 -0.010159031 -0.83511436 0.27144542 0.25644353 -0.027492926 -0.20503792
0.3106144 0.22028902 -0.09964127 -0.021333491 -0.6537784 0.17848948 0.24128553 0.06132688
-0.0015308873 -0.3101203 -0.3069821 -0.31011605 -0.14284198 0.2900498 0.22767031 0.15930283

l1.bias f4 [250]
00000000: d63e 14bf 4bfd e1be 7b90 d03d 1ceb a2be
00000010: f871 11bf 0eb9 bcbe ac15 893e f167 95be
00000020: 32c0 51be 1c7a 5b3e fe71 5c3e 8a74 5b3d
00000030: 489f a83e b271 153e 5d3a 0d3c cb20 1e3d
00000040: bcbb d0bd fbcd d5be 812d b7be e5d6 83be
00000050: 7032 273e 3f9e 1bbe ce0a 2e3e 3988 353c
00000060: 065d a03e ba06 99be c883 9d3e 0e1f 053e
00000070: 3c66 713e 2b46 4a3e c228 2fbe 9a1c f63d
00000080: 5229 db3e c723 17be 6b1a eb3e 5632 153e
00000090: 97af acbe 4ec5 233d 1e24 4c3e 7b1b 04bf
000000a0: 086d 2e3e 9669 ac3e af89 16be 5330 343c
000000b0: 2b15 4abe c29c e23e e0fe 4a3e 1b21 523e
000000c0: 91e4 1fbf e4a8 623e c618 e4be 80a4 9b3d
000000d0: 445b 503e 8126 94bd ba44 2e3e 7041 0dbe
000000e0: 2768 2a3e d34f 41be c75a 96be 83e1 d73d
000000f0: c95f b23c 6759 053e 2c7f b73d ba43 48be
00000100: 97ec d63e ce6a e2be 8b53 14bd 7b7d b5be
00000110: 3f30 9d3d 45f3 9fbc 0015 a93e 18de f43b
00000120: b739 17be 3fe3 413e e2f3 593e ab7b 933e
00000130: ef35 b73e 3f02 d23d 6dd6 b7be b75b d33d
00000140: 7b69 9e3e ced0 74bc 7014 6f3e bd23 38bf
00000150: ccc7 b8be d27d 723d 7991 10be be21 1fbe
00000160: e4fe 11be 8e2b bc3d 1a5f 053d 65bc c7bd
00000170: 2d26 473e 1e8f 70be 5f8d 42bd 5814 c8bc
00000180: a5a8 a33e c23e 56bc b89f 4bbd f71d 543e
00000190: 4bc4 3bbe 7010 443c 13c1 3bbd e133 e6bc
000001a0: 2616 f6bd 8a66 55be d8fd d73d e2dd 42be
000001b0: a1f8 05be 9379 7c3d 716c 8c3e 3007 3ebd
000001c0: 14de 81be d29c 2e3e 5af9 123e c3d1 8fbd
000001d0: efa1 11be db65 95be 836d 20be 0326 ca3e
000001e0: d2ea 40be 0fa3 713e e59f 2abc 1299 94be
000001f0: 9e9f 4c3e a4f8 c33e 1d34 623e ea0c 9b3d
00000200: c089 9d3e 772a 29bd 2296 49bf fd44 7e3e
00000210: 6e08 d03d 931f 4f3e 535e 32bf 9a37 f53e
00000220: 36da 3fbd c856 0bbc 37fc 2f3e bceb 1d3c
00000230: b52d 98bd 0607 7c3e d14e 31be d808 573e
00000240: 059f 0e3e 999f 4fbe de8b eabe 55d3 0cbe
00000250: ef69 ac3e 3e54 e7be 4049 8c3e d8ae 80bd
00000260: 7367 43bd d66e fbbb 0c1f ce3e 5f31 2f3e
00000270: 545d afbe 6251 82be 3f3c febe ab22 c93d
00000280: e1d4 823d 3609 2fbe 6e99 283e 8a1d 9fbe
00000290: 5380 343e d4ce 8cbb 0849 8d3e eb5f 4abe
000002a0: ac0c 943d 749d 533d fe8a 313e 3e43 16be
000002b0: f332 53be 9685 05bf c85c 4f3e ae1d 223e
000002c0: 616a 423e 8753 87be 9244 8fbd f70a e13a
000002d0: 9651 30be d562 f4bd 98cf 503e 8367 4e3e
000002e0: 553d ad3e e677 493e c26d 5a3e 0a19 183e
000002f0: b22b 893e 5ea5 2c3d 3a7d 9e3d 3f7c efbd
00000300: cc4a 1ebe 7a85 4cbe c574 503e 6a9d d4be
00000310: 48ba 32be b4e6 b7bd 9f74 30be 10b5 d9be
00000320: 58de f3bd 01da 173e c168 283e ff7f f73d
00000330: d94e 08bc af54 d0be 514c 833e 9443 77be
00000340: 256b 2cbe e63c 243e 42d7 ecbd a399 e3be
00000350: d323 983d 81a4 f33d c7ac 413e 397a a43e
00000360: 6c73 e63e 27ad 9d3d a828 8f3d 55c1 963e
00000370: d992 773c 8527 ae3d 8d76 1abd 7b29 4abd
00000380: e87c 533e b474 c73e 97da bdbe c416 3fbe
00000390: 320a 39bd 5eb1 c1bc b454 413e 4f2a ff3d
000003a0: 9090 693e 8559 f93d c810 d9bd 53f7 0f3d
000003b0: 719d 07be 4dd6 e8bd 1534 0abe 0a5d d1be
000003c0: d493 fd3d faa9 093e 55db 99be f672 e8be
000003d0: 02a2 db3c 9f42 993e 1721 7a3d 010d 9c3e
000003e0: be8c a63d 7a54 e23d
-0.5790838 -0.4413856 0.101838075 -0.3182 -0.5681453 -0.36859936 0.26774347 -0.29180863
-0.20483473 0.214333 0.2152786 0.053577937 0.32934022 0.14594153 0.008619872 0.038605493
-0.101920575 -0.41758713 -0.35776904 -0.2574989 0.16327834 -0.15197085 0.16996309 0.011079841
0.3132097 -0.29887944 0.30764604 0.13000128 0.23574156 0.1975333 -0.17105392 0.12017174
0.42804962 -0.14759742 0.45918593 0.14569983 -0.33727714 0.039983086 0.19935653 -0.5160443
0.1703378 0.33674306 -0.1470096 0.0109978495 -0.19734637 0.44260222 0.1982379 0.20520441
-0.6245814 0.22134739 -0.4455015 0.07599735 0.20347315 -0.072339065 0.17018405 -0.13794494
0.16641293 -0.18878107 -0.29366133 0.1054106 0.02177419 0.13022386 0.08959803 -0.19557086
0.4197738 -0.4422211 -0.036212485 -0.35447297 0.07675218 -0.01952518 0.33023834 0.0074727647
-0.1476811 0.18934344 0.2128444 0.2880529 0.35783336 0.10254335 -0.3590578 0.103202276
0.3093985 -0.014942361 0.2334764 -0.7192953 -0.36089933 0.059202023 -0.14117993 -0.15540215
-0.1425739 0.09187995 0.0325614 -0.0975273 0.19448157 -0.23492095 -0.047498103 -0.024423763
0.31964603 -0.013076486 -0.049712867 0.20714556 -0.18336599 0.01196681 -0.045838427 -0.02810091
-0.12015943 -0.20839897 0.10546464 -0.19029954 -0.13083126 0.06163938 0.27426484 -0.046393573
-0.25364745 0.1705201 0.14352933 -0.07022431 -0.14221929 -0.29179272 -0.15666775 0.39482126
-0.18839577 0.23597358 -0.010414098 -0.29023033 0.19982764 0.38275635 0.22090192 0.075708225
0.30769157 -0.041300263 -0.7874471 0.24831004 0.10157858 0.20226888 -0.6967518 0.47893983
-0.04683896 -0.008504577 0.17186056 0.009638723 -0.07430593 0.24612054 -0.17315222 0.20999467
0.13927849 -0.20275725 -0.45809835 -0.13752492 0.3367457 -0.4518146 0.27399635 -0.06283349
-0.04770608 -0.007673125 0.40258062 0.17108677 -0.3425089 -0.25452715 -0.4965534 0.098210655
0.0638826 -0.17093357 0.16464779 -0.31077224 0.17627077 -0.004297117 0.2759478 -0.19763152
0.072289795 0.05166383 0.17338178 -0.14674088 -0.20624904 -0.5215696 0.20250237 0.15831634
0.18985893 -0.26430914 -0.069955006 0.0017169405 -0.17218623 -0.11932913 0.2039169 0.20156674
0.33835855 0.19674644 0.21330932 0.14853302 0.2679115 0.042149894 0.07738729 -0.1169362
-0.1545822 -0.19972792 0.20357044 -0.41526347 -0.17453873 -0.0897955 -0.17231987 -0.42520952
-0.11907643 0.14829256 0.1644621 0.1208496 -0.00831958 -0.40689608 0.25644162 -0.24146873
-0.16837747 0.16038856 -0.11564495 -0.44453153 0.07428708 0.11896611 0.18913566 0.32124498
0.45009935 0.07699042 0.069901764 0.29444376 0.015110695 0.085036315 -0.037710715 -0.049355965
0.20653117 0.38956225 -0.37080833 -0.18661028 -0.04517574 -0.023644146 0.18879968 0.124592416
0.22809052 0.121752776 -0.10598904 0.035147976 -0.13243653 -0.11369 -0.1349643 -0.40891296
0.123817116 0.13443747 -0.3005015 -0.45400208 0.02681065 0.2993364 0.061066713 0.3047867
0.08132313 0.11051269

l2.weight f4 [130, 250]
00000000: 2ac8 32bd 72a6 193e 0289 f5bb 99de 3bbd
00000010: 8312 31be 311a 863e 0237 7abc 18de 013e
00000020: 3f25 783d 68d6 86bb 7527 95bc 5826 1fbe
00000030: 14ce 2f3d fbe4 e53c bfbf 01bd 667a 37bd
00000040: 746c 86be 14f5 643e b360 b73c ddfc 453e
00000050: 6621 e43c 42ae 8bbd 39df 8f3d 21ce 363d
00000060: 2789 dabd 84e9 4a3e b2ae 1d3d 5bc4 0cbe
00000070: d518 b33d 0911 c0bc 86a9 a83d 3945 f03d
00000080: f250 083c c4dd 073d 722a 9bbd 02fe 96bc
00000090: c56f 6dbd 1471 3dbe 28f6 19be b976 debd
000000a0: c1c1 823d 7cd9 2a3d 34c0 4c3e db26 8bbd
000000b0: e90f 3abe 82b6 a13d e0a6 03be 260e 3fbd
000000c0: 3408 99be 02b3 9c3d a02b fbbd 51a2 bc3d
000000d0: cf5b 06bd 4582 2a3e b61b f3bc fa89 c93c
000000e0: 31cb 143d b4aa 823e 4cbf a43c 9234 f33c
000000f0: 3958 8cbe 96c9 043c b82d e8bd f290 e7bc
00000100: 9e5a a63d 5224 77be ed8f 94bc 7235 20bd
00000110: 892b f0bd d1ed e13d fa11 2bbb 7a61 103e
00000120: abfe 34be cae0 27bd 7c44 5f3c a8f3 ea3d
00000130: 1865 97bd bfef eb3d b149 e2bd 295b 483e
00000140: 12f6 af3d b6d5 59bd 6543 253e 193f db3e
00000150: dafc d6bc b6c3 833e 6921 51bd 802c 9cbe
00000160: 2b93 cdbc df62 c6bd 4163 033c d821 e03d
00000170: c84d 37bd 8898 08be a94a c43c 2fa7 ebbd
00000180: b66b 03bc 7428 733d 4af8 c33a f030 3d3c
00000190: 9216 843d 63aa cd3d 5467 fdbd a9eb 23bd
000001a0: b621 433d c4cf 993d 6ecd 323d b96e b3bd
000001b0: d3d3 9fbd 6a3a 99bd 7ac0 533d bfe9 b8bc
000001c0: f6da 523d eb3c 593b cd39 653d d996 f53b
000001d0: d36c bb3e af48 a0bd f76f 15be 520e 9ebd
000001e0: 1498 1d3f fb55 92bd f8fc 2cbc 6102 d93c
000001f0: a170 2ebd 27fb ec3d 9f13 09be 0a0a 5fbe
00000200: c456 103d 707c 17be 7c8a 95bd e034 c83c
00000210: 939c 0abd 1137 903d bb36 09bd 5da4 f4bb
00000220: 7048 943e 959f 9e3c 5854 fabd 8161 66be
00000230: 57b9 9e3d 7792 8abc 0cb7 a73d 7297 5cbd
00000240: b641 a13d 8b47 4e3e c47d 6c3d 8f4d 9abe
00000250: 53d1 6d3d 9d27 aabe f63c d83c ea83 8a3e
00000260: 398a 4dbe ee2c 9a3e 9884 d53c cd63 93bc
00000270: 533d eb3c a52f 31bc 8cbc 10be fe0f ae3d
00000280: 1230 a7bd ad5b 46be 38e2 c0bd 4fff 5c3d
00000290: 4c58 20bd c7b5 773c c6f5 bebd eacd afbe
000002a0: 35ee 15be bab7 85bc 2c36 d33c 9606 3cbe
000002b0: b64b b1be 2306 1b3e 8a8d b13d c902 0bbe
000002c0: 9777 4f3d f746 1e3e 6134 e23d af15 b13d
000002d0: 6c04 d7be b2fc 6bbd 7c02 603c 0b3b e4bd
000002e0: 3c70 52bd 7f78 12be 3540 8cbd 7a03 cb3d
000002f0: d693 d03d fdff 003d 25fd 883d 2f0c 3c3d
00000300: 3356 d2bd bed9 313e 0752 833d 3196 58bd
00000310: d060 643e ea9f 4fbe 1e3f b1bd 46c8 1a3d
00000320: 78b5 cbbc 4f2d 043c b5e3 b6ba dedb debd
00000330: a606 fb3d f690 d63c daa4 143d a28a babd
00000340: 36c8 9a3d 6f71 ce3b 29fc 2abe effc edbe
00000350: 20bd 28be 4703 32be 5271 fa3d 64fe 663c
00000360: 8936 a9bd 0c00 8dbc b3a5 3a3e dc90 0ebe
00000370: ae46 803d 3041 463d 8c31 b33d e414 b7bd
00000380: eecb abbd 374a 5dbd 6622 963d aef3 7fbe
00000390: 558f debd d9fa 9dbc ce29 a73d 3c54 573d
000003a0: fb30 c63d c2d4 703e 584b 333c 7dbe 66be
000003b0: 2d1c 28bf e5fb 7d3d 13f0 ee3b b61c e4bd
000003c0: c50d aa3c 9543 a6bd 2369 613e f1dc 713d
000003d0: b475 7a3d 1cdb a1bc ffb3 103e db04 0f3e
000003e0: 9179 e6bd 89e4 053e 23a0 003e afdb bcbe
000003f0: 110b 8f3e 9bf8 693e 72df 3fbd cc4d 8b3e
-0.043647923 0.150049 -0.0074931392 -0.045866583 -0.17292218 0.26191857 -0.015271904 0.12682378
0.060582396 -0.0041149147 -0.018207291 -0.1554197 0.04292114 0.028063288 -0.031677004 -0.044794463
-0.26254618 0.22359115 0.022384977 0.19334741 0.027847957 -0.068203464 0.07024998 0.044630174
-0.10670691 0.19815642 0.03849668 -0.13746779 0.08744971 -0.023445623 0.08235459 0.11731953
0.00832008 0.033170477 -0.07576455 -0.018431667 -0.05796792 -0.18500167 -0.15035307 -0.10862488
0.06384612 0.041711316 0.19995195 -0.067945205 -0.18170132 0.07896139 -0.12856627 -0.046644352
-0.2988907 0.076513305 -0.1226418 0.09210647 -0.0328024 0.16651256 -0.0296763 0.024601925
0.03632659 0.2552086 0.020110749 0.029688153 -0.2741106 0.008104702 -0.11336845 -0.028267357
0.081227526 -0.24134949 -0.018135035 -0.03911347 -0.11727054 0.11031688 -0.0026103244 0.14099684
-0.17675273 -0.04098586 0.013627168 0.11472255 -0.07392329 0.11520337 -0.11049212 0.19566025
0.08591856 -0.053182326 0.1613899 0.42821577 -0.026243616 0.25735253 -0.051057253 -0.305027
-0.02509459 -0.09686827 0.008019269 0.10943955 -0.044751912 -0.13339436 0.023961382 -0.11506497
-0.008021286 0.05936475 0.0014951315 0.011547312 0.064496174 0.10042264 -0.12373224 -0.040019665
0.04763957 0.07510331 0.043652944 -0.08761353 -0.07804074 -0.07481845 0.05169723 -0.022572396
0.05147835 0.0033147882 0.055963326 0.007494789 0.36606464 -0.07826363 -0.14593492 -0.07717575
0.6156018 -0.07145306 -0.010558359 0.026490392 -0.04258788 0.11571341 -0.13386391 -0.21781173
0.035238996 -0.14793563 -0.073018044 0.024439275 -0.033840727 0.07041753 -0.03349946 -0.0074658827
0.28961515 0.019363204 -0.122231185 -0.22498132 0.077501945 -0.016915543 0.0818921 -0.053855367
0.078738615 0.20144479 0.057737127 -0.30137298 0.058060955 -0.33233348 0.026396256 0.27053767
-0.20072259 0.30112404 0.026064202 -0.017991925 0.028715765 -0.010814582 -0.14134425 0.08499144
-0.081634656 -0.19370909 -0.09418148 0.05395442 -0.039146706 0.015119023 -0.09324221 -0.34336787
-0.1464165 -0.01632296 0.025782667 -0.18361887 -0.34628075 0.1513906 0.086695746 -0.13575281
0.05065116 0.15456758 0.11045147 0.08646714 -0.4199556 -0.057614036 0.013672467 -0.11144074
-0.051376566 -0.14303778 -0.06848184 0.099127725 0.101844475 0.03149413 0.066889085 0.045910057
-0.102703474 0.17368218 0.0641213 -0.05287761 0.22302556 -0.20275846 -0.08654617 0.037788652
-0.024866804 0.008067443 -0.001395336 -0.1088178 0.122571275 0.02619217 0.036290027 -0.09108473
0.075577185 0.0063001434 -0.16697754 -0.46482036 -0.16478395 -0.17384063 0.122286454 0.014098737
-0.08262355 -0.017211936 0.18227272 -0.13922447 0.06263481 0.04840201 0.08749685 -0.089395314
-0.08388506 -0.054025855 0.0733078 -0.249953 -0.10867182 -0.019284653 0.081622705 0.052570567
0.09677311 0.2351866 0.010943256 -0.22533603 -0.6566799 0.062007803 0.0072918027 -0.11138289
0.020758519 -0.08118359 0.22012763 0.059048597 0.061147407 -0.0197578 0.14131163 0.13966696
-0.11253656 0.1307546 0.12561087 -0.36886355 0.2793813 0.22848742 -0.046843953 0.27207792

l2.bias f4 [130]
00000000: b9f8 9b3d 3459 aabd 5ca4 c73c 49a4 b3bd
00000010: cec0 2e3d 3ca0 733b 5826 a43b 62f9 38bd
00000020: 7a31 ed3b 9618 b83d f860 6e3e 250f d73c
00000030: 8ba3 0c3d de9c b4bd d9fe c0bc 6b53 4d3c
00000040: 904b 513d acb8 863d b5cb 383d 8574 67bd
00000050: d795 e2bc eea3 303d 9f8c fa3c 226c 9dbc
00000060: 6ed5 c1bc b7cc 8c3c 419d 123e 4cc7 fa3d
00000070: 72d5 70bd 6467 06bd f9f0 abbd d72e d43c
00000080: 29d2 423c c43a 613d 02da e3bc 3613 87bd
00000090: 1a03 0dbd 2fbc 923e f0f6 bd3c d28e d43d
000000a0: fcfd 5dbc e402 9d3d f8b3 e8bb c55d 623b
000000b0: 40ca 72bd 0f89 88bd 8910 29bd 85d4 62bd
000000c0: fe5e 283d 95eb 513d 35c7 a8bd 0abb 2d3d
000000d0: e022 613d c530 2fbd b341 a7bc 0878 cb3d
000000e0: f203 6bbd 57b4 533d 0d42 233e ca11 28bd
000000f0: f175 7dba 5593 fb3b d107 9abd 7402 ef3d
00000100: 37bd 653d cf70 273c 0183 debd 1e08 193d
00000110: 44b4 ebbd 5999 b23b e254 933b ae8d d53b
00000120: ce30 9c3b 5921 d33d 5a4d 29bd 1538 4bbd
00000130: d371 d03d 23ba 963c acd2 8fbd 9c8f 3bbb
00000140: c695 a33d 8a3b 2d3d 7dac 1cbc f1c7 a23d
00000150: 8da6 febd 8609 0ebc ec60 7a3c e1f4 373e
00000160: e706 34bd d745 e2bc d7a2 323d f815 23bd
00000170: bee5 a93d e43a fa3d 4e02 2c3d 8f03 3fbe
00000180: 05f4 bebc 4852 5dbe 1084 c1bc 5864 7abb
00000190: d741 603d 89bb 2fbd 29a5 3c3d e6ac 353d
000001a0: 764a 1c3d 03b1 c23d 25a0 8e3c 5379 3a3d
000001b0: 4e40 e53c 8c92 b1bb 7595 103e 0299 3a3d
000001c0: 3007 0a3d 18e9 99bc eddb a63c 5f07 283e
000001d0: 8072 29be 0891 123e ec4c 483d e6f5 5f3d
000001e0: dd6e 6ebd 1587 98bd 7bf3 b2bd f5ce 1a3e
000001f0: 5fd4 56bc 3d41 85bc 6621 3abd 1e6b 9fbc
00000200: fbd6 773c c7cf 8abc
0.076157995 -0.083177954 0.024370365 -0.08771569 0.04266434 0.0037174365 0.0050094537 -0.045159705
0.007238564 0.089890644 0.23279178 0.026252339 0.034335654 -0.088189825 -0.02355902 0.012532095
0.051097453 0.06578192 0.045116145 -0.056507606 -0.02765934 0.043125086 0.030584631 -0.0192166
-0.023661342 0.01718746 0.143178 0.12245044 -0.058797307 -0.032813445 -0.08395571 0.025901241
0.011890926 0.054987684 -0.027813915 -0.06595461 -0.034426786 0.28659198 0.023189038 0.10378803
-0.013549324 0.07666567 -0.007101532 0.0034540754 -0.059274912 -0.06666767 -0.041275535 -0.055378456
0.041106217 0.05125006 -0.08241121 0.042414702 0.0549649 -0.04277112 -0.02041707 0.099350035
-0.05737681 0.051685657 0.15943165 -0.04103259 -0.0009668759 0.0076774755 -0.07521022 0.1167039
0.056088652 0.010219767 -0.10864831 0.037361257 -0.11508992 0.0054504094 0.004496203 0.0065171337
0.00476656 0.10309095 -0.041333534 -0.04961403 0.1017796 0.018399304 -0.07022604 -0.0028619533
0.079875514 0.04229311 -0.009562609 0.07948292 -0.12434111 -0.008669263 0.015281897 0.17964508
-0.043951895 -0.027621193 0.043612327 -0.039815873 0.08295773 0.12218264 0.041994385 -0.18653701
-0.023309717 -0.21613419 -0.023622543 -0.0038206782 0.05475029 -0.042903457 0.046055946 0.044354342
0.03815695 0.095064186 0.017410347 0.04552586 0.027984764 -0.005419081 0.14119513 0.045556076
0.03369826 -0.018787906 0.02036854 0.16409062 -0.16547585 0.14313138 0.048901483 0.054677866
-0.058211196 -0.0744764 -0.087378465 0.1511801 -0.013112157 -0.01626646 -0.045442007 -0.019460257
0.015126939 -0.01694478

l3.weight f4 [50, 130]
00000000: 474e febc 4d27 e2bc 115c 693e f335 dabd
00000010: 8c38 cebe 7c34 c6be edfb 143d f5ec d83c
00000020: 81e8 30bc 9239 5dbd 2feb 853d 1227 7ebd
00000030: 7ab5 bdbc 05a9 7a3d fb7e bc3c 3589 4bbd
00000040: 8b13 76be ffad c43e a3d8 88bb 5c14 49bc
00000050: db7b 38bc e6ae 283d 8d0b 1c3d 0cb4 5b3c
00000060: e624 493d d597 9dbf 12c4 a0bc 6533 e8ba
00000070: 8f01 b8be 76c3 913d 89e4 b33d a4cf 923c
00000080: 77e0 993d fab8 293d 16e2 8c3d 5795 0abe
00000090: ab1e d3bf 1e1b f13c a1f5 de3d 30d5 0bbe
000000a0: 8200 fdbe e90e 8c3d 450c 673c 8cd9 f13b
000000b0: cce0 6cbd 9bd7 b2b9 0be7 51bd 5b22 b9bb
000000c0: 8674 5b3d 02e7 00bc e2d5 e3be 0d59 24be
000000d0: 810c 003c 4c13 323e 30ef 933c a23c 27bb
000000e0: 8d4d 37bd c9bd 92bd 3b51 5a3e 1cc2 983d
000000f0: bb0f 75bd eb1d 2a3c 7494 e63e b268 483d
00000100: 6d35 0dbd 123e 73bd 0847 a1be 7b88 0dbb
00000110: dd6f 88bd 9bc8 e53d 88b8 f43c f9e5 edbd
00000120: 9f6d 103e d363 cb3c d594 4c3d f74e 89be
00000130: 249b 23c0 16b2 7f3d 75fa 063a 4232 ffbd
00000140: c577 d43c 05f1 38bd bd52 963d a3b9 8c3d
00000150: dd7b 31be 629e 63bd 5fef d63d 2272 dcbd
00000160: b209 aabd c7aa f73c 7c2e e5bd 9967 b43e
00000170: b2f0 ccbc d76a 1e3e e6dd 88bd c525 1b3e
00000180: 9786 11bf 6491 56be fc6d edbc cdf3 8c3d
00000190: ced2 f13d 18a3 aebf 1432 153d 9f46 42be
000001a0: 7740 4dbe 42fd 7cbc c587 e7bd 67b5 d0bd
000001b0: 725b afbd 0ff8 db3d c873 3dbc 1d10 ccbd
000001c0: 7b98 93bf 2e2f 213d 4f11 98bd 0fb7 cd3c
000001d0: 3f25 c43d 7a19 d1bd df78 f73c a9ae c9bc
000001e0: a704 8c3d 95c0 593e 32f4 f5bd 7760 803d
000001f0: 21f3 3a3d 3498 3cbd 0fda 24bc 2519 ee3d
00000200: 08b6 c3bb 2e8f 65bd 25ef 593d d64a 8dbc
00000210: b0e7 b0be 9120 eabe 7411 eb3e ceab dbbe
00000220: 8a82 90bc 255b 59bc c520 153d 601b 6c3d
00000230: 715d ad3c a887 f93c a8c4 123e bd73 7a3c
00000240: b7c3 903d a41f 733e 4808 dd3e 817d b5be
00000250: 4dd9 573d 6a85 a93d 4783 203e 0d53 a9bc
00000260: f7fb 563d 2b35 e4be 39de f3ba bf35 00bf
00000270: d45c 09be 4baf dc3b e1a3 583e 5bb5 393d
00000280: 1d77 493e cdcf 2dbd 86a4 69bd 3a35 61bd
00000290: 699c 443b b0c7 0fbe 8298 78bf 1183 82bb
000002a0: f96c 7a3e 622e 863d e231 0bbf 2385 c0bd
000002b0: 4bd0 5c3d 0a21 b03d d349 973d fb20 49bd
000002c0: 5b66 3fbd a68b 0bbc a817 5bbc 3537 d33d
000002d0: 07f7 88be 5132 243e a7e9 683d 800a c2bd
000002e0: 3b04 afbd cda8 743d 8285 873d 1583 c83c
000002f0: a34c 93bd e4b0 87bd 35de bebd e74a 73bc
00000300: 7392 b8bf 5fbc b93d 091c 04be 41d3 e2ba
00000310: 8fa6 bebe db9d d039 fdae 98bd 8824 b8bc
00000320: 9f83 29bc d233 b73d bd81 9bbe 88a2 e13d
00000330: 6bcc 963c 7f9b a6be 6d4a cbbd a1dd e6bc
00000340: 093c bbbd 6ec4 3ebe e695 9dbd dd36 113d
00000350: 8748 ff3d 8e90 1fbd dd62 39bf df7e 20bd
00000360: 2b48 773d d6af febc 7eea c73c f949 a73c
00000370: fa81 cf3d d2ee 67bc 83ee ef3b 1fbc 8b3b
00000380: b491 d13c fc98 debe f9cf bbbe 7b8d 43bd
00000390: 8c77 87c0 fd9c 623c 5bc7 f43d 313c f43e
000003a0: 3c52 b23c 5332 663e d86c 14bf 1a7c 553d
000003b0: 2ca3 91bc 082a 79bc 6672 573d c1fb eabc
000003c0: c873 fd3d fccc ca3d 0fe1 8d3f e840 2d3d
000003d0: af78 913e 9e97 cdbe 49b7 c2be 4b7e 7d3e
000003e0: 9ff8 8f3d 6762 713c b9fd 0a3f 7034 253e
000003f0: bcaa 47be fbe0 623e efce d33d 5bd1 45bd
-0.031043185 -0.02760663 0.22789027 -0.10654821 -0.40277517 -0.38711917 0.036373068 0.026480177
-0.010797621 -0.05400998 0.06538998 -0.06204898 -0.023157824 0.061196346 0.023009768 -0.049691398
-0.24030893 0.38413998 -0.0041762157 -0.01227292 -0.011259998 0.04118242 0.038096953 0.013409626
0.049107455 -1.231196 -0.019624744 -0.0017715512 -0.3593869 0.07117359 0.08783824 0.017921276
0.075135164 0.041436173 0.0687906 -0.13533531 -1.6493734 0.029431876 0.10886694 -0.13655543
-0.4941445 0.068387814 0.014102046 0.00738067 -0.05783157 -0.00034111444 -0.05124573 -0.0056498474
0.053577922 -0.007867577 -0.44499117 -0.16049595 0.007815481 0.17390174 0.01805839 -0.0025518318
-0.044751693 -0.07165105 0.2132005 0.074588984 -0.059829455 0.01038311 0.45035136 0.04892797
-0.03447478 -0.059385367 -0.31499505 -0.0021596241 -0.06661961 0.11219903 0.029873148 -0.116161294
0.14104317 0.024827873 0.049946625 -0.26818058 -2.556344 0.062425695 0.00051490153 -0.12460758
0.025936017 -0.04515173 0.0734 0.06871345 -0.17332406 -0.055570967 0.10494875 -0.107639566
-0.083026305 0.0302328 -0.11190507 0.3523529 -0.025017116 0.15470444 -0.06682949 0.15151127
-0.5684599 -0.209539 -0.028983109 0.06882439 0.11807786 -1.3643522 0.03642471 -0.18972252
-0.20044123 -0.015441241 -0.11305193 -0.1019085 -0.08562364 0.10740673 -0.011563249 -0.09964011
-1.1530908 0.039351635 -0.07425176 0.025111703 0.09577417 -0.102099374 0.030209003 -0.024619417
0.06836825 0.2126487 -0.12009467 0.06268399 0.045642022 -0.04604359 -0.010061755 0.1162589
-0.0059726276 -0.05604475 0.05320658 -0.017247599 -0.34551764 -0.4572797 0.45911753 -0.42904514
-0.01764037 -0.013266359 0.036408205 0.057643294 0.02116272 0.030460194 0.14332831 0.015286383
0.0706858 0.23742539 0.4317038 -0.35447314 0.05269747 0.082774 0.15675078 -0.020669485
0.052486386 -0.44571814 -0.0018605656 -0.5008201 -0.13414317 0.0067347637 0.21156265 0.04533897
0.19674344 -0.042434502 -0.057041667 -0.0549824 0.0030000454 -0.14041018 -0.9710771 -0.0039829095
0.24455632 0.065518156 -0.5437299 -0.09400394 0.05390958 0.08600052 0.07387128 -0.04910372
-0.046728473 -0.0085171815 -0.013372339 0.10313264 -0.26750967 0.16034819 0.056863453 -0.09474659
-0.08545729 0.059731293 0.066172615 0.024476567 -0.07192352 -0.06625536 -0.093197264 -0.014849401
-1.4419693 0.09069132 -0.1290132 -0.001730539 -0.3723645 0.00039790463 -0.07455251 -0.022478357
-0.010346322 0.08945431 -0.3037242 0.110173285 0.018408021 -0.3254051 -0.09926305 -0.028181853
-0.0914231 -0.1862962 -0.076946065 0.035452712 0.12465005 -0.038956217 -0.7241648 -0.039183494
0.06037156 -0.031089704 0.024403807 0.020421015 0.10132213 -0.01415606 0.007322134 0.004264369
0.025582172 -0.43476093 -0.36682108 -0.04774235 -4.233343 0.013831374 0.119520865 0.47702172
0.021767728 0.22480135 -0.5797858 0.052120306 -0.017778002 -0.015207775 0.052599333 -0.028684499
0.12375599 0.09902379 1.1084307 0.042298228 0.28412387 -0.40154737 -0.3803046 0.24755208
0.070298426 0.014732934 0.542934 0.16133285 -0.19498724 0.22156136 0.10342204 -0.04829536

l3.bias f4 [50]
00000000: ecf4 9a3d 3e15 193e 0fca 093d 220e f2bc
00000010: f3ec a2bd 391e d6bb 0c1c 56bb 8f7e b3b9
00000020: ff7a 083d be84 7bbb 840c 483e 3cfd 9d3d
00000030: dfee 0a3e 38f9 b33d ed98 0ebe 2d74 d5bd
00000040: 7b7c debd b580 053d a141 e23c 92fd 7c3d
00000050: 0e99 6fbb a88f b4bd c344 1f3e 6604 663c
00000060: d27e e23d 23dc 30bd 6f51 b6bb ad84 fb3c
00000070: b434 b03d 87a0 01bc 71e0 84bd 4053 21be
00000080: b57b a43d ba4f f1bd 51da 923c 930a 013e
00000090: 2e3b de3d 63b5 11be 318f 90bd d0d5 7bbe
000000a0: 14d3 ab3e 1304 663d e0db 84bd 9c58 9b3c
000000b0: 5491 c43d 6d33 313e 0b7b 813c 8fe6 c1bb
000000c0: 9a49 1cbe e722 4dbd
0.075662464 0.1494951 0.033639964 -0.029547755 -0.07955351 -0.0065343645 -0.0032670526 -0.00034235834
0.033320423 -0.003837868 0.19536024 0.07714316 0.13567685 0.08787769 -0.13925524 -0.104225494
-0.108635865 0.032593448 0.027619185 0.06176526 -0.0036559734 -0.08816463 0.15553574 0.014039135
0.11059345 -0.04317869 -0.005563907 0.030702913 0.08603802 -0.007911808 -0.06488121 -0.15754414
0.08031408 -0.11782785 0.017926367 0.1260169 0.108511314 -0.1422935 -0.070585616 -0.24593282
0.33559477 0.05615623 -0.0648725 0.01896315 0.09598032 0.17304774 0.015805742 -0.0059173773
-0.15262452 -0.050082114

l4.weight f4 [5, 50]
00000000: b9d0 d13a 9766 b73a dfb7 653b c0c4 1dbd
00000010: 7e2c 1a3d bb46 873d 5ad9 17bc f6ef 6e3c
00000020: 94eb 86bd 0d11 71bd b054 a33d a3b0 673b
00000030: 1fb0 9fbf d92b db3d 1b49 55bb 3966 d73d
00000040: f155 1abd 9c0e e73a d724 843b ae33 573d
00000050: 8f8e 4bbd a6c1 0e3d 3606 5a3c 9ce8 91ba
00000060: 15d7 26bb 45e9 18bd fc24 23bc 8f72 8ebb
00000070: 2185 1f3c 24f4 26ba e5c6 1e3b 3545 a23b
00000080: 579f 10be 3356 ff3c db11 33bb c7fb cd3b
00000090: 3b95 083e a561 9e3c 2216 c4bd e8a0 97bb
000000a0: 16a9 463b a28b 2d3e 3323 bdbb 6273 b0bb
000000b0: 0781 31bb 87fd bfba bc8e 1c3c c349 103e
000000c0: 726c 8dbc f663 0bbb de5f d5ba c2ba a73b
000000d0: 1f9c 81bd 51da f73b 445a 793c f7a1 2bbd
000000e0: 8165 15bc d578 d3bb 0179 0b3e 613c babd
000000f0: 8a89 be3c 6ab4 1f3b f88e 123c edbd fe3d
00000100: ba76 a83d ea2d 60bd 7801 fbbc 8d72 273c
00000110: 9855 d43b 5466 7dbd 25c6 0a3d 1fee 92bd
00000120: f8b6 29bd 132e 6e3c 8725 02bb 3bf8 ba39
00000130: 3dff bf3d 47fe 533d 96da c6bf 51d2 413b
00000140: 2f3b f6bb 6617 843d 9776 72be 1b6b 073d
00000150: 3543 ddbb 4fdb f3bf 89c5 0abd 9bff d43d
00000160: 9870 adbd 26b9 be3b 0344 d4bb 283f 0bbc
00000170: 89ad c9bb f072 a33c fff3 083c a8dd 61bb
00000180: e4ae 593d 8a39 b83d ec98 d7bb 52e7 b13d
00000190: fc8f 9d3e dc88 99bd 0d15 8e40 637d 2e3d
000001a0: 1a96 853d 9895 0fbc 3976 ba3b 9136 e6bd
000001b0: fa0d 2fbe 7f14 36bd 6714 04bd f7a2 10bc
000001c0: ee07 813b 485e c4bd d5ca 4f3e eca2 713d
000001d0: 60e0 f13d 77d2 f8be 95f0 f8bc 7801 83bd
000001e0: 2594 3f3b 04ca 1b3e a136 9fbd 1f63 c2bf
000001f0: e42c 113c 2a0e 2bbd 3ea0 bf3d d7cd 773d
00000200: 35eb a6bd d882 3d3d 474f 213d f2fc 37be
00000210: f35f a738 e14c ec3d b380 823a 588b ef3b
00000220: 3b85 3bbe 6564 143e 21ba 063d 39e2 e73d
00000230: 3112 963b 9cbe 9bbc afe7 bc3c 6319 243e
00000240: b49f b4bf 3233 f33c 07b5 943d 9892 de3d
00000250: 4663 373d 2709 9c3d 6df9 c3bf 7d86 8cbf
00000260: cbcc 9e3c 5312 003e 9d0e 433e b3a4 c73d
00000270: 0c23 953d 03ea c2bd 2ed2 fc3d f307 6d3d
00000280: 7765 153d b91a 773d 0b25 903b 2394 76bd
00000290: b0e9 bbbd 22da b1bb f6a5 b63e f444 263e
000002a0: 28c0 863f 125d 1a3d 6699 fcbd c8d8 853c
000002b0: 8ec1 073e 96a8 313d 8903 4e3e 2e77 59bd
000002c0: 42f4 3c3c e230 b33d 3ba2 9639 05a8 1dbf
000002d0: 7e8a 11bf 7473 36bd 2a16 02bd 63c8 c53d
000002e0: 217f 46be 96ad a93b 26f7 e53d 7a71 713d
000002f0: 20b6 2ebc 6006 b33c 302c 29bf 6c8a 5a3c
00000300: 2d8c 083d 0fd2 7a3d 2495 bdbc 175a e5bf
00000310: 247f a53d 747f 1abe c0a9 5c3e a91e 8c3d
00000320: a8b2 e1bc 2cca 673e 7bc1 cd3c 6f68 04bf
00000330: 1989 a3bd eb9d a4bc 9d65 ef3d dc8a b83d
00000340: e9be 0abd 82a3 dcbd f4bf 34bd 85bf 323e
00000350: 6cb9 0b3a d263 a63c 9238 003d 038b 563c
00000360: 3946 0ebe 1b7d d8bb 9e1b aabe 5310 a9bd
00000370: 6ba9 1b3e ce50 573d 32a3 4d3c eab7 21bc
00000380: 2c8a 4abd 395c cd3d 3726 a7bc e860 573c
00000390: 95a6 1a3c 4460 2a3d 2d45 d3bd 86c1 21bc
000003a0: 5acb b1bd d13a 58bc fb26 563b 5264 f5ba
000003b0: 09bd 46bc fd94 98bd d3f1 a9bd 9c22 f2bc
000003c0: 9702 0fc0 4b6d d7bb bd4e 563d d6dc 7dbd
000003d0: 0e61 84ba dbbc e9bd 933f a8bd cc35 13bc
000003e0: d105 143f f25f 033d
0.0016007639 0.0013992366 0.0035052223 -0.038517714 0.037640087 0.06605288 -0.009268129 0.014583578
-0.06587902 -0.05885415 0.07975137 0.0035353086 -1.2475623 0.10701723 -0.0032544795 0.10517544
-0.037679616 0.0017628255 0.004032712 0.05253952 -0.0496965 0.034852646 0.013307145 -0.0011131945
-0.0025457789 -0.03733184 -0.009957548 -0.0043471525 0.00973633 -0.0006368777 0.0024227437 0.004952098
-0.14123283 0.031169033 -0.0027323875 0.0062861177 0.13338177 0.01933367 -0.09574534 -0.004627336
0.0030313185 0.16947797 -0.0057720183 -0.0053848485 -0.0027084963 -0.0014647701 0.009555515 0.14090638
-0.017263625 -0.0021269298 -0.0016279181 0.005118699 -0.06328606 0.007563867 0.015219275 -0.04190251
-0.009118439 -0.0064536133 0.13620378 -0.090935476 0.023258943 0.002436901 0.008945219 0.12438569
0.0822577 -0.054731287 -0.030640349 0.010220182 0.00647993 -0.061865166 0.03388037 -0.07174324
-0.04143426 0.014537352 -0.0019858794 0.0003566163 0.09374855 0.05175617 -1.5535457 0.0029574821
-0.0075143795 0.064497754 -0.23678051 0.033061128 -0.0067523965 -1.9051303 -0.03387979 0.104003154
-0.08468741 0.0058204113 -0.006477834 -0.008498944 -0.00615472 0.019952267 0.008358954 -0.0034464393
0.053145304 0.0899535 -0.006579509 0.08686699 0.30773914 -0.07496807 4.4400697 0.042600047
0.0652277 -0.008763693 0.005690363 -0.112408765 -0.17095175 -0.04445314 -0.03224602 -0.008827916
0.003937713 -0.09588295 0.20292218 0.058993265 0.11810374 -0.48598072 -0.030388156 -0.063967645
0.0029232588 0.15213782 -0.077740915 -1.5186499 0.0088608 -0.041761555 0.09356736 0.06049904
-0.08150331 0.04626736 0.039382245 -0.17967585 7.9810525e-05 0.11538101 0.0009956568 0.0073103122
-0.18312542 0.14491422 0.03289235 0.113224454 0.0045798053 -0.019011788 0.023059694 0.1602531
-1.4111238 0.029687498 0.07261091 0.10867804 0.04477241 0.07618933 -1.5310494 -1.0978543
0.019384762 0.1250699 0.19048543 0.09748211 0.07282075 -0.095172904 0.12344776 0.05786891
0.036473718 0.06032822 0.004398947 -0.060199868 -0.09175432 -0.005427615 0.35673493 0.16237241
1.0527391 0.037686415 -0.12333946 0.01633872 0.13257429 0.043373667 0.20118536 -0.053092174
0.011532845 0.08749558 0.000287311 -0.615845 -0.5685195 -0.0445437 -0.03175942 0.09657361
-0.19384433 0.0051781638 0.112287804 0.05894611 -0.010663539 0.021853626 -0.6608305 0.013338666
0.033336807 0.061235484 -0.023142405 -1.7918118 0.08080891 -0.15087682 0.2154913 0.068417855
-0.02755101 0.22635716 0.025116673 -0.51721853 -0.07985134 -0.020094832 0.11689303 0.0901086
-0.033873472 -0.10773374 -0.044128373 0.17455871 0.0005330059 0.02031127 0.03130395 0.013094666
-0.13893975 -0.0066067106 -0.33224195 -0.08255067 0.15201347 0.052567296 0.012551116 -0.009870509
-0.049448177 0.10027356 -0.020403964 0.013145663 0.00943913 0.041595712 -0.103159286 -0.0098728
-0.08681364 -0.013197617 0.0032677043 -0.0018721914 -0.01213003 -0.07450292 -0.082980774 -0.029557519
-2.234533 -0.006574308 0.052321184 -0.061978184 -0.0010099725 -0.114129744 -0.08215251 -0.008984994
0.57821375 0.032073922

l4.bias f4 [5]
00000000: d8fc afbd 2773 87bd aace 63bd 6f53 3dbe
00000010: 51f0 e93c
-0.08593148 -0.066137604 -0.055617012 -0.18488859 0.028556975

exp_avg f4 [250, 7]
00000000: 4664 6f34 67bb 8ab4 0e13 ac34 17c6 95b4
00000010: 51c5 3a34 4fb1 ddb3 d183 a334 f9b0 be32
00000020: 1662 4db3 aebe bdb3 c158 8bb4 4ab1 2831
00000030: c575 f632 26e3 68b3 4f7c 7eb4 ee58 b734
00000040: f329 dfb5 7a69 8d32 a13a e8b4 78f4 99b3
00000050: 9437 84b4 8ddd aab4 6654 bf34 fa25 afb3
00000060: 2586 b5b4 2fc4 2335 5271 ea33 cf24 0835
00000070: 23cd d131 3906 a4b4 658a 9e34 bc6b 18b3
00000080: 6ad7 5f34 9951 89b3 37b7 a834 60db 2eb4
00000090: d4ee 2135 cbe7 3335 3280 2334 6167 af34
000000a0: fd42 36b4 e1d0 ed33 7bd2 17b5 ea90 14b5
000000b0: ed88 cdb4 e738 2d35 a57b 8ab4 f883 98b3
000000c0: 57ed 70b5 ad23 adb4 b558 5a34 4011 df31
000000d0: d6db 3434 1753 0135 ec9c bd33 6ee4 8b34
000000e0: 292b a3b3 6103 fa34 044b 6135 0af8 b234
000000f0: 4d2c 66b5 73d9 08b5 3d70 77b4 140d cdb4
00000100: a46b aeb4 7620 8bb5 d080 8b35 7f63 3c33
00000110: f043 3035 19d3 5d35 7b95 47b5 732c a4b4
00000120: 98a4 52b3 7f4a c4b3 5746 d1b5 f967 31b5
00000130: d004 4db4 ae4f 04b6 0a35 8534 8172 e1b4
00000140: 2b47 ff33 5fa2 3e36 ba4b 1234 dfb1 07b5
00000150: 9f35 6035 a9f4 f4b2 b84f 5335 a2bb 8fb4
00000160: 5681 a935 f1db 7b35 a3a9 bd35 96c8 9735
00000170: b58a 8d34 daac 19b5 73b9 01b2 b4dc 1135
00000180: f4df 9335 9a74 5f35 0952 f6b4 7734 5535
00000190: c22b 04b6 ca82 97b5 8481 4b36 10e1 7435
000001a0: a39d 2234 7ebe d334 d4bd 74b5 c85a 3d33
000001b0: 881e 9c34 0eb9 b434 d0c8 0a35 bbfc d334
000001c0: 8e64 82b3 233d 1635 4e21 edb3 0eb8 beb4
000001d0: 8de1 f4b4 c36e 89b4 9966 6f34 33ee 7db4
000001e0: aef8 6635 5588 3f35 d99c 0234 50d5 46b4
000001f0: de39 ea33 b706 c434 66c6 5334 4b06 f7b3
00000200: 378a d3b3 c517 b234 b15a d434 ab0d 52b4
00000210: b9ee b734 4171 a334 e6dd a633 95da 9435
00000220: 30f1 8cb4 e777 7733 d278 45b5 7a05 ec34
00000230: f6bd 2bb5 bf55 fa34 1397 3634 4169 24b5
00000240: ba8b 3eb6 ef2c 9133 4075 09b6 ce22 09b5
00000250: 18a6 81b5 4ef4 8e35 7045 d7b4 992c dc34
00000260: 5b99 4734 8dca 7235 7485 6ab5 8bae 67af
00000270: 6ac8 29b5 37c5 c3b3 2b16 6834 49c5 edb4
00000280: 780a ff33 7b5b 9eb4 93c3 0b35 acbb fa34
00000290: 5ec8 aeb4 0c5e 4635 bf1e 9934 aeab 0db5
000002a0: 364b fb34 3478 c4b3 401b 13b5 e1fb bab3
000002b0: 6e38 8db5 a665 4735 3d6f b0b5 b32f 70b3
000002c0: efe8 d234 33b5 5db4 357c 4034 3f11 8234
000002d0: 938a feb3 718c 04b4 5c96 9c35 9191 3fb4
000002e0: fb80 5b35 8894 ee34 3d85 ff34 4efb 9e35
000002f0: ef21 f434 4527 b634 14df 62b4 5561 7134
00000300: 7464 8033 e5b6 44b6 f5f0 98b4 2839 42b5
00000310: 3863 60b5 5c1f 8eb5 f74f 7db3 ba56 8034
00000320: d654 afb5 bab0 2ab5 4ef1 d2b5 f745 1933
00000330: 6be0 17b5 31fe 8335 6dd2 9734 cafa b435
00000340: a016 8d33 8742 bc33 6693 8db5 3b95 e034
00000350: 491c 31b6 8d73 4eb5 05c1 c335 1979 6b35
00000360: 30f2 e933 f7f5 bd35 087e 0cb5 fdb3 f6b4
00000370: 3d09 a134 76fa b734 4238 f334 e532 f834
00000380: 7f0b a2b4 7e2b 06b3 a780 89b5 12b1 f734
00000390: 1221 fc34 4267 b0b5 808e 8a35 9384 9a33
000003a0: 0d1d 7c32 c3d5 16b4 6ca2 8db3 7d73 1a34
000003b0: 2f44 2f34 46db d3b3 0cb4 14b5 2af3 e934
000003c0: b369 b435 524c a634 9a19 b1b4 00a1 12b5
000003d0: f468 d1b5 481c 72b5 7481 fa34 beed 2eb4
000003e0: cbce 8a33 4b6c 3633 9b91 fb33 cb89 13b5
000003f0: 412b 1cb4 53a1 ceb2 abc2 a0b1 231b dfb4
2.2295089e-07 -2.5840856e-07 3.205136e-07 -2.7897542e-07 1.7394383e-07 -1.0323367e-07 3.0457025e-07 2.2199389e-08
-4.781949e-08 -8.835683e-08 -2.5955345e-07 2.4547995e-09 2.8691725e-08 -5.42233e-08 -2.3700817e-07 3.415111e-07
-1.6627004e-06 1.6462526e-08 -4.3256026e-07 -7.169086e-08 -2.4627354e-07 -3.1826167e-07 3.563793e-07 -8.1559804e-08
-3.381148e-07 6.1007717e-07 1.0917087e-07 5.071751e-07 6.106022e-09 -3.0551908e-07 2.953049e-07 -3.548824e-08
2.084686e-07 -6.394402e-08 3.1425745e-07 -1.6284821e-07 6.0324714e-07 6.702e-07 1.5227195e-07 3.2671508e-07
-1.6974441e-07 1.10741674e-07 -5.6558173e-07 -5.5345174e-07 -3.8283852e-07 6.4530326e-07 -2.5794466e-07 -7.1020565e-08
-8.975234e-07 -3.224972e-07 2.0335104e-07 6.4921153e-09 1.6843782e-07 4.8177156e-07 8.829542e-08 2.6056972e-07
-7.59813e-08 4.6568587e-07 8.3928194e-07 3.3335556e-07 -8.5746143e-07 -5.098038e-07 -2.30445e-07 -3.819374e-07
-3.2488344e-07 -1.0365754e-06 1.0393796e-06 4.3862652e-08 6.566397e-07 8.2636103e-07 -7.43508e-07 -3.0579722e-07
-4.9044132e-08 -9.140512e-08 -1.5592185e-06 -6.608894e-07 -1.9093864e-07 -1.9715912e-06 2.4811771e-07 -4.1992828e-07
1.1887308e-07 2.8406719e-06 1.3624859e-07 -5.0550256e-07 8.352453e-07 -2.8516597e-08 7.871963e-07 -2.6772346e-07
1.2629123e-06 9.3824843e-07 1.4130968e-06 1.1308755e-06 2.636422e-07 -5.7248474e-07 -7.5509545e-09 5.4337875e-07
1.1017532e-06 8.324365e-07 -4.588076e-07 7.942503e-07 -1.9695003e-06 -1.1288441e-06 3.0324745e-06 9.122459e-07
1.5144774e-07 3.9440414e-07 -9.117332e-07 4.4087557e-08 2.907948e-07 3.3662258e-07 5.1701227e-07 3.9485698e-07
-6.0718875e-08 5.596832e-07 -1.10422306e-07 -3.5524175e-07 -4.5612651e-07 -2.5598828e-07 2.2295934e-07 -2.3649118e-07
8.6043553e-07 7.1351434e-07 1.2164254e-07 -1.851779e-07 1.0907e-07 3.651273e-07 1.9723083e-07 -1.15029785e-07
-9.850594e-08 3.3172378e-07 3.9554064e-07 -1.9562746e-07 3.42601e-07 3.044352e-07 7.7703405e-08 1.1090475e-06
-2.625252e-07 5.761822e-08 -7.3564036e-07 4.396241e-07 -6.3978894e-07 4.6628517e-07 1.7005031e-07 -6.1247925e-07
-2.8393538e-06 6.760262e-08 -2.048284e-06 -5.1087125e-07 -9.659589e-07 1.0650926e-06 -4.0097393e-07 4.1010642e-07
1.858911e-07 9.0446775e-07 -8.736599e-07 -2.1071338e-10 -6.3249047e-07 -9.116268e-08 2.1614748e-07 -4.4288234e-07
1.1876267e-07 -2.9496354e-07 5.2066133e-07 4.6702678e-07 -3.2555812e-07 7.3897604e-07 2.8520842e-07 -5.277642e-07
4.6807116e-07 -9.148826e-08 -5.480142e-07 -8.7071165e-08 -1.0521742e-06 7.4281195e-07 -1.3145396e-06 -5.5922737e-08
3.928503e-07 -2.0648149e-07 1.792658e-07 2.4226935e-07 -1.1853003e-07 -1.234455e-07 1.1666666e-06 -1.7841218e-07
8.177155e-07 4.4439025e-07 4.7594395e-07 1.1845057e-06 4.5473232e-07 3.3928714e-07 -2.1129046e-07 2.2480283e-07
5.978737e-08 -2.9312735e-06 -2.8487526e-07 -7.2353805e-07 -8.3590885e-07 -1.0588951e-06 -5.897888e-08 2.390496e-07
-1.3063207e-06 -6.3587106e-07 -1.5716448e-06 3.568672e-08 -5.6578455e-07 9.83424e-07 2.8279047e-07 1.3484034e-06
6.5699396e-08 8.7665335e-08 -1.0548217e-06 4.183183e-07 -2.639152e-06 -7.690913e-07 1.4584808e-06 8.772054e-07
1.08939616e-07 1.4153183e-06 -5.2337464e-07 -4.595203e-07 2.999531e-07 3.426864e-07 4.530321e-07 4.623063e-07
-3.0183216e-07 -3.1238862e-08 -1.0244738e-06 4.613617e-07 4.696272e-07 -1.3143074e-06 1.0323274e-06 7.195299e-08
1.4674936e-08 -1.4047605e-07 -6.5953685e-08 1.4384382e-07 1.632295e-07 -9.865339e-08 -5.53963e-07 4.3576557e-07
1.3441808e-06 3.097544e-07 -3.2987447e-07 -5.4623524e-07 -1.5602259e-06 -9.019318e-07 4.6660318e-07 -1.6291503e-07
6.463741e-08 4.247367e-08 1.1714584e-07 -5.496228e-07 -1.4544368e-07 -2.4054918e-08 -4.678744e-09 -4.155673e-07

exp_avg_sq f4 [250, 7]
00000000: 607a 252e 7a56 b12e a921 142f e603 d62e
00000010: e8c2 7a2e 12dd 822d eb05 d72e 1657 3c2c
00000020: 014b 9d2e 9c19 f22f 3cda b22f a5b7 c32e
00000030: 8059 9c2e 7aa5 6d2d 5792 6a2f 2fe1 b230
00000040: 55f2 8d31 3909 3330 2928 942f 949e c02f
00000050: a41a 6930 64bb 0b2f 0f0d 5730 4368 822f
00000060: 00c3 642e 28cf f52f cb3a 8a2e 23b5 7330
00000070: d679 c42d b9e4 e92e 11d1 c62e 8605 ea2c
00000080: e642 a92e 9ccf 192d e9f1 c02e 05e2 6430
00000090: d5bc ea2f b74c ec30 66a2 732f b517 882f
000000a0: 0255 1a30 fa17 452f a98b 9a2f 7c9b 8230
000000b0: 889b e02f f0ff 222f 2bb1 0e30 7156 0330
000000c0: d2e0 b730 43b1 8930 cd8d 072f 59c0 aa2e
000000d0: 87ce bf2c fba2 dd2e 52de c82f ab1a e32e
000000e0: 98ee f82d f9bc b02f 503c 0731 debd da30
000000f0: 7bc5 4431 6662 6830 42dc 7a2f 8328 1d30
00000100: d71a a92f b3fe 8731 bca0 1f32 99c5 3f2f
00000110: 5db7 0330 7ecd 1230 1d2a de2f e36e de2f
00000120: 482b 7930 9960 0530 5eca d230 1782 b830
00000130: 2983 002e 0b0c ad30 a7cd 8f31 b164 0631
00000140: 5886 8c2f aacf 8732 485d 1530 5322 fe31
00000150: e045 0230 b6f2 902e 174b 8530 479a b82f
00000160: 1915 a230 bc84 a630 7e64 1031 0354 0c31
00000170: 6679 7830 ca15 4e30 bac2 3130 2814 ae30
00000180: 19ab a130 e9c7 6730 af4a 6a31 52ca 4631
00000190: 0665 3632 89b2 c731 dfcb 0b32 11a9 2431
000001a0: 1307 3c31 c3fc 922e 82f6 732f fd04 2330
000001b0: e410 a130 5c2b 322f 2d6e e32f ac39 492f
000001c0: f124 bd2e 69b5 2230 0495 a02f 0a68 ed2f
000001d0: 0c95 892f 4b0c ee2e d7a8 722f 666b 802e
000001e0: e45d 542f 570f 9d2f b924 542f e6b4 2d2f
000001f0: 95e0 962e 9d28 f62e 71b4 d52b 4cd5 1b2d
00000200: 9c60 5a2e 56bb 9c2f 71f0 592f beed 832e
00000210: 6713 942f 8cf6 102f e100 e52f d794 9f2e
00000220: 4ab2 2d2f 46e4 2130 0deb 442f 0f9e 212f
00000230: 4f96 1b30 51d9 d52e 1e04 6130 22af 832f
00000240: 5b7c a932 9685 272f d444 3532 44a1 7b2f
00000250: a4ae a130 82f7 8c30 3783 a22e 0f3d e52f
00000260: e732 992e 5a36 8a30 15c5 bb2f 2999 c22f
00000270: 4d85 c830 99a4 8230 b77d 642f 916f 5f30
00000280: 7db2 792f eea1 ad2f 6b2e 802f 9213 b82f
00000290: 4187 0830 a56c ad31 3452 a72e 4783 b030
000002a0: a8f9 802f e529 e52f a3f6 a330 49fc 1330
000002b0: 4bcc 1c31 2e2f 8b30 ba20 4431 1bef 812e
000002c0: 1b65 da2e 02dc 122f c53e 662d 4bd6 c12d
000002d0: 5481 4a2d f7e8 d02e 9962 ae2f 41a0 892f
000002e0: 8616 1930 a4cf 2b30 9e43 632f 22e2 e430
000002f0: 6234 132f b5d4 b82e 8ad4 da2f 9b62 9030
00000300: 547b 0230 e8b5 8932 2087 0a2f 3eaa a531
00000310: e353 502f ed84 cd30 ec1a 1030 0d10 9a2f
00000320: 941d 2031 0cc2 bb30 c7c2 7f31 8798 4f30
00000330: 9c43 4830 524d 6431 d2ac eb2f c2ed be31
00000340: 87d4 a930 8a9c 2d31 cd16 8a2f 6ee5 a42e
00000350: a1fc 8531 0b70 0d32 88ee 8530 153f ea2e
00000360: 1fa0 6d2e 27a1 1230 0fbf da30 de1e 4330
00000370: 28e2 d12f b927 1730 b426 3030 e381 d12f
00000380: 24e8 8330 1211 5330 6596 ff30 bfec ef2f
00000390: 699b dd30 8ba1 2b31 c2bb 2c31 a99d d92f
000003a0: 0509 b72d 869f c32f 72c8 1f2e 21de 8a2e
000003b0: 4447 b62e bb71 f92e e688 222f 3160 d92f
000003c0: ad29 7230 afee 402f c6a6 8332 3b3b be30
000003d0: 14cd 5732 9181 a730 1b17 2130 9bdd b930
000003e0: b04d 922e 5c87 2a2e f7e4 bc2f 0d92 6c30
000003f0: 95ea e02d 8af4 a02f ac05 c02e af55 382e
3.7625347e-11 8.0643894e-11 1.347248e-10 9.732286e-11 5.701653e-11 1.4877464e-11 9.778119e-11 2.676475e-12
7.152857e-11 4.403774e-10 3.2533076e-10 8.900195e-11 7.109957e-11 1.35086334e-11 2.1334166e-10 1.3015206e-09
4.13119e-09 6.5132927e-10 2.694958e-10 3.5037273e-10 8.4802765e-10 1.2708551e-10 7.82351e-10 2.3720945e-10
5.2014393e-11 4.4712434e-10 6.285957e-11 8.8660296e-10 2.2336726e-11 1.06362426e-10 9.041135e-11 6.6512932e-12
7.697114e-11 8.743142e-12 8.774121e-11 8.326711e-10 4.2698525e-10 1.7193064e-09 2.2158417e-10 2.47551e-10
5.6145677e-10 1.7925564e-10 2.811167e-10 9.502936e-10 4.0855874e-10 1.4824741e-10 5.191107e-10 4.7780363e-10
1.33789e-09 1.0018443e-09 1.2328556e-10 7.764873e-11 5.4514756e-12 1.00788676e-10 3.6537756e-10 1.0327502e-10
2.8300293e-11 3.2148487e-10 1.967937e-09 1.5915551e-09 2.8634008e-09 8.454094e-10 2.2815619e-10 5.717384e-10
3.0759992e-10 3.957973e-09 9.291565e-09 1.744155e-10 4.79181e-10 5.340651e-10 4.0411488e-10 4.0460355e-10
9.064718e-10 4.852239e-10 1.5337027e-09 1.3424736e-09 2.9220324e-11 1.259083e-09 4.1852277e-09 1.9556803e-09
2.556131e-10 1.5810503e-08 5.4338445e-10 7.396275e-09 4.7393023e-10 6.591476e-11 9.698365e-10 3.3579026e-10
1.1793048e-09 1.2115815e-09 2.1011881e-09 2.0420436e-09 9.039439e-10 7.497333e-10 6.466895e-10 1.2665895e-09
1.1762921e-09 8.43214e-10 3.4093934e-09 2.8927798e-09 1.0616764e-08 5.8119594e-09 8.13722e-09 2.3961244e-09
2.7361622e-09 6.684211e-11 2.2188298e-10 5.9306143e-10 1.1719092e-09 1.620441e-10 4.1369344e-10 1.8301333e-10
8.601287e-11 5.9193056e-10 2.9209712e-10 4.3183973e-10 2.502606e-10 1.08251706e-10 2.2069756e-10 5.839844e-11
1.9314644e-10 2.8569033e-10 1.9294334e-10 1.5798526e-10 6.861104e-11 1.1193999e-10 1.5184643e-12 8.858091e-12
4.9653268e-11 2.8509345e-10 1.9821457e-10 5.999422e-11 2.693483e-10 1.3184315e-10 4.1655482e-10 7.256922e-11
1.57976e-10 5.8895855e-10 1.7909603e-10 1.4699018e-10 5.6602273e-10 9.724722e-11 8.1860374e-10 2.39532e-10
1.973074e-08 1.5236021e-10 1.0551236e-08 2.288561e-10 1.1763928e-09 1.0256687e-09 7.3902155e-11 4.1698242e-10
6.9666765e-11 1.0056269e-09 3.4155137e-10 3.539722e-10 1.4589802e-09 9.505526e-10 2.0781142e-10 8.1285473e-10
2.270983e-10 3.1583575e-10 2.3316046e-10 3.348331e-10 4.966872e-10 5.047314e-09 7.608883e-11 1.2842997e-09
2.3460456e-10 4.1684625e-10 1.1929909e-09 5.383681e-10 2.2817115e-09 1.012699e-09 2.8540357e-09 5.9087145e-11
9.931452e-11 1.3356785e-10 1.3087924e-11 2.2036725e-11 1.1511087e-11 9.500128e-11 3.1720473e-10 2.5034022e-10
5.5693083e-10 6.250451e-10 2.0669552e-10 1.6653454e-09 1.3388182e-10 8.4051356e-11 3.9804987e-10 1.0505404e-09
4.7468984e-10 1.603162e-08 1.2599033e-10 4.8214863e-09 1.8947292e-10 1.4953493e-09 5.2425153e-10 2.8023842e-10
2.3299878e-09 1.3661192e-09 3.7218102e-09 7.5522916e-10 7.2855655e-10 3.3222318e-09 4.2869047e-10 5.5567577e-09
1.2356772e-09 2.5263796e-09 2.5118255e-10 7.4986115e-11 3.89953e-09 8.232756e-09 9.744818e-10 1.06522936e-10
5.4029777e-11 5.33435e-10 1.591589e-09 7.098445e-10 3.8177572e-10 5.498993e-10 6.408343e-10 3.8109169e-10
9.597483e-10 7.678561e-10 1.8596437e-09 4.3642065e-10 1.6124037e-09 2.4975602e-09 2.5136022e-09 3.9584094e-10
2.0808697e-11 3.5583642e-10 3.6330446e-11 6.3149715e-11 8.289061e-11 1.13434116e-10 1.478245e-10 3.9540418e-10
8.809831e-10 1.7547096e-10 1.5326247e-08 1.3841154e-09 1.25612765e-08 1.2187674e-09 5.8604294e-10 1.3523506e-09
6.6531114e-11 3.8773748e-11 3.435969e-10 8.606385e-10 2.5570027e-11 2.9277586e-10 8.732157e-11 4.191286e-11
